backend/data/best_model.pth (torch, 121003 bytes, 19 tensors)

layer1.weight f4 [128, 134]
-0.024883758 -0.09615022 -0.022319805 -0.06405168 0.02241633 -0.046817243 -0.016086545 -0.05025512
-0.020414613 0.0034137385 0.0044856807 0.08609255 0.08303594 -0.057263713 0.027388325 0.038218495
0.044020098 -0.048911713 -0.04358055 0.077780254 0.037831686 0.07759982 -0.033869594 -0.051028997
0.086494625 0.058210697 0.060336396 0.060143933 -0.07845322 -0.06116464 0.008505577 -0.0147731835
-0.07645959 0.045353632 0.07695106 0.057640836 0.08689521 0.08812321 -0.080746666 0.06847277
-0.014393488 0.018093772 0.071059674 0.04812342 -0.086718045 0.05724263 -0.07227803 -0.07268904
0.077252515 -0.00086601614 -0.09833972 -0.056568086 -0.051203873 0.094851874 0.047012065 -0.094887935
2.202901e-09 -0.008667749 -0.03403266 0.028116133 0.09332107 -0.039268665 0.022669664 -0.057386085
0.03316858 0.046286147 -0.0037367076 0.091796234 0.04720793 0.10794428 -0.056212347 -0.009105012
-0.06778512 0.0073585873 0.034168765 0.049099423 -0.009125259 0.037216555 0.016094051 0.099120356
-0.01288653 0.0306691 0.010513633 -0.03644124 -0.048008814 -0.098878935 0.06027758 0.030753644
0.0834837 -0.0044888593 -0.019914987 0.0027021985 0.05550023 -0.051634774 -0.07631352 -0.03971964
0.06300766 -0.046060167 -0.083100416 -0.018880531 -0.028120907 -0.044998385 0.099539384 0.090378396
-0.0123401135 -0.0016638667 0.01856266 -0.056209438 0.046821028 -0.09314235 -0.0036644368 -0.0034251087
-0.016262503 0.023341706 -0.023747915 0.0017238007 -0.0069859372 0.026673703 0.025789881 0.010567369
0.007631975 0.061997235 7.137781e-08 0.046326403 0.029481785 0.017278198 -0.025641486 -0.033028964
-0.020115348 0.010028216 -0.07664307 -0.106007 -0.08813605 0.0060976883 -0.014629847 -0.01203251
0.075119555 0.048329886 0.07914223 0.04598923 -0.08368212 0.024352828 -0.03525399 -0.022357434
-0.023049526 0.005856983 -0.024964653 -0.07946137 0.084086604 0.07504016 -0.052422684 0.040554695
-0.068921104 0.079997115 0.017048761 0.091596186 0.06184675 0.0034871122 0.03253891 -0.058408488
-0.020718325 -0.025082173 0.059469994 -0.028704513 -0.071131885 0.03900537 0.026639156 0.06099622
0.00994616 -0.00097458484 0.0130608035 0.056135867 0.05636268 -0.046948522 -0.02199047 0.055196293
0.01920081 -0.002345427 -0.0024756934 0.09274292 0.01221589 0.04857553 0.017843131 0.07689849
0.0950102 0.021798242 -0.058332887 0.08205186 0.048625946 -0.004372783 3.0419331e-09 0.011809543
0.05397283 0.026122367 -0.06738963 -0.0055830656 0.067897186 0.039512314 0.031569563 -0.07385188
0.039682657 0.07314397 -0.08258507 -0.06956755 0.03934007 0.028645685 -0.088129416 -0.042586148
0.009198827 0.03811008 0.026957301 -0.035726584 -0.038058218 -0.07514017 -0.063114084 0.07396154
0.012371944 0.05876969 -0.0335503 0.02497305 -0.02089038 0.09730454 0.008135061 0.038526893
-0.026401283 -0.06775078 -0.008805842 -0.03576585 0.045853008 -0.013201408 -0.04880827 0.042952113
-0.08094526 0.007064685 -0.03648739 -0.017333895 -0.04484832 0.022772927 0.031162886 0.02247539
-0.04882682 -0.04651527 0.019473786 0.06939513 -0.07681862 0.008719161 0.053405423 0.03524352
0.0075291297 -0.06765839 0.11467171 0.040718306 -0.024867076 0.030600538 -0.0048001367 -0.003198935
00000000: 06d9 cbbc 68ea c4bd 06d8 b6bc 872d 83bd
00000010: 74a2 b73c 70c3 3fbd eec7 83bc 50d8 4dbd
00000020: 8c3c a7bc 07b9 5f3b 9efc 923b 4a51 b03d
00000030: bf0e aa3d 5b8d 6abd 7b5d e03c ff8a 1c3d
00000040: 6b4e 343d a657 48bd 8581 32bd 414b 9f3d
00000050: 66f5 1a3d a8ec 9e3d d8ba 0abd c803 51bd
00000060: 1824 b13d 576e 6e3d 4c23 773d 7c59 763d
00000070: 15ac a0bd c687 7abd fa5a 0b3c 390b 72bc
00000080: d896 9cbd bbc4 393d 8498 9d3d cc18 6c3d
00000090: 1ef6 b13d f179 b43d 825e a5bd 743b 8c3d
000000a0: aad2 6bbc 6439 943c bc87 913d 101d 453d
000000b0: 3b99 b1bd 3f77 6a3d 8106 94bd fedd 94bd
000000c0: 9136 9e3d 5c05 63ba 5666 c9bd f0b3 67bd
000000d0: 27bb 51bd b341 c23d b98f 403d 9b54 c2bd
000000e0: d861 1731 2d03 0ebc d565 0bbd ce53 e63c
000000f0: 1e1f bf3d 2ed8 20bd bbb5 b93c ac0d 6bbd
00000100: c7db 073d 8b96 3d3d 8de3 74bb aaff bb3d
00000110: 1a5d 413d e411 dd3d eb3e 66bd 302d 15bc
00000120: edd2 8abd 4e20 f13b 8cf4 0b3d 7a1c 493d
00000130: 1c82 15bc 6370 183d acd7 833c 9dff ca3d
00000140: 0622 53bc c43d fb3c 5f41 2c3c 6943 15bd
00000150: e4a4 44bd 0a81 cabd a0e5 763d 11ef fb3c
00000160: 81f9 aa3d 4817 93bb c124 a3bc 5e17 313b
00000170: 3654 633d fc7e 53bd 434a 9cbd 10b1 22bd
00000180: 290a 813d 96a9 3cbd 8d30 aabd 58ab 9abc
00000190: d15d e6bc 3a50 38bd 4edb cb3d 4f18 b93d
000001a0: 302e 4abc 1a16 daba b810 983c de3b 66bd
000001b0: 68c7 3f3d 6bc1 bebd 0c27 70bb ca77 60bb
000001c0: f138 85bc 1b37 bf3c fd8a c2bc 27f1 e13a
000001d0: 4aea e4bb cf82 da3c 4d45 d33c c222 2d3c
000001e0: a615 fa3b d0f0 7d3d 5e48 9933 c1c0 3d3d
000001f0: c983 f13c 028b 8d3c 180e d2bc 6149 07bd
00000200: f1c8 a4bc 634d 243c 0bf7 9cbd 331a d9bd
00000210: ac80 b4bd 1ecf c73b 07b2 6fbc 0124 45bc
00000220: 48d8 993d 8ff5 453d 5215 a23d 345f 3c3d
00000230: 8861 abbd 957f c73c 7d66 10bd f026 b7bc
00000240: 5cd2 bcbc efeb bf3b ac82 ccbc a5bc a2bd
00000250: 9935 ac3d a8ae 993d 2bb9 56bd ae1c 263d
00000260: 8226 8dbd 87d5 a33d d8a9 8b3c c896 bb3d
00000270: 0553 7d3d 0988 643b 8547 053d bd3d 6fbd
00000280: 7ab9 a9bc 2179 cdbc cf96 733d ba25 ebbc
00000290: 98ad 91bd 18c4 1f3d 5c3a da3c 2cd7 793d
000002a0: 38f5 223c 487b 7fba fbfc 553c b9ee 653d
000002b0: 8edc 663d 184d 40bd 5c25 b4bc 8215 623d
000002c0: 044b 9d3c bcb5 19bb 3e3f 22bb 00f0 bd3d
000002d0: 2825 483c 23f7 463d c22b 923c f57c 9d3d
000002e0: b594 c23d 3a92 b23c 77ee 6ebd ce0a a83d
000002f0: 002c 473d 9049 8fbb 410a 5131 d07c 413c
00000300: 9d12 5d3d 93fe d53c 9303 8abd 26f2 b6bb
00000310: ae0d 8b3d aad7 213d 164f 013d a83f 97bd
00000320: 488a 223d 81cc 953d 5c22 a9bd 6f79 8ebd
00000330: 0e23 213d 5baa ea3c 327d b4bd d06e 2ebd
00000340: adb6 163c 5119 1c3d 8fd5 dc3c 0a56 12bd
00000350: efe2 1bbd 17e3 99bd f541 81bd 2679 973d
00000360: b2b3 4a3c 7db8 703d 0a6c 09bd 4894 cc3c
00000370: 4d22 abbc 9a47 c73d eb48 053c 60ce 1d3d
00000380: 8147 d8bc ecc0 8abd 6146 10bc 367f 12bd
00000390: 5dd0 3b3d b84a 58bc 2eeb 47bd 8eee 2f3d
000003a0: a1c6 a5bd e07e e73b cd73 15bd d0ff 8dbc
000003b0: dfb2 37bd 4a8e ba3c 4f49 ff3c 4f1e b83c
000003c0: a2fe 47bd cc86 3ebd 7d87 9f3c 091f 8e3d
000003d0: 1553 9dbd d0da 0e3c a5bf 5a3d 825b 103d
000003e0: ebb6 f63b 7b90 8abd 00d9 ea3d 3dc8 263d
000003f0: 0ab6 cbbc fbad fa3c 774a 9dbb 39a5 51bb

layer1.bias f4 [128]
2.1831424e-05 3.4300222e-06 3.4314853e-06 -3.858732e-07 6.7857973e-06 -3.085152e-06 1.4243334e-06 1.786835e-05
-2.6285434e-06 4.98366e-06 -3.823295e-06 1.21762505e-05 -3.242656e-06 -5.4163405e-07 -1.3171163e-05 -1.3621067e-07
6.0487155e-06 -9.130951e-07 -5.19574e-06 5.10764e-06 2.4947672e-06 3.1563635e-05 8.643199e-07 -6.374218e-05
1.17167265e-05 -1.0502755e-05 5.357049e-07 -2.3181357e-05 -1.6410534e-06 1.8066992e-05 -6.0212296e-06 6.929893e-06
7.791634e-06 1.3919663e-06 1.40854345e-05 -1.8613571e-06 -2.5262723e-05 -3.282911e-06 -3.2132325e-06 -1.3368077e-05
-1.3982086e-05 -3.0873255e-06 -8.6744797e-07 -4.01682e-05 -2.5578643e-06 8.499753e-06 -1.7428656e-06 4.0961495e-06
-1.5591311e-05 4.9254354e-06 7.970956e-07 -7.986443e-06 5.501037e-06 -2.4802348e-05 -7.0474607e-06 -6.0216616e-06
-3.4437903e-06 -1.0487697e-05 -3.4597751e-06 1.448079e-05 1.6269589e-05 1.4959182e-05 -2.1807714e-06 6.0054786e-06
-1.7421713e-06 7.739412e-06 2.5453933e-06 -8.92167e-06 -6.012878e-06 4.0586062e-07 1.8472783e-05 5.779754e-06
3.5688938e-06 -7.4949376e-06 -3.7583595e-05 1.8609451e-05 -1.3188873e-05 -3.3257202e-06 -1.006178e-05 -1.957153e-05
6.9606654e-07 -2.1880319e-06 6.3187344e-06 -2.6596106e-06 -3.469249e-05 5.8565374e-06 3.1739302e-07 -2.4292856e-06
-1.5996868e-06 7.5769985e-06 -1.2419249e-05 -7.763385e-06 -4.378669e-06 -6.8691043e-06 -9.169751e-06 -5.4566035e-06
-8.22745e-06 5.151079e-05 1.3469387e-05 -1.9057786e-06 -4.6398673e-06 1.810419e-06 6.869977e-06 -6.519676e-06
2.924112e-05 7.3342117e-06 5.8660444e-06 1.9340678e-06 -6.635418e-06 -3.4263594e-06 7.874683e-06 -2.0736593e-07
-5.395277e-07 -8.805e-07 3.3952188e-06 8.8230036e-07 -8.390652e-06 2.147213e-05 2.4749047e-06 -1.0308552e-05
-1.5185113e-06 5.399651e-06 -2.4715453e-06 -5.6101794e-06 -4.6873296e-07 4.425402e-06 -8.169283e-06 6.7816495e-06
00000000: a022 b737 552f 6636 7848 6636 022a cfb4
00000010: 8eb1 e336 820a 4fb6 b92b bf35 fde3 9537
00000020: 0866 30b6 5039 a736 db49 80b6 9948 4c37
00000030: 689c 59b6 cf64 11b5 b7f9 5cb7 4e41 12b4
00000040: 12f6 ca36 6b1b 75b5 1157 aeb6 4b62 ab36
00000050: c66b 2736 3263 0438 9c03 6835 53ad 85b8
00000060: f592 4437 fd34 30b7 5ccd 0f35 9675 c2b7
00000070: 2a42 dcb5 928e 9737 f809 cab6 5487 e836
00000080: d0b8 0237 99d3 ba35 7b50 6c37 bed3 f9b5
00000090: 49eb d3b7 fb4f 5cb6 eaa2 57b6 7447 60b7
000000a0: 9a94 6ab7 d92f 4fb6 92da 68b5 477a 28b8
000000b0: c6a7 2bb6 299a 0e37 68ec e9b5 a871 8936
000000c0: 16ca 82b7 2b45 a536 fef7 5535 83fd 05b7
000000d0: 8c95 b836 a30e d0b7 3a79 ecb6 ae0d cab6
000000e0: de1b 67b6 51f4 2fb7 7c2e 68b6 85f2 7237
000000f0: ad7a 8837 33f9 7a37 5e59 12b6 ab82 c936
00000100: 8dd4 e9b5 85d8 0137 86d1 2a36 48ae 15b7
00000110: 3bc2 c9b6 0fe5 d934 00f6 9a37 b5ef c136
00000120: 2181 6f36 067d fbb6 14a3 1db8 7e1b 9c37
00000130: c745 5db7 702f 5fb6 04cf 28b7 8a2d a4b7
00000140: 54d9 3a35 1ad6 12b6 8405 d436 c37b 32b6
00000150: c782 11b8 4683 c436 2a66 aa34 cf06 23b6
00000160: d2b4 d6b5 ec3d fe36 455c 50b7 7c3f 02b7
00000170: 7bec 92b6 287d e6b6 c8d7 19b7 de17 b7b6
00000180: a108 0ab7 4a0d 5838 94fa 6137 0eca ffb5
00000190: 28b0 9bb6 86fd f235 a784 e636 97c3 dab6
000001a0: d44a f537 6618 f636 f0d4 c436 08cb 0136
000001b0: cea5 deb6 68f0 65b6 821d 0437 50a8 5eb4
000001c0: 10d4 10b5 805b 6cb5 6ad9 6336 38d7 6c35
000001d0: 93c5 0cb7 0c1f b437 8a16 2636 e5f2 2cb7
000001e0: a7cf cbb5 a62e b536 d3dc 25b6 133f bcb6
000001f0: 2ba6 fbb4 ea7d 9436 ce0e 09b7 ed8d e336

bn1.weight f4 [128]
1.0118937 1.0413464 1.002534 1.0108759 0.95504075 0.99937314 0.96596676 0.98651206
1.0043471 0.99359053 1.0077538 1.0058761 1.0279362 0.98512214 1.0007476 0.99659103
0.97136384 1.0028951 0.98653233 0.95595145 1.0219481 1.0006015 0.96767193 1.0239359
1.0232277 1.013556 0.9964015 1.0009009 0.99743426 1.0223249 0.9876431 1.0102829
1.0376377 0.99233466 0.96823597 1.0031142 0.98428553 1.0115674 0.99894667 1.0255396
0.9821201 1.0073944 1.0186709 1.0348923 0.99814683 0.97208846 0.97975874 0.9908075
1.0106533 0.9611347 0.97656965 1.009444 0.99414647 1.000265 0.9823836 0.9896581
0.95683604 0.99934167 1.0114243 0.9953152 1.0284107 1.0064121 1.0010128 0.99894714
1.0012652 1.0193651 0.98108983 0.9812441 0.9921408 0.9741997 0.98394966 1.0201749
1.025406 0.9545462 1.0046647 0.9564437 1.047692 0.9786019 0.97847956 1.001217
0.99022037 1.0110772 0.98583734 1.0004221 1.0415723 0.99276894 0.99337345 0.97739655
1.0082566 1.0298173 0.9807733 0.95717853 0.9735875 0.9823052 1.0113603 0.9816999
0.9782579 1.0065466 0.99838126 0.9804331 1.0234935 0.9718678 0.98626345 1.0135423
1.0036762 0.9916518 0.98939055 0.986876 0.9917345 1.0019406 1.0042382 1.0025421
1.0337398 0.9587874 1.0013915 1.0222512 1.0087191 0.95516914 1.0074908 1.007844
0.99457437 1.0078402 0.96772707 1.0207696 1.0033203 1.007656 1.0507097 0.98525536
00000000: bc85 813f d74a 853f 0953 803f 6264 813f
00000010: 8d7d 743f ebd6 7f3f 9949 773f 0e8c 7c3f
00000020: 728e 803f f35b 7e3f 14fe 803f 8cc0 803f
00000030: 6a93 833f f730 7c3f 7f18 803f 9720 7f3f
00000040: 4dab 783f de5e 803f 628d 7c3f 3cb9 743f
00000050: 32cf 823f b613 803f 59b9 773f 5510 833f
00000060: 20f9 823f 34bc 813f 2b14 7f3f 851d 803f
00000070: da57 7f3f 8bdb 823f 2ed6 7c3f f350 813f
00000080: 50d1 843f a509 7e3f 50de 773f 0c66 803f
00000090: 23fa 7b3f 0a7b 813f f8ba 7f3f e244 833f
000000a0: 396c 7b3f 4df2 803f cf63 823f 5a77 843f
000000b0: 8d86 7f3f cada 783f 78d1 7a3f 8fa5 7d3f
000000c0: 165d 813f ec0c 763f 7800 7a3f 7635 813f
000000d0: 6280 7e3f af08 803f 7e7d 7b3f 3c5a 7d3f
000000e0: 35f3 743f dbd4 7f3f 5a76 813f facc 7e3f
000000f0: f6a2 833f 1dd2 803f 3021 803f 00bb 7f3f
00000100: 7529 803f 8e7a 823f b428 7b3f d032 7b3f
00000110: f1fc 7d3f 2765 793f 20e4 7b3f 1795 823f
00000120: 8140 833f 245d 743f da98 803f 7fd9 743f
00000130: c51a 863f a785 7a3f a37d 7a3f e127 803f
00000140: 157f 7d3f fa6a 813f d65f 7c3f d50d 803f
00000150: 3e52 853f 1b26 7e3f b94d 7e3f a936 7a3f
00000160: 8d0e 813f 0ed1 833f f613 7b3f a709 753f
00000170: 083d 793f 5b78 7b3f 4174 813f af50 7b3f
00000180: 1c6f 7a3f 85d6 803f ea95 7f3f aafd 7a3f
00000190: d601 833f 54cc 783f c37b 7c3f c1bb 813f
000001a0: 7678 803f e4dc 7d3f b348 7d3f e8a3 7c3f
000001b0: 50e2 7d3f 973f 803f e18a 803f 4d53 803f
000001c0: 9651 843f 1773 753f 992d 803f 21d9 823f
000001d0: b51d 813f f785 743f 75f5 803f 0801 813f
000001e0: 6d9c 7e3f e800 813f f6bc 773f 94a8 823f
000001f0: cd6c 803f dffa 803f a87d 863f b239 7c3f

bn1.bias f4 [128]
0.022889506 0.014481526 0.01050871 0.02219959 -0.025102552 -0.011333547 -0.030405741 0.017814394
-0.00764402 -0.053831074 -0.0014790046 0.004904676 0.00902645 -0.012338823 0.012378173 -0.0016205537
-0.04463583 -0.02877844 -0.02261958 -0.026191114 0.007916913 0.018348249 -0.024460007 -0.002198474
0.009382305 0.033146117 -0.013524625 -0.013820874 -0.010429212 -0.015369063 0.0057090414 0.0030622573
0.03659517 -0.029816823 -0.022117399 -0.024612375 -0.010871671 0.014672963 -0.010406016 0.019143978
-0.016736321 -0.0038042888 -0.016162524 0.040790245 0.02043575 -0.02238977 -0.02832851 0.004898824
-0.020007025 -0.007937416 -0.011205302 0.019286023 -0.013482325 0.011596949 -0.025710389 -0.026670208
-0.027619852 -0.017071472 0.012926912 -0.0033914405 -0.014717118 -0.00922468 -0.007383525 -0.022201903
0.007690025 0.011525999 -0.003606666 -0.009818176 -0.028797887 -0.052772928 0.007970404 0.024635222
0.02325031 -0.026486726 0.020066317 -0.046649795 0.014186338 -0.030564638 -0.027764801 0.013131334
-0.0030039356 -0.019069117 -0.0059254817 -0.034566626 0.037584215 -0.027998686 -0.012301599 -0.020990381
0.0035206103 0.0276374 -0.0061475676 -0.01995453 -0.019507427 0.005056151 -0.0028729453 -0.022806156
-0.019157896 0.011846794 0.0004065404 -0.020524085 0.004904095 -0.0052475575 0.00319371 0.016324967
-0.0092048235 0.009465434 0.018040318 -0.017849028 -0.024893932 0.0009896072 0.0106552765 0.0036006079
0.0040610656 -0.028864615 -0.01582354 0.01680461 0.009597893 -0.035522062 -0.024479156 -0.0024693296
-0.021447625 -0.0017478208 -0.0126477275 -0.009087447 0.018713363 -0.012476832 0.01392267 0.0020882015
00000000: c682 bb3c ec43 6d3c b92c 2c3c eadb b53c
00000010: dea3 cdbc 57b0 39bc 7615 f9bc 7eef 913c
00000020: b07a fabb f97d 5cbd 29db c1ba 68b7 a03b
00000030: ade3 133c c628 4abc d2cd 4a3c c268 d4ba
00000040: 0fd4 36bd c3c0 ebbc b34c b9bc bf8e d6bc
00000050: f1b5 013c 114f 963c 5a60 c8bc 4614 10bb
00000060: 3db8 193c 39c4 073d 6496 5dbc f270 62bc
00000070: 49df 2abc 86ce 7bbc e912 bb3b 27b0 483b
00000080: d1e4 153d 6942 f4bc 8c2f b5bc e49f c9bc
00000090: 181f 32bc de66 703c ff7d 2abc d5d3 9c3c
000000a0: 9c1a 89bc 6051 79bb 4567 84bc ac13 273d
000000b0: e068 a73c c06a b7bc 3111 e8bc 5086 a03b
000000c0: c6e5 a3bc f00b 02bc 7196 37bc b9fd 9d3c
000000d0: f8e4 5cbc 2101 3e3c 989e d2bc 7b7b dabc
000000e0: 0743 e2bc 79d9 8bbc 66cb 533c ee42 5ebb
000000f0: 1120 71bc 1d23 17bc 7ff1 f1bb c4e0 b5bc
00000100: 9bfc fb3b 8bd7 3c3c d15d 6cbb 6adc 20bc
00000110: 8ce9 ebbc 6d28 58bd 4c96 023c cecf c93c
00000120: 6f77 be3c b1fa d8bc 1e62 a43c db13 3fbd
00000130: d06d 683c b162 fabc 0273 e3bc cf24 573c
00000140: addd 44bb d636 9cbc 8b2a c2bb bc95 0dbd
00000150: e8f1 193d 805d e5bc a58c 49bc 05f4 abbc
00000160: 0aba 663b d467 e23c 8971 c9bb af77 a3bc
00000170: 0ace 9fbc 12ae a53b 0648 3cbb fad3 babc
00000180: 05f1 9cbc 0e19 423c ee24 d539 2022 a8bc
00000190: 88b2 a03b b4f3 abbb 904d 513b f0bb 853c
000001a0: d4cf 16bc e814 1b3c 4ac9 933c 2038 92bc
000001b0: 5cee cbbc b5b5 813a 7893 2e3c 2df8 6b3b
000001c0: b012 853b 7c75 ecbc 5ea0 81bc d2a9 893c
000001d0: 7b40 1d3c 957f 11bd 8388 c8bc 7ad4 21bb
000001e0: eeb2 afbc 2217 e5ba 6a38 4fbc 84e3 14bc
000001f0: c44c 993c a06b 4cbc e91b 643c 35da 083b

bn1.running_mean f4 [128]
-0.019431174 -0.007250659 -0.014906693 0.026331939 0.029101957 0.0045772325 0.018102579 -0.021807225
-0.016056227 0.009124355 0.023116834 -0.026200533 0.012380168 0.0026018666 0.014723839 0.008739518
0.009355179 0.01301288 -0.0071583963 0.029193696 0.0076556066 0.014251659 0.0031939833 0.008592573
-0.007914258 -0.03304785 -0.02843238 0.0033592049 0.01942816 0.00883464 -0.002414044 -0.0021131462
-0.0026923604 -0.016395118 -0.00019560289 0.021023098 -0.031086141 -0.0014303755 0.004495672 -0.019399207
-0.0106331995 -0.008356782 -0.015535333 0.010634849 -0.012649808 0.019628279 -0.0079829665 0.0021753754
0.0043119765 0.024147883 0.024783343 -0.006926517 -0.025806097 0.015224066 0.0034942778 0.010991822
-0.003139562 -0.002448122 -0.003656126 0.008177487 -0.0012817271 -0.0060700206 -0.01288992 -0.0353931
-0.0008462253 0.0036912607 0.00093334354 0.0037356806 -0.008686296 0.0012321491 -0.008231451 -0.020006428
-0.023723012 0.012530763 0.020479059 0.017322702 -0.0005155128 -0.002443714 0.007959868 0.0140248
-0.010743069 -0.0005832808 -0.00027155015 0.0010165526 -0.01680837 -0.009330106 -0.0077531645 -0.020487314
-0.014053365 -0.00041162688 0.032503814 -0.012260514 -0.026468972 0.006047914 -0.015018102 -0.0077682612
0.01844987 0.020067649 0.00541849 0.001615765 0.011772143 -0.020853598 0.003005058 -0.01900679
-0.009461912 -0.009539256 0.015833668 -0.0091171805 0.0035043312 0.014936779 0.0073228315 0.024298575
0.010075435 -0.021958046 -0.009681016 0.019353898 0.008906099 -0.0010390779 -0.02096752 0.006465434
0.02747859 -0.01401693 0.039239213 -0.009720592 0.023160307 0.0025081742 0.014729422 0.006887613
00000000: 202e 9fbc f096 edbb 343b 74bc 14b6 d73c
00000010: 3a67 ee3c 9cfc 953b dc4b 943c 11a5 b2bc
00000020: 5988 83bc 527e 153c 845f bd3c 80a2 d6bc
00000030: 30d6 4a3c 1484 2a3b 423c 713c 3230 0f3c
00000040: 7746 193c fa33 553c fb90 eabb 9e27 ef3c
00000050: e2db fa3b ca7f 693c 2652 513b ddc7 0c3c
00000060: ceaa 01bc 2f5d 07bd 06eb e8bc 1b26 5c3b
00000070: ce27 9f3c 2abf 103c f034 1ebb b67c 0abb
00000080: 5072 30bb 0e4f 86bc c01a 4db9 a238 ac3c
00000090: 5da8 febc 707b bbba 6e50 933b 16eb 9ebc
000000a0: df36 2ebc e2ea 08bc e987 7ebc ca3d 2e3c
000000b0: 2441 4fbc 7ccb a03c fdca 02bc be90 0e3b
000000c0: 7b4b 8d3b c8d1 c53c 7006 cb3c d6f7 e2bb
000000d0: 4f67 d3bc 5c6e 793c 4100 653b 0b17 343c
000000e0: 1cc1 4dbb ac70 20bb 9e9b 6fbb defa 053c
000000f0: a0ff a7ba 06e7 c6bb 3e30 53bc 5bf8 10bd
00000100: 38d5 5dba 14e9 713b a0ab 743a 52d2 743b
00000110: f750 0ebc 1080 a13a 35dd 06bc 85e4 a3bc
00000120: c356 c2bc d44d 4d3c b3c3 a73c 57e8 8d3c
00000130: 7a23 07ba b826 20bb 1b6a 023c 46c8 653c
00000140: b303 30bc 50e7 18ba d85e 8eb9 d83d 853a
00000150: b5b1 89bc 4ddd 18bc 420e febb 03d5 a7bc
00000160: 1640 66bc a0cf d7b9 b822 053d 53e0 48bc
00000170: 75d5 d8bc 942d c63b 7c0e 76bc e68c febb
00000180: 2f24 973c e964 a43c 978d b13b 14c8 d33a
00000190: f2df 403c 2ad5 aabc 82f0 443b 21b4 9bbc
000001a0: 2306 1bbc 8a4a 1cbc 9cb5 813c 3a60 15bc
000001b0: eca8 653b 64b9 743c 5df4 ef3b ce0d c73c
000001c0: 7013 253c 5ce1 b3bc 209d 1ebc 118c 9e3c
000001d0: e3ea 113c ab31 88ba 14c4 abbc fedb d33b
000001e0: c81a e13c 44a7 65bc 4cb9 203d 1e43 1fbc
000001f0: afba bd3c 2e60 243b ac53 713c 7cb1 e13b

bn1.running_var f4 [128]
0.6649861 0.4472491 0.41451985 0.6009548 0.5246489 1.0043927 0.50545293 0.4068917
0.45487842 0.73673874 0.4328726 0.49034944 0.3558031 0.41131446 0.75096947 0.7934744
0.32875225 0.60709596 0.46318313 0.4445753 0.3326712 0.5134708 0.5878561 0.32771048
0.311249 0.47549117 0.55592924 0.44948065 0.49562195 0.5737708 0.5041974 0.3373036
0.52300864 0.3384214 0.5235218 0.54562837 0.50243306 0.44321826 0.6583726 0.23869474
0.5162898 0.3640681 0.52460027 0.43481442 0.40768752 0.39077818 0.72347 0.4405922
0.4857975 0.96367335 0.50246376 0.39946708 0.3901085 0.47007462 0.41258177 0.4240955
0.57604814 0.30191612 0.41894045 0.5337074 0.41261438 0.5389317 0.29404545 0.43755218
0.34737843 0.41555265 0.29488277 0.9381202 0.39272273 0.47241896 0.50017595 0.42935583
0.32462814 0.3704895 0.6066502 0.36485967 0.2064957 0.48749572 0.57206434 0.37411094
0.36523378 0.56000787 0.3534347 0.34434 0.34644854 0.7201268 0.5100197 0.35704187
0.45546666 0.34257054 0.47499147 0.650687 0.44161448 0.69369185 0.55041397 0.7576457
0.5481601 0.41997826 0.39389667 0.48886824 0.2864292 0.3441925 0.48239693 0.43704247
0.44217527 0.3548846 0.4621357 0.49229127 0.40031067 0.72614783 0.47083366 0.7372872
0.4611994 0.4394494 0.3798998 0.6659115 0.2678813 0.50579745 0.41764957 0.3092574
0.44597098 0.48621553 1.1854322 0.37685207 0.44978303 0.72278243 0.3420784 0.42759907
00000000: 873c 2a3f d6fd e43e f23b d43e 2cd8 193f
00000010: 644f 063f f18f 803f 5d65 013f 1c54 d03e
00000020: d3e5 e83e e99a 3c3f 7aa1 dd3e 150f fb3e
00000030: d32b b63e cf97 d23e 893f 403f 2321 4b3f
00000040: 3752 a83e a46a 1b3f 5726 ed3e 609f e33e
00000050: e153 aa3e d372 033f bd7d 163f abc9 a73e
00000060: 075c 9f3e 9473 f33e 6151 0e3f 5422 e63e
00000070: 29c2 fd3e a5e2 123f 1513 013f 0fb3 ac3e
00000080: e5e3 053f 9245 ad3e 8605 063f 4dae 0b3f
00000090: 749f 003f 81ed e23e 1b8b 283f 656c 743e
000000a0: 912b 043f 2267 ba3e 344c 063f ff9f de3e
000000b0: 6bbc d03e 1414 c83e 5435 393f 4d95 e13e
000000c0: 73ba f83e 4cb3 763f 77a1 003f f386 cc3e
000000d0: 4dbc c73e 9fad f03e eb3d d33e 0c23 d93e
000000e0: e477 133f c094 9a3e 5d7f d63e 0ca1 083f
000000f0: 3142 d33e 6ef7 093f 208d 963e d706 e03e
00000100: 96db b13e 51c3 d43e e0fa 963e a528 703f
00000110: f412 c93e e6e0 f13e 880b 003f 87d4 db3e
00000120: a935 a63e cdb0 bd3e 6d4d 1b3f e3ce ba3e
00000130: 9c73 533e 0a99 f93e cf72 123f 788b bf3e
00000140: ecff ba3e ad5c 0f3f 65f5 b43e 554d b03e
00000150: b461 b13e 3b5a 383f a790 023f 31ce b63e
00000160: ed32 e93e 6865 af3e 1532 f33e 6c93 263f
00000170: 4b1b e23e ca95 313f eee7 0c3f 12f5 413f
00000180: 3854 0c3f 6407 d73e d3ac c93e f04c fa3e
00000190: d9a6 923e 003a b03e bbfc f63e 08c4 df3e
000001a0: cc64 e23e 6fb3 b53e 0d9d ec3e 9a0d fc3e
000001b0: 85f5 cc3e d3e4 393f 1c11 f13e dbbe 3c3f
000001c0: 5422 ec3e 83ff e03e 3a82 c23e 2d79 2a3f
000001d0: bd27 893e f17b 013f 2ad6 d53e fc56 9e3e
000001e0: 4f56 e43e 3ef1 f83e 3ebc 973f c1f2 c03e
000001f0: f649 e63e 4508 393f e624 af3e 44ee da3e

layer2.weight f4 [64, 128]
0.04718031 -0.08644467 0.0026499857 -0.044057284 0.05266932 0.043875255 0.015666185 -0.018014675
-0.01897124 0.039039597 0.0142274285 0.041121807 0.08203056 -0.042170994 -0.039735213 0.07661625
-0.027132077 0.033189576 -0.08226729 -0.06662979 -0.044696946 0.0038411927 0.04686549 -0.03189068
-0.07745588 -0.066911645 -0.03775733 -0.05019639 -0.073716275 -0.01281813 -0.05724501 -0.048131816
-0.0766247 -0.05998202 -0.0034025048 0.06990742 0.035688594 0.06500689 0.016688203 0.06510201
0.057044476 -0.004439121 0.0030623283 -0.044667043 -0.08799336 -0.005908826 -0.038004234 0.08378315
0.06451124 0.026547015 -0.010429398 0.045494348 0.0061295894 -0.013467501 0.047853295 -0.030633975
0.06347551 0.018258931 0.02536831 0.0038861423 0.002724586 -0.0038168244 -0.079411305 -0.038260944
-0.036561415 0.046012275 0.037480574 0.015976932 -0.019183295 -0.026441704 0.04073502 -0.105565056
0.08565546 0.011582245 0.016734442 -0.03633278 0.00016490421 0.054208685 0.03135228 0.029199013
0.077871 -0.003945038 0.03590666 0.014190846 -0.097814165 0.016542746 0.020945309 -0.07572673
-0.068430334 0.018505499 0.034640566 0.057395775 0.06348533 0.07313052 0.090588085 -0.10113939
-0.08036919 -0.04996047 -0.0042232256 -0.09495459 -0.06348179 0.0024361124 -0.017669976 -0.0020418018
-0.06731192 -0.041036487 -0.040057577 0.023169458 -0.009251673 -0.007837505 -0.049780037 -0.022728018
-0.021387974 0.014162453 -0.05558179 0.010144567 -0.030552113 0.02397206 -0.083806895 0.07036054
0.035190705 0.032826856 0.06873333 0.010087145 -0.03912522 0.06420054 0.05364621 -0.06514465
-0.081517436 -0.08105016 0.077370524 0.06635698 -0.012861427 0.056991205 0.05767884 0.09577062
-0.043924596 -0.0061861807 0.08692112 -0.013970813 -0.05294238 -0.04653074 -0.029330311 0.061360423
-0.087231964 0.027412515 -0.04428031 -0.003278877 -0.008165693 0.047726784 0.06135311 0.016339904
-0.087584354 -0.06048539 -0.050117772 0.07379042 0.057814043 -0.015887108 -0.015548796 -0.108961284
0.021529227 0.08295583 -0.097391024 -0.02159077 -0.031811174 -0.07137092 -0.036505066 -0.026536217
0.0033971607 -0.0437839 0.032237776 -0.05201168 0.004353158 -0.017129729 0.025323218 -0.08143139
-0.001627761 -0.057356976 -0.069252566 -0.04624004 0.07220477 -0.0524222 0.06314772 0.07419721
-0.016876863 -0.06450807 -0.08204289 -0.08183102 -0.036378257 -0.06550692 0.0052174223 -0.009817112
-0.05892777 -0.09019825 -0.05927407 -0.030779256 0.07947639 0.054293565 0.022576483 0.041923944
0.0152026 -0.039060242 0.088881604 -0.09163609 0.06840535 -0.07298046 -0.05571014 0.057805095
0.08644664 0.06771039 -0.06443337 -0.031585913 -0.03351266 -0.059598517 -0.0046997233 -0.076187275
0.090991095 -0.08632585 -0.06940402 0.030026391 -0.0623533 -0.0052273907 -0.058593947 -0.005922717
0.058927707 -0.1120344 -0.026987337 0.0340704 -0.06531701 0.03322936 -0.016903363 0.10760575
-0.055042747 -0.08252544 -0.010300761 0.042330496 -0.0056557213 0.036438845 0.044557516 -0.008073626
0.08653466 0.0068612355 -0.016526798 0.046443034 -0.01297276 0.050488833 0.06852137 0.004304765
-0.03506217 -0.0368819 0.007860666 0.048694767 -0.00289333 0.11992799 -0.0010775358 0.030134603
00000000: 2440 413d e709 b1bd 62ab 2d3b 6975 34bd
00000010: c9bb 573d 8ab6 333d 5f56 803c 8393 93bc
00000020: 9369 9bbc fce7 1f3d 291a 693c 576f 283d
00000030: a3ff a73d 7ebb 2cbd 64c1 22bd fbe8 9c3d
00000040: 1744 debc cbf1 073d c17b a8bd 3375 88bd
00000050: 2514 37bd 85bc 7b3b 07f6 3f3d cd9f 02bd
00000060: 30a1 9ebd f908 89bd 6ea7 1abd bb9a 4dbd
00000070: 8ff8 96bd 2203 52bc be79 6abd de25 45bd
00000080: 69ed 9cbd b5af 75bd 8ffc 5ebb 9f2b 8f3d
00000090: 342e 123d 5522 853d b3b5 883c 3454 853d
000000a0: 78a7 693d 0c76 91bb 58b1 483b caf4 36bd
000000b0: dd35 b4bd d39e c1bb 54aa 1bbd 8096 ab3d
000000c0: 781e 843d 2079 d93c 11e0 2abc 4858 3a3d
000000d0: b9da c83b cba6 5cbc d101 443d 1af4 fabc
000000e0: 73ff 813d c193 953c 34d1 cf3c a6ae 7e3b
000000f0: f88e 323b b023 7abb 65a2 a2bd 82b7 1cbd
00000100: 6cc1 15bd 5e77 3c3d 3b85 193d 0ee2 823c
00000110: 4926 9dbc 469c d8bc c4d9 263d 7e32 d8bd
00000120: 216c af3d 75c3 3d3c ab16 893c aed1 14bd
00000130: 23ea 2c39 ed09 5e3d 406b 003d c532 ef3c
00000140: d57a 9f3d 6145 81bb dd12 133d b980 683c
00000150: cb52 c8bd a784 873c 7f95 ab3c 9e16 9bbd
00000160: 3425 8cbd d898 973c 44e3 0d3d d517 6b3d
00000170: 9904 823d 74c5 953d 3f86 b93d 2b22 cfbd
00000180: 9a98 a4bd 5aa3 4cbd fc62 8abb 8d77 c2bd
00000190: be02 82bd 2fa7 1f3b a0c0 90bc c0cf 05bb
000001a0: d5da 89bd e015 28bd 6a13 24bd e0cd bd3c
000001b0: 5494 17bc e168 00bc 27e6 4bbd 1c30 babc
000001c0: d535 afbc a209 683c bba9 63bd 6635 263c
000001d0: 6d48 fabc 0e61 c43c f3a2 abbd 3019 903d
000001e0: 2124 103d 7475 063d 0fc4 8c3d 8d44 253c
000001f0: c441 20bd 937b 833d 21bc 5b3d 8f6a 85bd
00000200: 9df2 a6bd a0fd a5bd 7074 9e3d 2be6 873d
00000210: bcb8 52bc 9c6f 693d a640 6c3d 6323 c43d
00000220: 47ea 33bd 72b5 cabb b303 b23d d6e5 64bc
00000230: 1cda 58bd 0497 3ebd 1f46 f0bc 1155 7b3d
00000240: aca6 b2bd 3690 e03c 455f 35bd 6de2 56bb
00000250: 66c9 05bc 297d 433d 664d 7b3d 43db 853c
00000260: 6d5f b3bd 87bf 77bd 4b48 4dbd 6f1f 973d
00000270: 6bce 6c3d ae25 82bc 61c0 7ebc 1827 dfbd
00000280: 105e b03c bfe4 a93d f274 c7bd 20df b0bc
00000290: 6f4c 02bd eb2a 92bd 5686 15bd 7b62 d9bc
000002a0: e6a2 5e3b bf56 33bd c20b 043d 330a 55bd
000002b0: f0a4 8e3b a553 8cbc a372 cf3c 80c5 a6bd
000002c0: 995a d5ba 26ef 6abd 4ad4 8dbd 3266 3dbd
000002d0: 18e0 933d a9b8 56bd 9853 813d b5f4 973d
000002e0: 5941 8abc cf1c 84bd 1a06 a8bd 0697 a7bd
000002f0: 5e01 15bd 7e28 86bd e9f6 aa3b f4d7 20bc
00000300: 3f5e 71bd dcb9 b8bd 5ec9 72bd c724 fcbc
00000310: 84c4 a23d ee62 5e3d 51f2 b83c 71b8 2b3d
00000320: 5314 793c a2fd 1fbd 8f07 b63d b4ab bbbd
00000330: 1b18 8c3d c876 95bd 5130 64bd 09c5 6c3d
00000340: f00a b13d bfab 8a3d a5f5 83bd 3b60 01bd
00000350: 9244 09bd 931d 74bd 2300 9abb 1308 9cbd
00000360: 8a59 ba3d 9bcb b0bd b223 8ebd e8f9 f53c
00000370: 2d66 7fbd 884a abbb 3500 70bd 5a13 c2bb
00000380: 2e5e 713d 4b72 e5bd 8c14 ddbc 678d 0b3d
00000390: edc4 85bd 821b 083d ec78 8abc 6760 dc3d
000003a0: 8174 61bd 1903 a9bd 86c4 28bc be62 2d3d
000003b0: a153 b9bb e640 153d f181 363d 3e47 04bc
000003c0: 1539 b13d 37d4 e03b 3563 87bc 0d3b 3e3d
000003d0: b38b 54bc 61cd 4e3d ef54 8c3d fc0e 8d3b
000003e0: 5a9d 0fbd 7a11 17bd 06ca 003c 2a74 473d
000003f0: 069e 3dbb ce9c f53d 1a3c 8dba d8dc f63c

layer2.bias f4 [64]
3.898214e-06 6.43939e-06 -1.296594e-05 -1.2925244e-05 3.4704604e-05 9.590091e-06 -9.331835e-06 6.040592e-06
-5.935298e-06 -1.66137e-05 6.209373e-05 1.0600548e-06 1.8842295e-05 -9.068962e-06 -1.913713e-05 -1.7791028e-05
-8.84106e-06 -7.088684e-06 1.07384785e-05 -3.681561e-06 -1.7360335e-05 1.1177116e-05 1.7491874e-07 2.692576e-05
1.4014528e-05 -2.3421292e-06 1.9668403e-06 1.0865121e-05 -1.9889789e-05 -1.0552867e-05 9.4763955e-06 6.997122e-06
1.0095107e-06 1.8944208e-06 -7.0410324e-06 -2.0476471e-05 -4.062796e-06 7.643301e-06 6.796349e-06 6.196849e-05
1.4535986e-05 -2.2421368e-06 -7.645414e-06 1.1423033e-05 8.040986e-06 1.4766388e-05 -1.9514988e-05 -2.8523766e-05
9.0495064e-07 -5.4214847e-06 -4.603723e-06 -1.0236788e-05 3.554894e-05 2.9020764e-05 -1.8036399e-05 -1.18586695e-05
5.1203024e-06 -1.2418165e-05 -8.812551e-06 1.1587826e-05 -1.0405343e-05 -5.9252993e-06 8.040903e-06 9.0428075e-06
00000000: 67cd 8236 f011 d836 4a88 59b7 80d9 58b7
00000010: c98f 1138 21e5 2037 ed8f 1cb7 4ab0 ca36
00000020: d227 c7b6 a65d 8bb7 5138 8238 3547 8e35
00000030: 850f 9e37 e526 18b7 ac88 a0b7 f13d 95b7
00000040: 1054 14b7 55db edb6 6a29 3437 bd10 77b6
00000050: 09a1 91b7 5985 3b37 4cd1 3b34 a1de e137
00000060: f01f 6b37 792d 1db6 0ffe 0336 5749 3637
00000070: ffd8 a6b7 380c 31b7 cffc 1e37 d2c8 ea36
00000080: 867e 8735 ce43 fe35 0242 ecb6 e3c4 abb7
00000090: 2753 88b6 ba3b 0037 320c e436 14f5 8138
000000a0: 96df 7337 9e77 16b6 ce44 00b7 8ea5 3f37
000000b0: c6e7 0637 27bd 7737 1eb4 a3b7 5246 efb7
000000c0: bceb 7235 33ea b5b6 ae79 9ab6 abbe 2bb7
000000d0: 621a 1538 9e71 f337 df4c 97b7 99f4 46b7
000000e0: 10cf ab36 9d57 50b7 9ed9 13b7 5569 4237
000000f0: 9c92 2eb7 efd1 c6b6 6ae7 0637 90b6 1737

bn2.weight f4 [64]
1.0050313 1.0070562 1.003355 0.9998293 1.0128086 0.99758434 0.98144305 1.0213214
0.97756416 1.0140004 1.0332249 1.0159352 1.0023986 1.0119488 1.0083249 0.99936044
1.015942 1.0062286 0.9927624 0.98286724 1.0024085 0.9802855 1.000211 0.9792495
0.9784435 0.99452555 1.0025686 0.98510176 1.0097249 1.0009962 0.9963653 0.9990976
0.9933333 1.0029662 1.0075673 1.0197349 0.9719664 1.018053 0.96924144 1.0289425
0.9734217 0.98975843 0.97808117 1.0200669 0.97250235 0.99548006 0.99033374 1.0091281
1.0071882 0.97712386 0.9868846 0.99516445 0.9963894 0.9981593 1.020513 1.0035508
0.97207934 0.9999066 1.0029424 1.0232704 0.99233353 0.99259645 1.0004203 0.9698788
00000000: dea4 803f 38e7 803f f06d 803f d0f4 7f3f
00000010: b6a3 813f b061 7f3f da3f 7b3f a9ba 823f
00000020: a541 7a3f c4ca 813f b740 843f 2a0a 823f
00000030: 994e 803f 8a87 813f ca10 813f 16d6 7f3f
00000040: 630a 823f 19cc 803f ad25 7e3f 309d 7b3f
00000050: ec4e 803f fef3 7a3f ea06 803f 18b0 7a3f
00000060: 467b 7a3f 3a99 7e3f 2b54 803f a12f 7c3f
00000070: aa3e 813f a520 803f cc11 7f3f dcc4 7f3f
00000080: 174b 7e3f 3261 803f f7f7 803f ac86 823f
00000090: cad2 783f 904f 823f 3520 783f 63b4 833f
000000a0: 2a32 793f cf60 7d3f 8763 7a3f 8d91 823f
000000b0: eaf5 783f c8d7 7e3f 8386 7d3f 1c2b 813f
000000c0: 8beb 803f ca24 7a3f 78a4 7c3f 19c3 7e3f
000000d0: 6013 7f3f 5e87 7f3f 2ca0 823f 5a74 803f
000000e0: 31da 783f e1f9 7f3f 6b60 803f 86fa 823f
000000f0: 9209 7e3f cd1a 7e3f c60d 803f fa49 783f

bn2.bias f4 [64]
0.0090987515 0.012513532 -0.0036224495 0.009794083 0.013247817 0.0033678995 0.0047549396 0.022758018
0.01361939 0.0268605 0.009266377 0.027856095 0.0041602026 0.009318013 -0.0036695173 0.0119842375
-0.0059357807 -0.0010770878 0.0065802704 -0.01401488 -0.0023888287 -0.018859498 0.0071856603 -0.015369216
-0.021581288 0.010328471 0.026837533 0.00640063 -0.011596706 0.006661374 -0.005503447 0.007776976
-0.005088342 0.00332825 0.028651668 0.027945528 -0.031090604 0.0037657262 -0.03144693 0.032965902
-0.028445518 -0.027289232 -0.022305196 0.031508557 -0.022556867 0.008230139 0.009217519 0.0018336576
-0.009242938 -0.029606504 -0.0016999408 0.026957171 -0.028045394 0.008061461 0.031106293 0.0367678
-0.018412266 0.013120292 0.01312624 0.0037972396 0.0023022299 -0.011511064 0.011033826 -0.041589268
00000000: ee12 153c 8f05 4d3c 9e66 6dbb 5d77 203c
00000010: 5f0d 593c fab7 5c3b 53cf 9b3b 066f ba3c
00000020: dd23 5f3c 8d0a dc3c 01d2 173c 7732 e43c
00000030: 4f52 883b 94aa 183c 497c 70bb 8959 443c
00000040: f080 c2bb 122d 8dba 4f9f d73b ab9e 65bc
00000050: e58d 1cbb 3c7f 9abc b075 eb3b 2acf 7bbc
00000060: 3ecb b0bc bf38 293c 63da db3c 60bc d13b
00000070: 1c00 3ebc a847 da3b 4256 b4bb 01d6 fe3b
00000080: 1bbc a6bb c51e 5a3b e7b6 ea3c 05ee e43c
00000090: b9b1 febc 67ca 763b 7fce 00bd 4107 073d
000000a0: 9306 e9bc ab8d dfbc 63b9 b6bc 1e0f 013d
000000b0: 2ec9 b8bc b4d7 063c 1405 173c 5757 f03a
000000c0: b16f 17bc 5789 f2bc 8cd0 deba 49d5 dc3c
000000d0: 74bf e5bc 3814 043c a0d2 fe3c d599 163d
000000e0: 52d5 96bc 7ef6 563c 710f 573c 1cdb 783b
000000f0: 02e1 163b e798 3cbc 38c7 343c 8259 2abd

bn2.running_mean f4 [64]
-0.16405208 -0.31389928 -0.40891472 -0.35076785 -0.09660071 -0.58753693 -0.25981125 0.41488025
-0.30702364 0.08083688 -0.05051727 -0.3180789 0.13579482 -0.090163894 0.1610079 -0.29350442
0.012689343 0.5090822 0.127997 -0.27173105 0.2750344 -0.14978047 0.33691266 -0.13651599
0.083259284 -0.33513814 -0.22408068 -0.2213646 -0.114772014 0.18119988 -0.012282272 -0.14325617
0.5937774 -0.22581182 -0.120883495 -0.36188716 0.46573624 -0.1617464 0.20848651 -0.081380986
-0.21495229 -0.2626682 0.24507225 0.21407865 0.0065033482 -0.24986343 -0.4403206 0.014406837
-0.14386998 0.2665771 -0.0021092554 -0.08395077 0.031982116 -0.345969 -0.008470621 0.45967445
0.07589476 0.05009715 0.09777713 -0.13607252 -0.17438792 0.19571841 -0.10698834 -0.070671655
00000000: 45fd 27be 68b7 a0be 455d d1be d897 b3be
00000010: 98d6 c5bd d268 16bf fb05 85be 2f6b d43e
00000020: 3432 9dbe ce8d a53d 32eb 4ebd 3ddb a2be
00000030: cc0d 0b3e d9a7 b8bd 41df 243e 3646 96be
00000040: f6e6 4f3c 3653 023f a511 033e 5520 8bbe
00000050: 4fd1 8c3e 0d60 19be d17f ac3e d9ca 0bbe
00000060: d883 aa3d 3a97 abbe 6875 65be 67ad 62be
00000070: 970d ebbd 768c 393e 953b 49bc bfb1 12be
00000080: cc01 183f 373b 67be c491 f7bd 4649 b9be
00000090: fb74 ee3e d9a0 25be 7d7d 553e 13ab a6bd
000000a0: 741c 5cbe 727c 86be 38f4 7a3e 6f37 5b3e
000000b0: 0a1a d53b 33dc 7fbe b471 e1be a70a 6c3c
000000c0: a752 13be cb7c 883e 6f3b 0abb 62ee abbd
000000d0: aeff 023d d922 b1be 5cc8 0abc 735a eb3e
000000e0: b66e 9b3d ab32 4d3d 603f c83d 9856 0bbe
000000f0: bf92 32be 686a 483e b41c dbbd 4dbc 90bd

bn2.running_var f4 [64]
0.18943578 0.3080916 0.28437248 0.28783345 0.4830303 0.26702282 0.5000404 0.3277743
0.47767904 0.36449337 0.38994172 0.2621577 0.36847323 0.2847084 0.3539401 0.33555377
0.21902396 0.37928486 0.29929823 0.20946267 0.42735577 0.19514908 0.2986038 0.3086334
0.2989757 0.27977893 0.2661283 0.16535601 0.3956255 0.24479572 0.333347 0.28148592
0.39451978 0.51156914 0.20355278 0.3015009 0.2519769 0.27162203 0.20278834 0.30890366
0.18779704 0.25072327 0.19469783 0.33977532 0.42679408 0.23396294 0.278895 0.276013
0.3282043 0.18235256 0.2813236 0.19627425 0.2896827 0.26117018 0.32194018 0.29739338
0.18146603 0.33390874 0.19079104 0.28367454 0.25896728 0.2937695 0.42126334 0.23089081
00000000: 74fb 413e 2fbe 9d3e 4599 913e e85e 933e
00000010: bf4f f73e 37b7 883e a602 003f 08d2 a73e
00000020: 5992 f43e e09e ba3e 71a6 c73e 8939 863e
00000030: 86a8 bc3e 4dc5 913e a337 b53e b4cd ab3e
00000040: d147 603e a031 c23e 9e3d 993e 627d 563e
00000050: 60ce da3e 29d5 473e 99e2 983e 3205 9e3e
00000060: 5813 993e 2f3f 8f3e f841 883e 1653 293e
00000070: 6d8f ca3e bbab 7a3e 75ac aa3e ec1e 903e
00000080: 7ffe c93e 32f6 023f 2470 503e 535e 9a3e
00000090: 1e03 813e 0b12 8b3e bfa7 4f3e 9f28 9e3e
000000a0: de4d 403e cd5e 803e de5e 473e 08f7 ad3e
000000b0: c184 da3e fb93 6f3e 53cb 8e3e 9351 8d3e
000000c0: 650a a83e a1ba 3a3e a609 903e 1efc 483e
000000d0: 4a51 943e 19b8 853e 58d5 a43e f243 983e
000000e0: 3bd2 393e 16f6 aa3e ba5e 433e ca3d 913e
000000f0: 5c97 843e f568 963e d4af d73e a46e 6c3e

layer3.weight f4 [32, 64]
0.027202936 0.0022612126 -0.070910074 -0.121181436 0.044238925 -0.014907338 -0.022740172 0.03880034
-0.13118605 0.09889701 -0.098627284 0.09754662 0.03910128 -0.0224995 0.030223798 0.089196965
-0.06677231 -0.124374576 0.084498264 0.026551673 -0.1345481 -0.037182003 0.01683147 -0.055418923
-0.03579168 -0.0040942766 -0.076302014 -0.11250258 -0.09452424 -0.024684098 -0.022874933 0.07282255
-0.12441243 -0.12712575 -0.00927101 -0.1296812 0.044424523 0.0767934 -0.041662503 -0.021906838
0.10160758 -0.028900677 0.0469687 -0.09428442 -0.056251682 -0.024769077 0.051999427 0.083513305
0.069109194 -0.043131407 -0.027806083 0.08809786 -0.023863198 0.123222664 -0.108294874 0.11968174
-0.043477017 0.01714774 -0.11605618 -0.10685678 -0.07915079 -0.04067649 0.03430206 -0.032710526
0.088393874 -0.11851284 -0.06576052 0.0016197561 0.029678464 -0.12374123 0.070470884 -0.12871361
0.11858786 0.082965195 0.059817653 -0.14754514 0.08543403 -0.02659251 0.0470779 0.12229327
-0.06160611 0.018346444 -0.01671927 -0.06820477 0.02974917 0.0954943 0.0045319684 0.009829621
-0.055337865 0.11343066 0.075161554 0.11421224 0.004664569 -0.09344011 0.040022634 0.1390858
-0.09403328 0.04972446 0.14516455 0.08302928 0.078029856 0.03677187 0.09709452 -0.107719995
0.017894365 -0.035283726 0.08111942 0.0069355587 0.03727906 -0.10286261 -0.024923276 0.12131531
-0.040726952 -0.015278548 -0.030553313 0.005063898 0.08641054 0.043104418 0.09964249 -0.00805066
-0.113086335 -0.09122692 -0.05617984 -0.104225084 0.02145354 -0.07101162 -0.07646277 0.10914069
0.005818906 -0.084888354 -0.012474431 -0.09750975 0.089059465 -0.009594875 0.04758746 -0.11623479
0.023507833 0.11892209 -0.06825249 -0.06329638 -0.011278217 -0.042784847 -0.13334236 -0.10050784
0.095102265 0.078365356 -0.0815572 -0.040410236 -0.080802456 -0.022555297 -0.0024973368 -0.08474247
-0.019119328 -0.035081517 0.08776117 0.10972503 0.05570764 0.0063355244 -0.006356813 -0.1180784
0.049281836 0.0026571914 -0.01620298 -0.113684215 0.084740534 0.10928161 -0.10203251 -0.06413975
0.032080106 -0.053289093 -0.058843616 0.09069315 0.10885787 -0.09597149 -0.08629795 -0.008267893
-0.056322813 0.08727248 0.013810021 -0.07858672 0.12463345 0.08574971 0.100539476 0.033265185
-0.06369388 0.02850769 -0.06300728 -0.110554844 -0.04511024 0.0491304 0.048294358 -0.020046594
0.08171665 0.09368006 -0.112938784 -0.06126679 0.060162608 0.03855416 -0.01562942 -0.00080019137
-0.011237524 0.14812104 -0.14803195 0.07408265 0.058907025 -0.09509274 0.029461341 0.014811838
0.081675865 -0.052697133 -0.028691247 -0.04767924 -0.07885141 -0.12827028 -0.020060083 -0.072164305
0.013836811 -0.024759559 -0.04424077 -0.03691358 0.035878174 -0.05963746 -0.011123925 0.036386102
-0.0760086 0.07809559 0.057338994 0.0077654147 -0.040834274 0.1169386 -0.016583381 0.052765593
-0.09759172 0.016931815 -0.04562586 0.110552065 0.08939225 -0.02796582 0.1308944 0.100234844
-0.13782398 -0.0933625 -0.099139415 0.06295194 -0.048030294 -0.022045918 -0.003304307 0.009798142
-0.099190384 0.020474905 0.06467472 -0.08175837 -0.094859764 -0.09840511 0.18365169 -0.009230591
00000000: b1d8 de3c da30 143b 4d39 91bd f92d f8bd
00000010: e033 353d e83d 74bc 9949 babc 1bed 1e3d
00000020: a355 06be 848a ca3d 1afd c9bd 86c6 c73d
00000030: aa28 203d df50 b8bc e697 f73c e6ac b63d
00000040: ecbf 88bd 19b8 febd 6d0d ad3d e582 d93c
00000050: fac6 09be 284c 18bd 27e2 893c f4fe 62bd
00000060: 4c9a 12bd 4829 86bb 3b44 9cbd c167 e6bd
00000070: ed95 c1bd 4e36 cabc 3664 bbbc fd23 953d
00000080: f2cb febd 412d 02be 6fe5 17bc 26cb 04be
00000090: 7df6 353d dc45 9d3d 4da6 2abd f875 b3bc
000000a0: a317 d03d 1dc1 ecbc 4062 403d 3118 c1bd
000000b0: 2a68 66bd 85e8 cabc 5afd 543d 0609 ab3d
000000c0: 1f89 8d3d 8faa 30bd 95c9 e3bc a76c b43d
000000d0: c17c c3bc 2a5c fc3d b4c9 ddbd b31b f53d
000000e0: f514 32bd 6b79 8c3c ddae edbd bad7 dabd
000000f0: cf19 a2bd 649c 26bd 5180 0c3d 79fb 05bd
00000100: d907 b53d dcb6 f2bd 74ad 86bd ff4d d43a
00000110: 4020 f33c 0b6c fdbd 0a53 903d 80cd 03be
00000120: 31de f23d a8e9 a93d 5b03 753d 1316 17be
00000130: 09f8 ae3d 89d8 d9bc c2d4 403d e574 fa3d
00000140: b056 7cbd 484b 963c daf6 88bc f1ae 8bbd
00000150: 88b4 f33c 8492 c33d e880 943b 6b0c 213c
00000160: f5a9 62bd 554e e83d 4dee 993d 1be8 e93d
00000170: 3ed9 983b 875d bfbd c6ee 233d 826c 0e3e
00000180: 8594 c0bd e0ab 4b3d 04a6 143e 410b aa3d
00000190: 1ece 9f3d 1a9e 163d 7ed9 c63d 4d9c dcbd
000001a0: 3497 923c ab85 10bd f021 a63d af43 e33b
000001b0: edb1 183d a2a9 d2bd e62b ccbc 2974 f83d
000001c0: 4ed1 26bd e052 7abc f14a fabc 0eef a53b
000001d0: 02f8 b03d 428e 303d 5d11 cc3d eae6 03bc
000001e0: cf99 e7bd 2ed5 babd d51c 66bd f673 d5bd
000001f0: 56bf af3c 8a6e 91bd 8398 9cbd 2785 df3d
00000200: 85ac be3b f2d9 adbd 8e61 4cbc 31b3 c7bd
00000210: cf64 b63d d333 1dbc 12eb 423d 810c eebd
00000220: 8093 c03c 6d8d f33d f6c7 8bbd 88a1 81bd
00000230: 45c8 38bc 2a3f 2fbd e68a 08be 0ed7 cdbd
00000240: fac4 c23d 047e a03d 7607 a7bd 3485 25bd
00000250: c27b a5bd e3c5 b8bc 5caa 23bb 768d adbd
00000260: 23a0 9cbc a3b1 0fbd 21bc b33d 84b7 e03d
00000270: b22d 643d 3b9a cf3b d04c d0bb 17d3 f1bd
00000280: c0db 493d 4624 2e3b 1dbc 84bc 45d3 e8bd
00000290: 728c ad3d 09cf df3d 6cf6 d0bd b45b 83bd
000002a0: 6e66 033d aa45 5abd 0106 71bd 55bd b93d
000002b0: e0f0 de3d b38c c4bd fbbc b0bd 0f76 07bc
000002c0: c0b2 66bd eabb b23d 6d43 623c 13f2 a0bd
000002d0: d23f ff3d 8b9d af3d a4e7 cd3d 1341 083d
000002e0: f071 82bd f688 e93c f609 81bd 946a e2bd
000002f0: 84c5 38bd f53c 493d 4ed0 453d c138 a4bc
00000300: 0f5b a73d 55db bf3d 734c e7bd e3f2 7abd
00000310: 116d 763d f8ea 1d3d 4509 80bc efc3 51ba
00000320: 981d 38bc 0bad 173e b095 17be a5b8 973d
00000330: 7e48 713d fcbf c2bd e958 f13c 5aad 723c
00000340: ad45 a73d f3d8 57bd e809 ebbc 4f4b 43bd
00000350: d97c a1bd 4959 03be 0b55 a4bc e1ca 93bd
00000360: cbb3 623c 8fd4 cabc cf35 35bd b232 17bd
00000370: fef4 123d 6946 74bd 2041 36bc 9809 153d
00000380: 66aa 9bbd 95f0 9f3d 4bdc 6a3d 0575 fe3b
00000390: d741 27bd 817d ef3d dfd9 87bc bc20 583d
000003a0: 2bde c7bd 97b4 8a3c 2fe2 3abd 1f69 e23d
000003b0: 4913 b73d 9318 e5bc 2e09 063e ed47 cd3d
000003c0: bb21 0dbe d734 bfbd 9b09 cbbd f2ec 803d
000003d0: 6abb 44bd a499 b4bc 138d 58bb 6388 203c
000003e0: 5424 cbbd fdba a73c 2e74 843d ef70 a7bd
000003f0: d645 c2bd 9e88 c9bd 300f 3c3e e83b 17bc

layer3.bias f4 [32]
4.9084025e-05 0.0019660117 0.0007430638 6.412104e-06 0.00027450072 -4.3265656e-05 -2.1381145e-06 9.287399e-06
0.00063217734 -1.8093864e-06 0.002097329 5.2541654e-06 -1.2673542e-06 0.0006202803 4.4996646e-06 -4.845462e-06
0.00011166511 -0.00061424694 3.2407459e-06 2.4684741e-05 -9.74423e-06 -2.4541128e-05 7.0688466e-06 -3.2571297e-06
4.894304e-06 3.583517e-05 0.0020156745 9.778922e-05 -3.3379126e-06 2.8614219e-05 -5.0151415e-05 -5.3533204e-06
00000000: 92df 4d38 34d8 003b 2bca 423a 8e27 d736
00000010: ddea 8f39 2578 35b8 877c 0fb6 13d1 1b37
00000020: b4b8 253a 0bda f2b5 5773 093b f04c b036
00000030: f519 aab5 4e9a 223a d3fb 9636 3496 a2b6
00000040: c02d ea38 6a05 21ba 977b 5936 1412 cf37
00000050: 267b 23b7 acdd cdb7 ee30 ed36 1095 5ab6
00000060: c039 a436 b94d 1638 6819 043b 3014 cd38
00000070: e700 60b6 9108 f037 ac59 52b8 aca0 b3b6

bn3.weight f4 [32]
1.0813023 0.943845 1.101844 1.1008196 0.9536031 1.0850906 0.9476922 1.1041147
1.0760621 0.9564722 1.0461189 0.9496668 1.0679538 0.9572814 0.93469834 1.0333076
0.94575995 0.9547584 1.093519 1.0754238 1.0849247 1.0823346 1.0789231 1.0316074
1.0778613 1.090994 1.083592 0.94781846 0.9699705 0.9615117 0.95472604 0.9430373
00000000: 1d68 8a3f d39f 713f 3909 8d3f a8e7 8c3f
00000010: 551f 743f 40e4 8a3f f59b 723f a153 8d3f
00000020: 67bc 893f 5ddb 743f 39e7 853f 5d1d 733f
00000030: b6b2 883f 6510 753f 6448 6f3f 6c43 843f
00000040: 531d 723f 0c6b 743f 6ef8 8b3f 7da7 893f
00000050: d0de 8a3f f189 8a3f 271a 8a3f b60b 843f
00000060: 5cf7 893f b1a5 8b3f 25b3 8a3f 3ba4 723f
00000070: fd4f 783f a125 763f ed68 743f e46a 713f

bn3.bias f4 [32]
0.09351928 -0.05285154 0.11964854 0.10901263 -0.048152857 0.08502666 -0.050147496 0.1112227
0.08990142 -0.04865204 0.07109993 -0.06071182 0.08506167 -0.048543163 -0.059818007 0.05991593
-0.054038472 -0.05218218 0.110614255 0.09028636 0.09950015 0.085045524 0.084592596 0.046699855
0.08519443 0.09812713 0.098570146 -0.05114529 -0.028936384 -0.037540633 -0.043561477 -0.0528358
00000000: 0987 bf3d db7a 58bd 4b0a f53d 0442 df3d
00000010: ee3b 45bd 7522 ae3d 7667 4dbd bac8 e33d
00000020: 3c1e b83d 5d47 47bd d79c 913d f5ac 78bd
00000030: d034 ae3d 32d5 46bd ba03 75bd 686a 753d
00000040: 7257 5dbd fbbc 55bd ba89 e23d 0ee8 b83d
00000050: bcc6 cb3d 592c ae3d e23e ad3d 5948 3f3d
00000060: 6b7a ae3d e0f6 c83d 25df c93d b97d 51bd
00000070: ff0b edbc 35c4 19bd 856d 32bd 5a6a 58bd

bn3.running_mean f4 [32]
-0.38501012 0.22515658 -0.19876747 -0.07276878 -0.008913391 -0.19629008 0.23093063 -0.4353819
-0.31067365 -0.10933426 -0.10085055 -0.39041635 0.2943362 0.32291228 -0.017752834 0.16983293
-0.34638643 -0.6050067 -0.16208525 0.25653642 -0.45825267 0.027092818 -0.3556813 0.24123707
0.012762191 -0.5109463 -0.076263614 -0.14684273 0.051197734 -0.47733513 -0.12680215 -0.05488462
00000000: 0c20 c5be 728f 663e b389 4bbe cc07 95bd
00000010: 7909 12bc 4400 49be 1479 6c3e 60ea debe
00000020: 9e10 9fbe a4ea dfbd bc8a cebd a7e4 c7be
00000030: 3cb3 963e c254 a53e 646e 91bc afe8 2d3e
00000040: 9059 b1be b8e1 1abf adf9 25be be58 833e
00000050: 18a0 eabe c2f1 dd3c dc1b b6be da06 773e
00000060: 8218 513c 60cd 02bf 1930 9cbd f15d 16be
00000070: b7b4 513d 4565 f4be 6cd8 01be b2ce 60bd

bn3.running_var f4 [32]
0.3557574 0.19560447 0.26169926 0.31455564 0.21095592 0.42311245 0.16428211 0.4262066
0.25277317 0.17978172 0.25739962 0.27790177 0.33089548 0.1806489 0.26866546 0.3176757
0.25147092 0.38125005 0.24954292 0.47322387 0.37814724 0.2402993 0.24149865 0.2038573
0.5775849 0.29121184 0.27538282 0.22638233 0.2395221 0.22045755 0.15712413 0.21102218
00000000: d525 b63e 8a4c 483e 72fd 853e 700d a13e
00000010: d404 583e 32a2 d83e 9239 283e c037 da3e
00000020: 7c6b 813e b318 383e e2c9 833e 2449 8e3e
00000030: 226b a93e 06fc 383e 858e 893e 64a6 a23e
00000040: ccc0 803e 3533 c33e 2e88 7f3e 664a f23e
00000050: 849c c13e 0511 763e 6c4b 773e f8bf 503e
00000060: 9bdc 133f b819 953e fafe 8c3e c5d0 673e
00000070: 4845 753e a0bf 613e 26e5 203e 3316 583e

output.weight f4 [1, 32]
0.19299753 -0.0555267 0.07819181 0.074833505 -0.099427685 0.25034115 -0.013428296 0.09269872
0.12457303 -0.024380965 0.16163197 -0.11596362 0.065719455 0.012477156 -0.08430968 0.052313264
-0.10402984 -0.10598291 0.07821636 0.20762894 0.17890894 0.07487298 0.16974977 0.045788057
0.2313168 0.077884026 0.07072179 -0.05177149 0.0246448 -0.0052905367 0.0018190169 -0.064935334
00000000: 25a1 453e f76f 63bd 0723 a03d 4f42 993d
00000010: bea0 cbbd b72c 803e 5b02 5cbc d4d8 bd3d
00000020: 2520 ff3d 97ba c7bc da82 253e 567e edbd
00000030: ec97 863d fc6c 4c3c 8eaa acbd 6f46 563d
00000040: 990d d5bd 910d d9bd e62f a03d ae9c 543e
00000050: e833 373e 0157 993d e2d2 2d3e 428c 3b3d
00000060: 50de 6c3e a981 9f3d 96d6 903d 580e 54bd
00000070: e4e3 c93c 3d5c adbb 146c ee3a d1fc 84bd
