backend/data/best_model.pth (torch, 123563 bytes, 19 tensors)

layer1.weight f4 [128, 139]
0.013208476 -0.03200759 0.025758343 -0.02020922 -0.08401744 -0.017182639 -0.06341188 -0.12396515
0.058899023 -0.042379636 0.010750573 0.00637011 0.045989227 -0.02535417 -0.11074081 0.018091857
-0.050723743 0.012319025 0.022240391 0.067468114 0.025844371 0.035770938 0.062405575 -0.07923482
-0.10882207 -0.043033905 -0.018443303 0.04218765 -0.047951117 -0.07477974 -0.064361826 0.08031504
0.015000669 -0.0031632879 0.056982134 -0.013250475 -0.022630617 0.023715902 -0.024686506 0.02505044
0.032205753 -0.014504827 -0.10227034 -0.016131848 -0.09371627 0.017073125 0.01888068 -0.030543173
0.05627844 0.018250413 -0.0053012823 0.017835585 0.092320204 -0.0053211763 0.00016560554 -0.054461688
-3.9865715e-31 0.015674276 0.061278075 -0.025865983 0.0074307946 -0.081883214 -0.005940536 0.057446867
0.118943594 0.059919436 -0.023749711 -0.061546337 -0.0836391 0.04070333 0.026139695 -0.0136991525
0.04716373 0.016717922 -0.03025464 0.012001485 0.08040993 0.033922862 0.03760557 0.008172447
-0.061045997 0.072726965 -0.06347812 -0.069327995 -0.0410642 0.032014046 -0.00062500587 0.004008127
0.040582016 -0.02599599 -0.046686925 0.042574126 0.025480445 0.02071586 0.05068069 0.03032758
-0.02447569 -0.020979017 -0.06033285 -0.023809854 0.012907122 0.0833282 -0.035200812 0.055423625
-0.03125389 0.04929582 -0.019039236 -0.0043416354 0.042262383 0.035100136 0.02581539 -0.023023559
-0.007577827 -0.059894152 -0.0389991 -0.012048182 -0.018168744 0.017055837 0.07472414 0.07755526
-0.037078552 -0.06122655 -1.43587425e-33 0.042636313 0.1176542 0.009272629 -0.012150326 -0.0010442458
-0.095288716 0.10658964 -0.004334336 -0.059901096 0.03470504 0.15396972 0.096415244 0.008502231
0.062495813 -0.045738246 -0.02893019 0.022045672 -0.08069169 0.058198333 -0.08699814 -0.05826701
0.004606238 0.004233439 -0.066017136 -0.0026679283 -0.13585624 0.06497085 0.043160126 0.09178615
0.027140968 0.02596499 -0.014915027 -0.014854256 0.037295032 0.014139956 0.041354183 -0.0016346573
-0.0530128 0.035416346 0.033767138 -0.01415562 0.042072617 0.095827766 0.043691766 -0.013377936
0.1040678 -0.022888426 0.038465362 0.055127062 0.042026963 0.08126485 -0.040740933 -0.0019405935
0.043279745 0.07681536 0.0023572282 -0.020365924 0.025568979 -0.050964598 -0.08567373 -0.016528126
0.076394886 -0.08445312 -0.0797159 0.06532699 0.059327345 0.06465683 -0.07433915 0.08502973
0.0806212 0.07610617 0.03278687 -3.8371398e-29 -0.028367925 0.036593392 -0.016516037 0.08337137
-0.022575835 0.043753706 -0.06006833 -0.032555275 0.07994392 -0.028581982 -0.074311346 -0.02050924
-0.043457936 0.05594005 -0.073803306 -0.030359518 -0.046919506 -0.03871011 -0.073720165 -0.022948185
0.031243287 -0.038058035 0.03475403 0.054973017 -0.07490396 -0.02911732 0.017653203 -0.020362072
0.06356664 0.030543294 0.026247272 -0.06630591 -0.07452097 -0.04338013 0.04006811 -0.04413663
0.025558317 -0.04366211 -0.039823283 -0.07733525 -0.0754328 0.122471094 0.0009362842 0.048221312
-0.080375515 -0.031863756 -0.039328266 0.01843294 0.07754169 0.07117463 -0.02764484 -0.041289847
-0.011140894 0.0026939877 0.00944255 -0.0589442 0.04682824 0.05638061 0.002296494 0.008957966
00000000: 5d68 583c 641a 03bd 2903 d33c ce8d a5bc
00000010: 5611 acbd 9bc2 8cbc 16de 81bd 71e1 fdbd
00000020: 1a40 713d 4596 2dbd 2c23 303c 5bbc d03b
00000030: 335f 3c3d 8cb3 cfbc 14cc e2bd 6035 943c
00000040: b3c3 4fbd bcd5 493c 7b31 b63c b92c 8a3d
00000050: 93b7 d33c 8c84 123d fd9c 7f3d de45 a2bd
00000060: 1bde debd 5244 30bd 6916 97bc f5cc 2c3d
00000070: 6468 44bd 1f26 99bd 22d0 83bd 367c a43d
00000080: 5ec5 753c 2a4f 4fbb 1966 693d 8518 59bc
00000090: d863 b9bc da47 c23c 5b3b cabc 9536 cd3c
000000a0: 2eea 033d a7a5 6dbc 1d73 d1bd f026 84bc
000000b0: 51ee bfbd f0dc 8b3c a8ab 9a3c ad35 fabc
000000c0: 3984 663d e481 953c 61b6 adbb ef1b 923c
000000d0: 6012 bd3d 435d aebb 66a6 2d39 3813 5fbd
000000e0: 245f 018d 5767 803c b8fe 7a3d e6e4 d3bc
000000f0: 067e f33b 63b2 a7bd d4a8 c2bb 684d 6b3d
00000100: b398 f33d 156e 753d c18e c2bc 0318 7cbd
00000110: fa4a abbd 89b8 263d ea22 d63c 6972 60bc
00000120: c12e 413d 06f4 883c 94d8 f7bc e0a1 443c
00000130: f6ad a43d b3f2 0a3d 4c08 1a3d bae5 053c
00000140: 5e0b 7abd e0f1 943d d100 82bd d6fb 8dbd
00000150: ef32 28bd 2921 033d 6fd7 23ba 9b56 833b
00000160: 5439 263d 8bf5 d4bc ca3a 3fbd 3562 2e3d
00000170: 5ebc d03c 4fb4 a93c 8e96 4f3d 8c71 f83c
00000180: 3e81 c8bc 30dc abbc 941f 77bd e20c c3bc
00000190: 6578 533c faa7 aa3d ba2e 10bd e203 633d
000001a0: 1404 00bd 6aea 493d 2cf8 9bbc 4744 8ebb
000001b0: 521b 2d3d 29c5 0f3d cc7a d33c e79b bcbc
000001c0: 6c4f f8bb 9253 75bd 85bd 1fbd bd65 45bc
000001d0: 9ed6 94bc afb8 8b3c f808 993d 4bd5 9e3d
000001e0: aedf 17bd b1c8 7abd 5693 ee88 6aa3 2e3d
000001f0: aff4 f03d 3aec 173c 2912 47bc 13df 88ba
00000200: bb26 c3bd ab4b da3d 0c07 8ebb da5a 75bd
00000210: df26 0e3d 3daa 1d3e 5b75 c53d f14c 0b3c
00000220: 9cfb 7f3d 0758 3bbd 01ff ecbc 2099 b43c
00000230: af41 a5bd 6061 6e3d 152c b2bd 63a9 6ebd
00000240: edef 963b a9b8 8a3b fe33 87bd 69d8 2ebb
00000250: e61d 0bbe 700f 853d acc8 303d 61fa bb3d
00000260: bc56 de3c 88b4 d43c 285e 74bc 445f 73bc
00000270: adc2 183d 46ab 673c 0163 293d ff41 d6ba
00000280: f323 59bd bb10 113d 694f 0a3d f9ec 67bc
00000290: 5654 2c3d 5941 c43d 23f6 323d 212f 5bbc
000002a0: 8021 d53d 8280 bbbc db8d 1d3d eacc 613d
000002b0: 7724 2c3d 306e a63d f7df 26bd 835b feba
000002c0: 1a46 313d 5f51 9d3d ba7b 1a3b 70d6 a6bc
000002d0: 0976 d13c 41c0 50bd b575 afbd fe65 87bc
000002e0: ec74 9c3d c2f5 acbd 1742 a3bd 28ca 853d
000002f0: 3b01 733d cd6a 843d 203f 98bd 1124 ae3d
00000300: ba1c a53d 8ddd 9b3d 864b 063d ec90 4290
00000310: da63 e8bc f4e2 153d a44c 87bc 9cbe aa3d
00000320: f5f0 b8bc 1637 333d 360a 76bd ae58 05bd
00000330: a3b9 a33d c324 eabc 8c30 98bd fe02 a8bc
00000340: f300 32bd 6521 653d 3026 97bd 86b4 f8bc
00000350: ab2e 40bd 7e8e 1ebd 99fa 96bd d5fd bbbc
00000360: ecf1 ff3c bee2 1bbd 3e5a 0e3d 632b 613d
00000370: 3f67 99bd 7287 eebc 739d 903c 5cce a6bc
00000380: 3a2f 823d ee35 fa3c 8504 d73c 65cb 87bd
00000390: 739e 98bd 5daf 31bd 751e 243d 9cc8 34bd
000003a0: ad5f d13c 0ad7 32bd bd1d 23bd f261 9ebd
000003b0: 837c 9abd 20d2 fa3d f870 753a b683 453d
000003c0: eb9b a4bd 9283 02bd ad16 21bd ad00 973c
000003d0: 2dce 9e3d 01c4 913d 6e77 e2bc 8b1f 29bd
000003e0: 4c88 36bc 9d8d 303b edb4 1a3c 796f 71bd
000003f0: f8ce 3f3d 5bef 663d c780 163b 6fc4 123c

layer1.bias f4 [128]
-1.8735429e-05 2.2321105e-06 1.156929e-05 -9.497579e-06 1.2180317e-06 -1.648596e-06 4.6062488e-07 -1.660594e-05
-4.687791e-06 9.068572e-06 9.037496e-06 6.920885e-08 1.1060379e-05 -1.367302e-05 -1.2526997e-06 -7.07216e-06
-2.7249196e-06 4.192051e-06 -6.179395e-06 3.077071e-07 -6.140378e-06 9.710723e-06 -1.325211e-06 -2.9385583e-06
-2.4327042e-06 3.2431908e-05 -4.22872e-05 -3.7117175e-07 7.494621e-07 1.0364964e-05 4.293454e-06 4.3400824e-08
-3.872835e-06 6.4577393e-06 6.802658e-06 -7.745517e-06 -7.100478e-06 1.0893908e-05 -6.8184545e-06 7.373321e-06
-1.8789637e-05 5.9101467e-06 3.2320145e-08 -1.8934483e-05 6.1179608e-06 8.77948e-06 1.4075587e-05 2.2839731e-05
7.275145e-07 -1.2538492e-05 -1.2859268e-05 6.0095476e-06 4.281627e-06 7.4580885e-06 -1.5285417e-05 2.77396e-06
-2.1936842e-06 -9.334707e-06 4.850624e-06 -6.8359195e-06 4.4082904e-06 -2.395922e-05 5.8012224e-06 -1.4408674e-06
-5.369472e-06 -1.6768314e-06 9.858675e-06 6.845614e-07 1.0975753e-05 -2.9181028e-06 -1.0790474e-05 2.3452034e-05
-5.131652e-07 -6.1756473e-06 -5.6136605e-06 -2.7213969e-06 -6.7240026e-06 1.2703784e-06 -2.8310376e-07 -4.7743015e-07
7.669807e-06 -4.9914033e-06 5.418053e-06 -2.5808533e-05 1.0581956e-06 6.1388123e-06 1.114954e-05 5.1577313e-06
2.6007555e-07 2.182523e-05 -1.8319659e-05 -1.691993e-05 -3.814098e-06 -6.6869693e-06 4.7147807e-07 -1.2720102e-05
-8.268665e-06 2.0386418e-05 6.5494164e-06 -2.3693462e-06 1.3708358e-05 -1.1719895e-05 3.9781524e-05 8.234217e-06
-8.601729e-06 4.6414293e-06 4.82826e-06 -1.6132575e-06 1.3799515e-05 1.6836804e-05 -3.520898e-06 5.9184345e-06
1.0640854e-06 -3.1766685e-05 -2.0998848e-06 -3.401638e-05 -7.082441e-06 -1.1149557e-05 9.347511e-06 -7.802895e-05
2.1929047e-05 -2.1292049e-06 9.843758e-07 1.5964767e-06 7.740065e-07 3.5121288e-06 3.7446184e-06 -1.9820613e-05
00000000: 072a 9db7 5ecb 1536 b919 4237 cb57 1fb7
00000010: 407b a335 5445 ddb5 cd4b f734 fc4c 8bb7
00000020: d14b 9db6 3825 1837 c09f 1737 f89f 9433
00000030: f78f 3937 2c65 65b7 6f22 a8b5 644d edb6
00000040: c3dd 36b6 72a9 8c36 9958 cfb6 f132 a534
00000050: 7209 ceb6 3deb 2237 e7dd b1b5 0c34 45b6
00000060: 8a41 23b6 7f07 0838 895d 31b8 7545 c7b4
00000070: a52e 4935 2ee5 2d37 7d10 9036 b667 3a33
00000080: 66f3 81b6 8faf d836 6342 e436 bef2 01b7
00000090: a440 eeb6 fbc4 3637 14ca e4b6 5868 f736
000000a0: 709e 9db7 c64f c636 60d0 0a33 7ed5 9eb7
000000b0: e248 cd36 944b 1337 3026 6c37 f397 bf37
000000c0: 6a4a 4335 6a5c 52b7 23be 57b7 9fa5 c936
000000d0: e5aa 8f36 7e40 fa36 2f39 80b7 4528 3a36
000000e0: 3537 13b6 439c 1cb7 8bc2 a236 1a60 e5b6
000000f0: edea 9336 08fc c8b7 1fa8 c236 d463 c1b5
00000100: 6a2b b4b6 7d0f e1b5 b066 2537 b4c2 3735
00000110: 8024 3837 a0d4 43b6 bc08 35b7 dcba c437
00000120: 72c0 09b5 6838 cfb6 fa5c bcb6 3ea1 36b6
00000130: be9e e1b6 df81 aa35 7cfd 97b4 c028 00b5
00000140: 92ad 0037 d47b a7b6 b9cc b536 677f d8b7
00000150: 5307 8e35 fffb cd36 e90e 3b37 9310 ad36
00000160: 83a0 8b34 5315 b737 2bad 99b7 46ef 8db7
00000170: b4f5 7fb6 a160 e0b6 741f fd34 6c68 55b7
00000180: a5b9 0ab7 8003 ab37 0fc3 db36 0f01 1fb6
00000190: f3fc 6537 91a0 44b7 16db 2638 b125 0a37
000001a0: 2550 10b7 93bd 9b36 7002 a236 1b87 d8b5
000001b0: 7784 6737 c33c 8d37 9148 6cb6 f796 c636
000001c0: b2d1 8e35 383d 05b8 bfeb 0cb6 cfac 0eb8
000001d0: b4a5 edb6 fc0e 3bb7 41d3 1c37 79a3 a3b8
000001e0: 45f4 b737 76e3 0eb6 e51e 8435 8646 d635
000001f0: 52c5 4f35 eab1 6b36 0e4c 7b36 7144 a6b7

bn1.weight f4 [128]
0.9984205 0.9888273 0.96131635 1.0021932 1.0390557 0.99911684 1.0147295 1.0321862
0.99195665 1.0034499 0.9889152 0.9692953 0.99648756 0.97520363 0.9963604 0.9927801
1.0078548 1.0068427 0.9915465 0.97809654 0.9894092 0.97410876 0.96366894 1.0198028
0.9966582 0.980585 1.0183709 0.98434335 0.9858567 0.9776199 0.9896941 1.013618
1.0267531 0.9966259 1.0040258 0.96599764 1.0113072 0.9924505 1.0027238 0.99713725
1.0108312 0.98808724 1.0109016 0.98962843 0.9761838 1.0079705 0.9699917 1.024775
0.9844768 1.0136166 1.0178874 0.9858457 0.9914512 1.0190476 1.0061836 0.97335726
0.96794486 0.9935039 0.9704886 1.0172049 1.0158514 1.0192498 0.9667068 0.98748285
0.96780646 0.9761016 0.9603023 0.988229 1.0145686 1.0077342 0.96039695 0.98364043
1.0016173 0.98805314 0.9979363 1.0083959 0.9819799 0.981959 0.9759572 0.9645187
1.0284133 0.98157424 0.96334773 1.0471265 1.0147746 0.9816651 1.0079272 1.0144744
0.9840402 1.0094161 1.0161731 1.0169169 0.99104446 0.9850186 0.9761628 0.9685909
0.9995835 1.0352842 0.9918041 1.0100164 1.0125296 0.95336676 1.0431494 1.031711
1.0168043 0.9875646 1.0222023 0.99261457 0.9866129 1.0262045 0.9867647 0.9814488
0.97885394 1.0130281 0.9782789 1.0225806 0.96298116 0.9830076 1.0432818 1.0321149
0.9679559 0.99186116 0.9966893 1.0128878 1.0229161 0.98690397 0.9837535 0.9922016
00000000: 7c98 7f3f c923 7d3f d418 763f de47 803f
00000010: c7ff 843f 1fc6 7f3f a8e2 813f ad1e 843f
00000020: dff0 7d3f 0c71 803f 8c29 7d3f bd23 783f
00000030: cf19 7f3f f2a6 793f 7a11 7f3f d626 7e3f
00000040: 6301 813f 39e0 803f fed5 7d3f 8964 7a3f
00000050: ec49 7d3f 315f 793f 02b3 763f e688 823f
00000060: fe24 7f3f 9e07 7b3f fa59 823f edfd 7b3f
00000070: 1b61 7c3f 4c45 7a3f 985c 7d3f 3cbe 813f
00000080: a56c 833f e022 7f3f eb83 803f 9f4b 773f
00000090: 8472 813f 3c11 7e3f 4159 803f 6344 7f3f
000000a0: eb62 813f 49f3 7c3f 3965 813f 4a58 7d3f
000000b0: 2ee7 793f 2d05 813f 6051 783f d42b 833f
000000c0: ac06 7c3f 30be 813f 224a 823f 6260 7c3f
000000d0: bfcf 7d3f 2770 823f a0ca 803f f12d 793f
000000e0: 3ccb 773f 4656 7e3f f171 783f c533 823f
000000f0: 6b07 823f c776 823f 197a 773f adcb 7c3f
00000100: 2ac2 773f cbe1 793f 5fd6 753f 93fc 7c3f
00000110: 62dd 813f 6ffd 803f 93dc 753f dccf 7b3f
00000120: ff34 803f 0df1 7c3f c178 7f3f 1e13 813f
00000130: 0963 7b3f aa61 7b3f 55d8 793f b3ea 763f
00000140: 0ca3 833f 7348 7b3f f59d 763f 3e08 863f
00000150: 22e4 813f 674e 7b3f c203 813f 4cda 813f
00000160: 0fea 7b3f 8c34 813f f611 823f 552a 823f
00000170: 17b5 7d3f 2e2a 7c3f cee5 793f 93f5 773f
00000180: b4e4 7f3f 3184 843f e0e6 7d3f 3848 813f
00000190: 929a 813f d80f 743f eb85 853f 1b0f 843f
000001a0: a526 823f 09d1 7c3f 86d7 823f fd1b 7e3f
000001b0: aa92 7c3f ab5a 833f 9d9c 7c3f 3b40 7b3f
000001c0: 2c96 7a3f e8aa 813f 7c70 7a3f ece3 823f
000001d0: ef85 763f 63a6 7b3f 428a 853f 571c 843f
000001e0: f5cb 773f 9dea 7d3f 0827 7f3f 4fa6 813f
000001f0: eaee 823f bda5 7c3f 45d7 7b3f ed00 7e3f

bn1.bias f4 [128]
-0.010732992 0.013920119 -0.019840712 -0.0122878 0.032791533 -0.017830815 -0.012349797 -0.005201946
-0.03175432 -0.0078433 0.0054606916 -0.01068253 -0.017594758 -0.04291022 -0.00752895 -0.023654953
0.00081364 -0.041004643 0.007443771 -0.029712658 -0.025884056 -0.032759823 -0.012192123 -0.017264066
-0.05172985 -0.014374833 -0.021278655 -0.045270436 -0.018946303 0.0045923744 -0.017114814 0.003638978
0.010938235 -0.020027854 -0.005011284 -0.04671134 0.007302738 0.020948008 -0.014584915 -0.000846585
-0.020187506 -0.030931016 -0.025685245 -0.03502612 -0.019818684 -0.008357082 -0.0143208215 -0.0037980925
-0.023929082 0.0017076781 -0.021133142 -0.037853193 -0.04808244 0.02009013 -0.0064553437 -0.012029201
-0.057250366 -0.0061714174 -0.015148946 0.025463786 -0.017258206 0.009704297 -0.016218 -0.02295421
-0.030300122 -0.003228895 -0.011973801 -0.03376962 -0.011162706 0.023270056 -0.04056366 -0.015828319
0.005801233 -0.03363403 0.023372753 -0.0066907355 -0.04394516 -0.025552988 0.010552674 -0.0077741425
0.0008810702 -0.027401965 -0.035032142 0.0332512 -0.009461823 -0.042641383 -0.019070458 -0.016122805
-0.000701907 0.003112718 -0.007500271 -0.014615583 -0.034453787 -0.007771997 0.0067801587 -0.025038654
-0.009246736 0.02788483 -0.008533697 -0.026749171 0.030319255 -0.029365305 0.024470896 0.021670217
-0.016677842 0.0031189304 -0.023140935 -0.038276672 -0.02319802 -0.008508279 -0.048550688 -0.005704167
-0.013149055 -0.013866319 -0.004490893 -0.0006367894 -0.03855039 -0.05251356 0.023662012 -0.03977871
-0.04919583 -0.006061438 -0.0001596766 -0.0034818505 -0.003153791 -0.02858409 -0.019588454 -0.0074179
00000000: 6ed9 2fbc 3611 643c fd88 a2bc c552 49bc
00000010: 6a50 063d ee11 92bc ce56 4abc 1675 aabb
00000020: d110 02bd 2f81 00bc 9aef b23b c705 2fbc
00000030: e222 90bc a0c2 2fbd 69b5 f6bb 08c8 c1bc
00000040: 754a 553a 7cf4 27bd e1ea f33b f667 f3bc
00000050: cd0a d4bc 2a2f 06bd 78c1 47bc 5f6d 8dbc
00000060: aee2 53bd 6b84 6bbc 9350 aebc 7e6d 39bd
00000070: 4735 9bbc a17b 963b 5e34 8cbc ec7b 6e3b
00000080: 4836 333c 7411 a4bc b235 a4bb 6454 3fbd
00000090: ce4b ef3b 289b ab3c 91f5 6ebc 5ced 5dba
000000a0: 4560 a5bc 0b63 fdbc dd69 d2bc 8c77 0fbd
000000b0: cb5a a2bc 24ec 08bc e1a1 6abc 6be9 78bb
000000c0: ec06 c4bc 2bd4 df3a 691f adbc f30b 1bbd
000000d0: 18f2 44bd 0e94 a43c 5987 d3bb 2016 45bc
000000e0: 5c7f 6abd 9a39 cabb 4933 78bc 6e99 d03c
000000f0: 1561 8dbc c6fe 1e3c 9cdb 84bc 780a bcbc
00000100: f637 f8bc de9b 53bb c32d 44bc 0352 0abd
00000110: c8e3 36bc d8a0 be3c 1526 26bd 64aa 81bc
00000120: 4518 be3b d6c3 09bd 3778 bf3c f53d dbbb
00000130: d7ff 33bd 8054 d1bc 1fe5 2c3c 3cbe febb
00000140: 9ff7 663a 167a e0bc dd7d 0fbd 6932 083d
00000150: c305 1bbc bba8 2ebd a639 9cbc f913 84bc
00000160: 2e00 38ba befe 4b3b d5c4 f5bb 3376 6fbc
00000170: 6a1f 0dbd 3cac febb 182c de3b dd1d cdbc
00000180: 9f7f 17bc ba6e e43c ebd0 0bbc 1421 dbbc
00000190: 1660 f83c 828f f0bc 3077 c83c bd85 b13c
000001a0: f89f 88bc f866 4c3b 0f92 bdbc 00c8 1cbd
000001b0: c609 bebc 4f66 0bbc 16dd 46bd 05ea babb
000001c0: 226f 57bc 8f2f 63bc 5728 93bb 37ee 26ba
000001d0: 04e7 1dbd 7518 57bd d6d6 c13c 00ef 22bd
000001e0: 9181 49bd 079f c6bb dc6e 27b9 c22f 64bb
000001f0: d5af 4ebb 2e29 eabc f777 a0bc db11 f3bb

bn1.running_mean f4 [128]
0.014081938 0.0011505943 -0.008039435 0.03778115 0.005787731 -0.045153987 -0.008690405 -0.005716965
0.04980835 0.019035714 0.0075197276 -0.023638159 0.024490517 -0.032368645 -0.0029761791 0.023710396
0.0081846295 -0.0049880934 -0.012931675 0.015866848 -0.059410978 -0.029877674 0.011392578 0.017857658
0.014483642 -0.0024107406 -0.028951792 0.017169802 -0.009880778 0.018756524 -0.015175775 0.015218747
-0.006312976 0.0063783154 0.0063956873 0.018857975 0.0062685595 0.026843991 0.014056597 -0.031457618
0.05272159 0.00867999 -0.017132038 0.0020127082 -0.016418517 0.027800143 0.021102775 -0.021588631
-0.01666969 0.02053171 0.008321529 0.04796534 0.0077437814 -0.0044779093 0.00097552175 -0.04834336
0.017739972 -0.015804753 -0.006196613 -0.01404964 0.0061926497 0.03004528 0.035423182 -0.0187133
0.06645653 0.03649119 0.012134591 0.0029534418 -0.025840752 0.014898219 -0.05753853 -0.013218377
-0.004524373 -0.024262462 -0.017846294 -0.0064064255 -0.024352036 -0.0031279856 0.013779502 0.004889128
0.039272454 -0.0037479445 -0.041391727 -0.0032787197 0.023809446 0.0020095832 0.014988673 0.03869142
-0.00986681 0.019921478 -0.028405659 0.0067920843 -0.01574531 0.015256418 0.019972302 -0.01760145
-0.016750267 0.02360836 -0.05548752 0.0057247886 -0.015651029 0.010766618 -0.009907773 -0.042485684
0.015285187 0.04443381 -0.013636354 0.00934668 -0.034589767 -0.020910557 0.0134308385 -0.006167428
0.033443492 0.0046094363 0.015244664 -0.022357784 0.0118603585 -0.023419999 0.04021531 -0.04387339
0.013027801 -0.0032865861 0.030005172 0.01801555 -0.028667036 0.0034275185 -0.012416292 -0.016897636
00000000: eeb7 663c 8acf 963a d6b7 03bc 68c0 1a3d
00000010: 02a7 bd3b 63f3 38bd 3362 0ebc 6155 bbbb
00000020: d703 4c3d c9f0 9b3c 0c68 f63b d0a4 c1bc
00000030: 56a0 c83c fc94 04bd 000c 43bb 4e3c c23c
00000040: d318 063c 2973 a3bb 60df 53bc 31fb 813c
00000050: ed58 73bd 06c2 f4bc efa7 3a3c 394a 923c
00000060: cc4c 6d3c 84fd 1dbb 4f2c edbc afa7 8c3c
00000070: fde2 21bc 48a7 993c d0a3 78bc 0d58 793c
00000080: 15dd cebb 3001 d13b ea92 d13b 0a7c 9a3c
00000090: 7d68 cd3b eee7 db3c a44d 663c b4d9 00bd
000000a0: 98f2 573d 8436 0e3c 7d58 8cbc a4e7 033b
000000b0: 2080 86bc 20bd e33c badf ac3c a4da b0bc
000000c0: e08e 88bc 1e32 a83c 0657 083c 4e77 443d
000000d0: 8cbf fd3b 6dbb 92bb 28ba 7f3a b003 46bd
000000e0: 6b53 913c f878 81bc f50c cbbb 7630 66bc
000000f0: b6eb ca3b 8521 f63c e617 113d a24c 99bc
00000100: 5c1a 883d c977 153d 2ad0 463c 888e 413b
00000110: fcaf d3bc a917 743c 86ad 6bbd e491 58bc
00000120: 3141 94bb 12c2 c6bc 6432 92bc feec d1bb
00000130: ec7d c7bc e4fe 4cbb 6cc3 613c fa34 a03b
00000140: 27dc 203d 13a0 75bb 5f8a 29bd cadf 56bb
00000150: 070c c33c 36b3 033b 0d93 753c e57a 1e3d
00000160: 67a8 21bc 5e32 a33c fcb2 e8bc 2290 de3b
00000170: 4ffc 80bc 0ef6 793c f49c a33c eb30 90bc
00000180: db37 89bc 5266 c13c e246 63bd 0297 bb3b
00000190: 9636 80bc 7866 303c 3654 22bc 7805 2ebd
000001a0: b96e 7a3c 3a00 363d 046b 5fbc d122 193c
000001b0: 00ae 0dbd 9e4c abbc 050d 5c3c 2318 cabb
000001c0: 0bfc 083d c10a 973b c1c4 793c ac27 b7bc
000001d0: f351 423c 4cdb bfbc cfb8 243d 95b4 33bd
000001e0: 8f72 553c c463 57bb 68cd f53c 5995 933c
000001f0: 22d7 eabc 38a0 603b b46d 4bbc e96c 8abc

bn1.running_var f4 [128]
0.28561726 0.813349 0.46668234 0.56267834 0.35450986 0.41821805 0.2876431 0.41311967
0.9894268 0.48779812 0.53865546 0.5637036 0.3591643 0.39745453 0.7762392 0.6354558
0.57180196 0.27615684 0.29966047 0.59134984 0.35517594 0.252502 0.70865464 0.642161
0.517069 0.35024494 0.4582659 0.5148657 0.50229865 0.2773646 0.34575507 0.580128
0.4557518 0.29937658 0.56655496 0.40228182 0.37800264 0.30900985 0.3870028 0.5808291
0.3737062 0.47399876 0.3469469 0.3793464 1.0754343 0.41246036 0.39719012 0.35920948
0.29737318 0.4010641 0.38523754 0.4689304 0.38462678 0.45850998 0.39168277 0.55361885
0.4068597 0.43442723 0.31324035 0.38040897 0.38160488 0.6223077 0.48077422 0.8792441
0.5847412 0.6239982 0.4300191 0.27695096 0.7081252 0.54862165 0.29470935 0.33449668
0.4864338 0.32863313 0.48595434 0.3962321 0.38164908 0.43128023 0.6015076 0.77549314
0.4924073 0.35633612 0.8391651 0.28677773 0.53914964 0.37939945 0.3728069 0.51079476
0.41616222 0.42706788 0.34558967 0.37946126 0.45603287 0.27867395 0.34405217 0.31647533
0.59141105 0.46670395 0.966721 0.45839986 0.45367202 0.38653412 0.30151346 0.41227907
0.33960527 0.716467 0.3894955 0.7844407 0.5972457 0.35382822 0.97261965 0.5104767
0.46389672 0.3326981 0.38114354 0.30183306 0.36357212 0.5702706 0.3554268 0.34743974
0.44491532 0.39257172 0.47440422 0.53519446 0.38987806 0.2913429 0.5164492 0.45817468
00000000: 6d3c 923e a437 503f fdf0 ee3e b00b 103f
00000010: 5182 b53e ad20 d63e f545 933e 6c84 d33e
00000020: 134b 7d3f adc0 f93e 53e5 093f e14e 103f
00000030: 62e4 b73e 297f cb3e 9db7 463f 3bad 223f
00000040: 9d61 123f 6e64 8d3e 196d 993e b462 173f
00000050: 9fd9 b53e f147 813e 646a 353f aa64 243f
00000060: a25e 043f 4e53 b33e d4a1 ea3e 3dce 033f
00000070: a596 003f bc02 8e3e cf06 b13e 4583 143f
00000080: 4d58 e93e e347 993e bf09 113f e2f7 cd3e
00000090: 9089 c13e 8a36 9e3e 3b25 c63e 37b1 143f
000000a0: 6b56 bf3e f7af f23e 06a3 b13e b139 c23e
000000b0: d5a7 893f 012e d33e 815c cb3e 4eea b73e
000000c0: 4c41 983e 4658 cd3e db3d c53e a517 f03e
000000d0: cded c43e d2c1 ea3e a58a c83e f7b9 0d3f
000000e0: ea4f d03e 3f6d de3e 0a61 a03e f7c4 c23e
000000f0: b761 c33e 8f4f 1f3f 0a28 f63e 2416 613f
00000100: 99b1 153f 59be 1f3f 772b dc3e 84cc 8d3e
00000110: b147 353f 7872 0c3f 25e4 963e 2643 ab3e
00000120: da0d f93e 9a42 a83e 02cf f83e efde ca3e
00000130: 8267 c33e c3d0 dc3e 67fc 193f b886 463f
00000140: cf1c fc3e b071 b63e 86d3 563f 88d4 923e
00000150: b605 0a3f a540 c23e 8ce0 be3e 72c3 023f
00000160: 3713 d53e a4a8 da3e 21f1 b03e bf48 c23e
00000170: 247d e93e 5aae 8e3e 9b27 b03e 0e09 a23e
00000180: b766 173f d2f3 ee3e 077b 773f 63b3 ea3e
00000190: b347 e83e cde7 c53e f95f 9a3e 3e16 d33e
000001a0: bee0 ad3e 626a 373f f46b c73e 1bd1 483f
000001b0: 18e5 183f f928 b53e 9afd 783f 9aae 023f
000001c0: df83 ed3e 6857 aa3e 3f25 c33e dd89 9a3e
000001d0: 2026 ba3e 41fd 113f 80fa b53e 9fe3 b13e
000001e0: f1cb e33e 29ff c83e 1ce5 f23e 8102 093f
000001f0: 199e c73e e62a 953e 0436 043f df95 ea3e

layer2.weight f4 [64, 128]
-0.05805032 0.043307096 -0.03979124 0.024710154 -0.12787919 -0.0743113 0.0427073 -0.023713678
0.06595293 -0.053194087 -0.050747648 0.036906715 0.1003105 -0.004781117 -0.047306407 -0.024093635
-0.023917584 0.092914686 0.055819817 -0.07348613 -0.07561767 -0.018180285 0.035119954 0.016243095
0.06669342 -0.03918587 -0.027581261 -0.08460759 0.0126905935 0.03624366 -0.02586842 -0.035138935
0.021212483 0.0812974 0.0048064436 -0.079894915 0.0519321 0.040436212 0.03928684 0.017671593
0.022690231 -0.033897437 0.018877 -0.00068957376 0.04810755 -0.080234915 0.056944225 0.11192751
0.050450496 0.08912906 -0.0676355 0.072675556 -0.08571476 0.011867614 0.038549803 -0.040229853
-0.096614845 -0.069549344 0.079100035 -0.02313551 0.032962542 -0.06363143 -0.0029884179 -0.047847793
0.043603454 0.041324887 0.020759637 0.0052572167 -0.04183205 -0.07701301 -0.07969131 -0.07412093
0.09585245 0.07340104 -0.07918748 -0.102712035 -0.06179475 -0.058686364 -0.05258345 -0.050503504
-0.054131508 -0.017616916 -0.06084376 0.08471 0.038323566 0.015794063 -0.039489884 0.01943122
0.026357496 0.055879034 0.021140775 -0.06811999 0.11143608 0.017764255 0.005726724 -0.05926661
-0.002842893 -0.083463594 0.05803468 -0.056835297 -0.030111609 0.025914203 0.10663967 -0.013302863
0.052682757 -0.032247882 -0.030112373 0.008676859 -0.08457904 -0.031239616 -0.034797728 -0.057940997
-0.078382365 0.020655692 -0.023592468 -0.0695394 0.01660342 -0.019671181 0.0013205936 0.06406119
-0.036149804 0.081175864 -0.029945971 -0.08375841 0.043745 -0.025824288 -0.044007026 0.017390575
-0.105775096 -0.10607966 0.029810198 0.044674158 0.006586954 0.038293295 -0.012066214 0.0049386797
0.061193306 -0.0823408 -0.020332744 -0.022332272 0.018036805 -0.03564326 -0.08436481 0.001468313
-0.08604743 -0.008657698 -0.031065239 0.08496781 0.012664565 0.0042795553 -0.02094654 -0.011338298
-0.040604327 0.022073604 -0.028789384 0.067308106 -0.0017410289 0.018172458 -0.06729199 -0.0065821153
0.031338774 0.03826315 0.008179596 0.018846298 -0.0065374593 -0.032830264 -0.047342755 0.047144808
0.09149519 0.06656496 -0.03143094 0.04969642 0.06347597 -0.061543435 0.04814429 -0.026626829
-0.016703274 -0.09262978 0.056990303 0.11268858 -0.01158142 0.006605836 0.063587 0.029393518
0.038388517 0.03980049 0.003503997 -0.07824018 -0.014860493 0.06488762 -0.05332987 0.0461283
0.06488927 0.022231763 -0.07363098 -0.0020213614 0.08145458 -0.049065977 -0.007972001 0.018822297
0.06716422 0.008841608 0.027316604 0.03435982 -0.028231246 -0.05326332 -0.01638436 -0.047313895
0.030444343 -0.016572323 -0.06144052 -0.032968316 -0.07747254 -0.04216495 0.008780553 -0.037896648
-0.0073218024 0.08444849 -0.1281536 -0.0910549 -0.060908325 0.047344577 -0.076692685 -0.008243957
-0.055659067 0.0010126357 -0.09023414 0.034652896 0.11373565 0.018798573 -0.05238322 0.030514799
0.037741262 -0.025182646 -0.018204715 0.065071516 -0.052549887 0.04165688 -0.057023954 0.01352035
-0.059178527 0.054201096 -0.0770928 0.051704798 -0.021069443 -0.0765925 -0.100691594 -0.09689976
-0.032273814 0.03770049 -0.025502663 0.06474359 -0.062097456 0.023302762 0.027045568 0.053369828
00000000: 2cc6 6dbd c862 313d 24fc 22bd f36c ca3c
00000010: c3f2 02be 8630 98bd daed 2e3d 3043 c2bc
00000020: 5412 873d 0be2 59bd c4dc 4fbd 7f2b 173d
00000030: 976f cd3d ebaa 9cbb 5dc4 41bd 0460 c5bc
00000040: cfee c3bc 0e4a be3d 52a3 643d e57f 96bd
00000050: 70dd 9abd d2ee 94bc f1d9 0f3d 3d10 853c
00000060: 8f96 883d 5d81 20bd 19f2 e1bc bf46 adbd
00000070: 35ec 4f3c 3b74 143d 02ea d3bc d8ed 0fbd
00000080: cdc5 ad3c 407f a63d 5f7f 9d3b f29f a3bd
00000090: c1b6 543d 71a0 253d 3deb 203d 04c4 903c
000000a0: dde0 b93c 0ad8 0abd f0a3 9a3c 83c4 34ba
000000b0: 6c0c 453d 3452 a4bd 593e 693d 403a e53d
000000c0: 2ea5 4e3d 4c89 b63d 7b84 8abd ecd6 943d
000000d0: 388b afbd 6270 423c 66e6 1d3d 0fc8 24bd
000000e0: 01de c5bd e36f 8ebd 33ff a13d ae86 bdbc
000000f0: bb03 073d 3251 82bd 55d9 43bb 0cfc 43bd
00000100: 8999 323d 4944 293d 1d10 aa3c bb44 ac3b
00000110: 1558 2bbd ffb8 9dbd 3335 a3bd b7cc 97bd
00000120: 4a4e c43d 4953 963d 0c2d a2bd b05a d2bd
00000130: 7e1c 7dbd 1d61 70bd be61 57bd c3dc 4ebd
00000140: 00b9 5dbd 5a51 90bc 4e37 79bd 707c ad3d
00000150: 2cf9 1c3d 8d62 813c 25c0 21bd 392e 9f3c
00000160: adeb d73c 6ae1 643d 6b2f ad3c 7e82 8bbd
00000170: 9938 e43d 5886 913c 3ea7 bb3b 8bc1 72bd
00000180: d44f 3abb f6ee aabd c6b5 6d3d 21cc 68bd
00000190: 9fac f6bc 064a d43c e665 da3d 40f4 59bc
000001a0: e0c9 573d 5b16 04bd 39ae f6bc 6229 0e3c
000001b0: c737 adbd 39ea ffbc 1088 0ebd 8a53 6dbd
000001c0: ef86 a0bd 2036 a93c fe44 c1bc ac6a 8ebd
000001d0: e503 883c 7525 a1bc c517 ad3a 8332 833d
000001e0: d111 14bd 883f a63d 4151 f5bc 8789 abbd
000001f0: f52d 333d 758d d3bc b640 34bd ae76 8e3c
00000200: 9da0 d8bd 4b40 d9bd 8434 f43c 40fc 363d
00000210: 60d7 d73b 6ed9 1c3d 5fb1 45bc a6d4 a13b
00000220: d5a5 7a3d 4ba2 a8bd db90 a6bc 2bf2 b6bc
00000230: ecc1 933c abfe 11bd 75c7 acbd 6974 c03a
00000240: a339 b0bd 04d9 0dbc 877c febc 9a03 ae3d
00000250: 097f 4f3c 833b 8c3b 1498 abbc 45c4 39bc
00000260: b950 26bd b4d3 b43c b7d7 ebbc d5d8 893d
00000270: 3c33 e4ba 68de 943c 62d0 89bd c9ae d7bb
00000280: 165d 003d d2b9 1c3d b603 063c 8d63 9a3c
00000290: 2f38 d6bb 0779 06bd 7aea 41bd ea1a 413d
000002a0: d561 bb3d 3653 883d bbbd 00bd 798e 4b3d
000002b0: b0ff 813d f814 7cbd f232 453d 8220 dabc
000002c0: 4ed5 88bc afb4 bdbd aa6e 693d 45c9 e63d
000002d0: ffbf 3dbc c575 d83b e739 823d adca f03c
000002e0: 473d 1d3d d705 233d 51a3 653b 633c a0bd
000002f0: 6d79 73bc cde3 843d 6c70 5abd 07f1 3c3d
00000300: aae4 843d 631f b63c d7cb 96bd d178 04bb
00000310: a9d1 a63d 68f9 48bd ff9c 02bc 3831 9a3c
00000320: 658d 893d 64dc 103c 12c7 df3c e2bc 0c3d
00000330: 3745 e7bc a42a 5abd 7e38 86bc 37cc 41bd
00000340: 6a66 f93c aec2 87bc 0ea9 7bbd c909 07bd
00000350: eca9 9ebd 28b5 2cbd 4fdc 0f3c 8439 1bbd
00000360: bbeb efbb 54f3 ac3d b33a 03be fe7a babd
00000370: 027b 79bd 63ec 413d 0e11 9dbd a911 07bc
00000380: c3fa 63bd 6aba 843a adcc b8bd 32f0 0d3d
00000390: 3dee e83d 77ff 993c ca8f 56bd 2cfa f93c
000003a0: 9596 1a3d d64b cebc 0e22 95bc 3744 853d
000003b0: 8d3e 57bd 68a0 2a3d f391 69bd 7584 5d3c
000003c0: 2f65 72bd f801 5e3d d4e2 9dbd 69c8 533d
000003d0: d399 acbc 87dc 9cbd 6537 cebd 6273 c6bd
000003e0: 8c31 04bd d46b 1a3d f6ea d0bc 4a98 843d
000003f0: e759 7ebd 6fe5 be3c ab8e dd3c 529a 5a3d

layer2.bias f4 [64]
1.3346638e-05 2.0215517e-05 1.1455813e-05 1.8796274e-05 2.131029e-05 7.4031436e-06 3.4031993e-06 2.050915e-06
-1.5444064e-05 -1.876175e-05 7.674596e-06 -1.9057895e-06 1.2385019e-06 1.584875e-05 -6.725129e-06 -3.257248e-05
8.587395e-06 2.585987e-05 6.911338e-05 1.552617e-05 -3.226701e-05 -8.71104e-06 3.5079767e-05 -4.5007238e-07
-5.896872e-06 7.232884e-07 -3.8631977e-05 9.000657e-06 6.742521e-07 -1.0549724e-06 -6.0370407e-06 1.1459416e-05
8.868999e-06 2.6165203e-06 3.5311273e-06 4.3345344e-06 -3.7251616e-06 5.7335265e-06 1.2448872e-06 1.5783769e-08
2.1535901e-05 -6.1360583e-07 1.251088e-05 1.3128842e-05 -7.6994627e-07 2.2946235e-05 7.2125346e-07 1.4189105e-05
-2.1641229e-06 1.8296401e-05 -3.3632998e-06 -9.189442e-06 4.151136e-06 -1.2482778e-05 -7.615258e-05 2.8553243e-06
6.4301e-06 -5.1351726e-06 -2.7877647e-06 2.4443094e-07 -1.0380031e-05 1.9655434e-05 3.483551e-06 -1.0376656e-05
00000000: 60eb 5f37 7e94 a937 5832 4037 b1ac 9d37
00000010: 80c3 b237 8568 f836 8562 6436 74a2 0936
00000020: e08d 81b7 8d62 9db7 24c2 0037 6eca ffb5
00000030: 9a3a a635 eef2 8437 6ba8 e1b6 6f9e 08b8
00000040: 9512 1037 a6ed d837 f7f0 9038 323e 8237
00000050: 7056 07b8 a225 12b7 9d22 1338 7aa1 f1b4
00000060: bfdd c5b6 0028 4235 c508 22b8 8701 1737
00000070: 40fe 3435 9398 8db5 c991 cab6 d141 4037
00000080: 10cc 1437 7a97 2f36 4ef8 6c36 5e71 9136
00000090: cafd 79b6 9e62 c036 0016 a735 e094 8732
000000a0: ffa7 b437 acb6 24b5 d2e5 5137 f243 5c37
000000b0: 4eae 4eb5 aa7c c037 299c 4135 be0d 6e37
000000c0: 593b 11b6 397b 9937 0db5 61b6 5a2c 1ab7
000000d0: fd49 8b36 206d 51b7 1bb4 9fb8 199e 3f36
000000e0: 23c2 d736 cc4e acb6 6f15 3bb6 553a 8334
000000f0: e525 2eb7 b9e1 a437 f3c6 6936 6617 2eb7

bn2.weight f4 [64]
0.9710269 1.0102594 0.992828 1.0043844 0.9917319 1.0155352 0.9858175 1.0048165
1.0357167 1.0101892 1.019847 0.9917293 0.9762341 0.99420655 0.98661196 1.011995
0.9734183 0.9714759 1.0112414 0.9896737 1.025813 0.96563196 0.9988124 1.0104839
0.9793312 0.97951984 1.0200729 1.0016911 1.0191908 1.0172527 0.99428487 1.009381
0.99564576 0.97671443 0.95930904 1.0112436 0.99760205 1.0289305 0.98172975 0.9716858
1.0177957 0.9616732 1.0023409 1.0031619 1.0253004 1.0189252 1.0191928 0.9785283
1.0036503 1.0023905 0.99721634 0.9694322 0.98681486 1.0489451 1.0017961 1.0019166
1.0008572 0.970007 0.96329767 1.0107658 0.99792004 1.0106511 0.98248595 0.98199224
00000000: 3895 783f 2e50 813f fa29 7e3f ab8f 803f
00000010: 24e2 7d3f 0ffd 813f 895e 7c3f d49d 803f
00000020: 5d92 843f e14d 813f 598a 823f f9e1 7d3f
00000030: 7aea 793f 5284 7e3f 9a92 7c3f 0d89 813f
00000040: f131 793f a5b2 783f 5c70 813f 415b 7d3f
00000050: d74d 833f a833 773f 2bb2 7f3f 8957 813f
00000060: 73b5 7a3f d0c1 7a3f c091 823f 6a37 803f
00000070: d874 823f 5635 823f 7489 7e3f 6633 813f
00000080: a4e2 7e3f f509 7a3f 4795 753f 6e70 813f
00000090: d962 7f3f ffb3 833f a452 7b3f 67c0 783f
000000a0: 2147 823f 3730 763f b54c 803f 9c67 803f
000000b0: 0b3d 833f 246c 823f e974 823f d580 7a3f
000000c0: 9d77 803f 554e 803f 9249 7f3f b52c 783f
000000d0: e69f 7c3f d543 863f db3a 803f ce3e 803f
000000e0: 171c 803f 6152 783f ad9a 763f c660 813f
000000f0: b077 7f3f 045d 813f 3384 7b3f d863 7b3f

bn2.bias f4 [64]
-0.0020639945 0.010392712 -0.037646715 0.0013089875 -0.019894078 0.009512218 -0.04119759 0.00026014584
0.025635324 0.021110909 0.012071465 -0.02488422 -0.0050678537 -0.00590432 0.013571964 -0.0009012703
-0.018503722 -0.025992844 0.008078026 -0.017011035 -0.0066046477 0.014895518 0.011349097 0.008330533
-0.038657103 0.0035763842 -0.011442302 -0.009791803 -0.015405601 -0.01467006 -0.02508313 0.019526659
-0.010879206 -0.02169174 0.008599634 0.036342416 -0.018131074 -0.014893869 -0.026109511 -0.0400388
-0.015041296 -0.016292267 -0.005448271 0.0009911502 0.034204695 0.025951935 0.021700129 -0.014540926
0.01750561 -0.0012241832 -0.017182633 -0.021430349 -0.011939538 0.0050419653 0.0014695317 0.016927702
-0.02075703 -0.029131018 -0.016995048 0.035437886 -0.020936115 -0.001817288 -0.0049456884 -0.0041982406
00000000: 1544 07bb 3246 2a3c 7133 1abd 5592 ab3a
00000010: e8f8 a2bc 22d9 1b3c cebe 28bd 2f64 8839
00000020: 2c01 d23c c9f0 ac3c 65c7 453c fed9 cbbc
00000030: 3d10 a6bb 0779 c1bb f15c 5e3c 3a43 6cba
00000040: 1e95 97bc f2ee d4bc b259 043c ba5a 8bbc
00000050: cd6b d8bb 550c 743c 90f1 393c ca7c 083c
00000060: e956 1ebd c561 6a3b 7e78 3bbc cc6d 20bc
00000070: c667 7cbc b15a 70bc 237b cdbc 5ff6 9f3c
00000080: b23e 32bc e0b2 b1bc 7be5 0c3c c9db 143d
00000090: 9e87 94bc 6a05 74bc 9de3 d5bc baff 23bd
000000a0: c56f 76bc 5c77 85bc 6987 b2bb 7be9 813a
000000b0: 391a 0c3d 2799 d43c 78c4 b13c 103d 6ebc
000000c0: ed67 8f3c c674 a0ba 98c2 8cbc b38e afbc
000000d0: 0d9e 43bc 1237 a53b 4d9d c03a f7ab 8a3c
000000e0: a60a aabc 2ca4 eebc 3339 8bbc 5127 113d
000000f0: 3782 abbc 1132 eeba 710f a2bb 6591 89bb

bn2.running_mean f4 [64]
-0.2723217 -0.20678534 0.31819743 -0.15768084 0.19906831 -0.21317418 0.3661475 0.45030516
-0.13981298 0.25751245 0.035888877 0.0047529615 -0.11705897 -0.12225449 -0.06890686 -0.39926347
0.23306447 -0.35904506 -0.33150017 0.22012617 -0.32388294 -0.08954399 0.123125575 0.1281925
0.16329274 0.3505741 -0.09549912 0.16864905 0.5547456 0.5304225 -0.06560024 -0.37361035
0.095559984 -0.032035537 -0.07580891 0.2222062 -0.35265958 -0.151556 0.102730304 0.006247777
-0.023768421 -0.3605369 -0.14706196 -0.5141785 0.036982097 0.25110197 -0.16661362 -0.4362121
0.2217499 -0.17168407 -0.40192053 0.0036839044 -0.10954311 0.16531935 -0.13128442 -0.06918656
-0.17101586 0.015010221 0.27387977 0.13241711 0.009509185 -0.2739523 0.095843695 -0.019814447
00000000: c06d 8bbe 89bf 53be c6ea a23e 1677 21be
00000010: 90d8 4b3e 554a 5abe af77 bb3e 668e e63e
00000020: 222b 0fbe acd8 833e 3700 133d bbbe 9b3b
00000030: 9dbc efbd 9060 fabd 0a1f 8dbd 436c ccbe
00000040: 74a8 6e3e c1d4 b7be 64ba a9be c168 613e
00000050: fcd3 a5be d762 b7bd 4329 fc3d e544 033e
00000060: 3636 273e 737e b33e 0b95 c3bd 56b2 2c3e
00000070: cf03 0e3f c5c9 073f 6b59 86bd db49 bfbe
00000080: f4b4 c33d b237 03bd b441 9bbd 068a 633e
00000090: cc8f b4be 7f31 1bbe 4464 d23d 27ba cc3b
000000a0: feb5 c2bc 4b98 b8be 6997 16be 34a1 03bf
000000b0: 8a7a 173d 7090 803e c39c 2abe 3157 dfbe
000000c0: 6812 633e f3cd 2fbe 87c8 cdbe a96d 713b
000000d0: 2358 e0bd 7a49 293e 6c6f 06be afb1 8dbd
000000e0: c81e 2fbe 6eed 753c f839 8c3e 5a98 073e
000000f0: 6acc 1b3c 7a43 8cbe b349 c43d e851 a2bc

bn2.running_var f4 [64]
0.28938335 0.37195906 0.28897622 0.30887228 0.2790178 0.3576688 0.29622385 0.2413282
0.4482574 0.30966496 0.22152364 0.6654179 0.2689926 0.2641403 0.28992864 0.3313364
0.29058108 0.38555428 0.3680497 0.25169894 0.33746347 0.25507653 0.28641108 0.34740916
0.21120831 0.23323633 0.38049656 0.17973374 0.25749284 0.3273403 0.22189413 0.37051716
0.21575807 0.32658264 0.21195948 0.23216252 0.2836346 0.35314423 0.23786952 0.26879388
0.46678764 0.3195751 0.3969887 0.4479299 0.2812155 0.34935772 0.34868574 0.34463096
0.32423824 0.24341942 0.34909928 0.19128461 0.27684602 0.39243755 0.28437108 0.2568468
0.24181756 0.19243415 0.3082676 0.35128754 0.25305894 0.36799195 0.33448145 0.3238975
00000000: 0e2a 943e 6b71 be3e b1f4 933e 8224 9e3e
00000010: 6cdb 8e3e 5d20 b73e a7aa 973e bd1e 773e
00000020: fe81 e53e 688c 9e3e 18d7 623e d458 2a3f
00000030: 66b9 893e 663d 873e 8771 943e eda4 a93e
00000040: 0bc7 943e 5f67 c53e 0371 bc3e afde 803e
00000050: 03c8 ac3e 6499 823e 79a4 923e 9ddf b13e
00000060: fe46 583e 81d5 6e3e 72d0 c23e 1f0c 383e
00000070: 1ad6 833e 2699 a73e 3738 633e 6db4 bd3e
00000080: afef 5c3e d735 a73e e80b 593e 03bc 6d3e
00000090: 8e38 913e 52cf b43e 1194 733e 5a9f 893e
000000a0: cafe ee3e 599f a33e 1a42 cb3e 1157 e53e
000000b0: 7afb 8f3e 04df b23e f086 b23e 7873 b03e
000000c0: 8e02 a63e f142 793e 24bd b23e 1de0 433e
000000d0: c3be 8d3e 93ed c83e 1699 913e 6c81 833e
000000e0: 069f 773e 750d 453e 40d5 9d3e f6db b33e
000000f0: f190 813e 7169 bc3e 2741 ab3e e5d5 a53e

layer3.weight f4 [32, 64]
0.08868016 0.13072284 0.05254824 -0.050009463 0.015776657 -0.082583085 0.09169213 -0.03325179
0.04952147 -0.027754884 0.06143639 -0.07262124 0.058471892 -0.033152092 -0.12765291 -0.025763232
0.032048747 -0.024731323 0.09861211 0.0032732685 -0.007309734 -0.02037034 0.018308094 -0.043459255
-0.009711501 -0.07646831 -0.008156743 -0.07158072 0.02309774 -0.067487 -0.03128944 0.014550927
0.004832034 -0.06894264 -0.09239167 -0.049325682 0.1282301 -0.034692958 -0.10265842 -0.027644433
-0.085842 0.09417709 -0.061151307 -0.04635914 0.08599322 0.058069676 0.0941456 0.022494964
-0.07425009 -0.050443184 -0.0407763 -0.011268295 0.11388286 -0.088708214 -0.053136285 -0.052888893
0.033478897 -0.0003567034 0.0038271558 -0.11900142 -0.057911597 0.038681775 -0.037614334 -0.10012917
-0.10960301 -0.08373409 0.13685697 0.025365025 0.1032004 -0.08300547 0.016404735 0.0055367397
-0.073170885 0.031888165 0.094665706 -0.06698096 -0.0078092483 0.0932088 -0.031426825 -0.10769042
0.094801016 0.06763917 -0.08976932 -0.043031674 -0.08434161 0.008499384 -0.021357588 0.1238787
0.027393643 -0.00746191 0.053818546 -0.14544632 0.05701252 -0.027028216 -0.033219296 0.10912416
0.07727856 -0.09887224 -0.027950501 0.11710063 0.12013849 -0.026425058 0.078340195 0.058225665
-0.013369596 0.03098764 0.034784686 0.053560182 0.024823956 -0.095293224 -0.025215171 0.10747479
0.10739233 -0.038594555 -0.1366329 -0.061945718 0.0089737475 -0.12578663 0.09285701 0.062891334
0.10130662 0.07025588 -0.11964903 0.0381628 -0.11540606 0.11064166 -0.021930685 0.09055855
-0.047950238 -0.05081302 -0.07025614 0.0740825 -0.13545564 0.026983267 -0.09359488 0.10250973
0.09427428 -0.046386003 -0.07737599 0.06360529 0.12097416 -0.016635984 0.04017704 -0.10078842
0.12560351 -0.11030773 -0.056099713 -0.1259838 -0.110307105 -0.092717715 -0.05103071 0.08559957
0.09280783 0.07731324 -0.077239856 0.015523818 -0.04116058 -0.04468007 -0.059184663 -0.09865372
0.13119201 0.04581146 -0.025925033 -0.052817486 0.0021598262 -0.06600739 0.02479164 0.07387769
0.11565435 -0.10990195 -0.08686926 -0.08906457 0.0028266085 0.013914626 -0.023806749 0.1230495
0.10215218 0.0044661225 -0.046053197 0.0642757 0.030174771 -0.10351351 0.096597806 -0.049343124
0.07788227 0.0927643 -0.0015804159 0.013924122 0.037952147 -0.06677998 0.009197707 0.11274415
0.011016222 0.09417066 0.021601632 -0.13132983 -0.14051962 -0.08051814 0.054227233 -0.031871054
0.12212627 0.0073124124 -0.04819892 0.116455734 0.02203452 -0.023476908 -0.10365724 -0.0930318
-0.08928912 -0.035809085 0.024617124 0.05414917 0.019835904 0.059678786 0.030258104 0.025549766
-0.023145968 0.12161638 -0.044808157 0.04065492 -0.030891202 0.046547618 -0.029613513 -0.05995382
0.053845286 0.11056327 -0.12982711 0.05646946 -0.020737786 0.13685358 -0.139687 -0.086023435
0.10610403 -0.013547884 0.07158946 -0.018685548 0.07337608 0.04087337 -0.008974738 0.034127887
-0.11542677 -0.02457327 -0.088362105 0.06592651 0.07860893 0.022655109 0.12150365 -0.001427549
-0.064110085 -0.02243078 -0.11694111 0.086372435 0.049895175 -0.023489239 0.029506838 -0.061110593
00000000: f29d b53d 35dc 053e d33c 573d b9d6 4cbd
00000010: 0c3e 813c 5221 a9bd 15c9 bb3d 0733 08bd
00000020: 06d7 4a3d 365e e3bc b9a4 7b3d 72ba 94bd
00000030: 3980 6f3d 7dca 07bd 72b7 02be 6a0d d3bc
00000040: 8c45 033d 5899 cabc 25f5 c93d 5584 563b
00000050: 7e86 efbb b3df a6bc dbfa 953c 5502 32bd
00000060: fd1c 1fbc 6b9b 9cbd dca3 05bc ea98 92bd
00000070: 7937 bd3c a036 8abd 5b29 00bd 0367 6e3c
00000080: 0a56 9e3b cd31 8dbd d837 bdbd ba09 4abd
00000090: c04e 033e 341a 0ebd 943e d2bd 9476 e2bc
000000a0: eecd afbd ebdf c03d cb79 7abd 15e3 3dbd
000000b0: 371d b03d 78da 6d3d 69cf c03d 5c47 b83c
000000c0: 6e10 98bd 839d 4ebd 0d05 27bd a89e 38bc
000000d0: 6b3b e93d a7ac b5bd 6fa5 59bd 06a2 58bd
000000e0: 2b21 093d eb03 bbb9 05d1 7a3b 04b7 f3bd
000000f0: b634 6dbd c870 1e3d 7d11 1abd 8610 cdbd
00000100: 8b77 e0bd c77c abbd 3c24 0c3e 50ca cf3c
00000110: bb5a d33d c6fe a9bd 3963 863c 8a6d b53b
00000120: 9eda 95bd 2a9d 023d 18e0 c13d 502d 89bd
00000130: b9e4 ffbb 41e4 be3d 6ab9 00bd cb8c dcbd
00000140: 0927 c23d 6886 8a3d fad8 b7bd fb41 30bd
00000150: 4bbb acbd 0041 0b3c 1cf6 aebc 1eb4 fd3d
00000160: a268 e03c 0a83 f4bb d670 5c3d e1ef 14be
00000170: f685 693d 476a ddbc f510 08bd 7d7c df3d
00000180: 3944 9e3d 877d cabd 73f8 e4bc 75d2 ef3d
00000190: 2b0b f63d 5d79 d8bc d370 a03d 097e 6e3d
000001a0: 260c 5bbc cbd9 fd3c 637a 0e3d ec61 5b3d
000001b0: 9c5b cb3c 1829 c3bd 0c90 cebc be1b dc3d
000001c0: 83f0 db3d 5315 1ebd 7fe9 0bbe cbba 7dbd
000001d0: a006 133c 36ce 00be d12b be3d 2ccd 803d
000001e0: d879 cf3d 51e2 8f3d 8d0a f5bd 9950 1c3d
000001f0: 035a ecbd 1898 e23d fba7 b3bc c376 b93d
00000200: 7867 44bd 5021 50bd 73e2 8fbd 91b8 973d
00000210: e2b4 0abe 030c dd3c acae bfbd 9ff0 d13d
00000220: e012 c13d 40ff 3dbd 4e77 9ebd 7e43 823d
00000230: 4dc1 f73d 3048 88bc ae90 243d 296a cebd
00000240: 359e 003e 05e9 e1bd d0c8 65bd e601 01be
00000250: b1e8 e1bd c9e2 bdbd 9405 51bd d44e af3d
00000260: 0812 be3d 6756 9e3d ee2f 9ebd 9d57 7e3c
00000270: ff97 28bd 7302 37bd 9e6b 72bd f60a cabd
00000280: 3357 063e cca4 3b3d bc60 d4bc 2657 58bd
00000290: df8b 0d3b e22e 87bd d617 cb3c 304d 973d
000002a0: 30dc ec3d 4614 e1bd 83e8 b1bd 7c67 b6bd
000002b0: 9f3e 393b 2cfa 633c 5f06 c3bc 6001 fc3d
000002c0: 2a35 d13d 8d58 923b 47a2 3cbd faa2 833d
000002d0: 1531 f73c e4fe d3bd 12d5 c53d 041c 4abd
000002e0: bd80 9f3d 36fb bd3d f525 cfba 0022 643c
000002f0: b673 1b3d f1c3 88bd fbb1 163c 68e6 e63d
00000300: 627d 343c 8cdc c03d e8f5 b03c 547b 06be
00000310: 60e4 0fbe b2e6 a4bd 601d 5e3d 398b 02bd
00000320: 561d fa3d f69c ef3b 3b6c 45bd 5880 ee3d
00000330: bd81 b43c a552 c0bc 3f4a d4bd 7587 bebd
00000340: 37dd b6bd 8cac 12bd daa9 c93c 85cb 5d3d
00000350: e87e a23c be71 743d d8df f73c be4d d13c
00000360: 9d9c bdbc 0212 f93d c288 37bd c685 263d
00000370: 8c0f fdbc b7a8 3e3d 0a98 f2bc 2392 75bd
00000380: e08c 5c3d ff6e e23d 66f1 04be 854c 673d
00000390: 4ae2 a9bc 5823 0c3e 1c0a 0fbe 0e2d b0bd
000003a0: 124d d93d f2f7 5dbc 7f9d 923d 6f12 99bc
000003b0: 3346 963d d66a 273d c80a 13bc afc9 0b3d
000003c0: df64 ecbd e24d c9bc 31f7 b4bd 7a04 873d
000003d0: b8fd a03d 3597 b93c e8d6 f83d 991c bbba
000003e0: 264c 83bd c1c0 b7bc d27e efbd 08e4 b03d
000003f0: e25e 4c3d 816c c0bc 53b8 f13c 1a4f 7abd

layer3.bias f4 [32]
4.807281e-06 -1.2004058e-05 -1.8087559e-06 1.8140476e-05 2.5209997e-06 -2.2290292e-06 -3.365824e-06 1.3266441e-05
1.54438e-05 -1.4504911e-05 1.1740811e-06 1.0430957e-06 4.7744743e-06 -1.8790566e-06 -1.0061255e-05 -1.4061609e-05
-9.402064e-06 1.1587779e-05 6.6983152e-06 -1.0888294e-07 2.7354777e-06 -1.2343933e-05 -1.5519268e-05 2.411344e-06
3.3666394e-05 1.2046803e-05 1.0095583e-05 -2.585282e-07 9.752513e-06 2.4155406e-07 -1.2443012e-06 2.96832e-06
00000000: 3b4e a136 0965 49b7 61c4 f2b5 602c 9837
00000010: 722e 2936 6e96 15b6 6be0 61b6 ee92 5e37
00000020: 4f8d 8137 1e5a 73b7 1f95 9d35 7f00 8c35
00000030: 6c34 a036 e533 fcb5 c3cc 28b7 27ea 6bb7
00000040: 8fbd 1db7 2269 4237 17c2 e036 08d3 e9b3
00000050: 2693 3736 ca18 4fb7 602f 82b7 93d2 2136
00000060: 0435 0d38 a01c 4a37 3360 2937 d8cb 8ab4
00000070: b99e 2337 f0ae 8134 dd01 a7b5 5933 4736

bn3.weight f4 [32]
1.0819328 1.1005298 0.96639735 1.0951211 0.94770795 0.9375851 0.9595125 0.9476003
1.0993868 1.0986135 1.0842375 0.96247417 1.08797 0.9609789 0.97322226 0.9594826
1.0761025 1.0937163 0.91392 0.9548356 1.0637841 1.0926267 1.0848918 0.9536565
0.9430898 1.0871652 0.963355 0.938777 0.9674059 1.1070971 0.9434645 1.1031959
00000000: c67c 8a3f 29de 8c3f d165 773f ee2c 8c3f
00000010: fd9c 723f 9405 703f 9ca2 753f ef95 723f
00000020: b5b8 8c3f 5e9f 8c3f 4bc8 8a3f b564 763f
00000030: 9a42 8b3f b702 763f 1825 793f a7a0 753f
00000040: babd 893f e5fe 8b3f a9f6 693f 1b70 743f
00000050: 142a 883f 31db 8b3f bcdd 8a3f d522 743f
00000060: 556e 713f 3b28 8b3f 6f9e 763f b153 703f
00000070: eaa7 773f 5cb5 8d3f e486 713f 8635 8d3f

bn3.bias f4 [32]
0.09716486 0.13492602 -0.03776434 0.114200436 -0.047274016 -0.057064798 -0.053813506 -0.06081831
0.11720015 0.11949997 0.112697214 -0.029329043 0.108727075 -0.041617017 -0.036404315 -0.056096062
0.08784535 0.12109371 -0.08033778 -0.049002465 0.08061295 0.094986275 0.0873997 -0.048206445
-0.0648741 0.10573127 -0.038890008 -0.054931186 -0.04298929 0.1078894 -0.053492982 0.09787109
00000000: 5ffe c63d 0c2a 0a3e c8ae 1abd ebe1 e93d
00000010: 66a2 41bd c7bc 69bd 8d6b 5cbd 9f1c 79bd
00000020: a206 f03d 66bc f43d cccd e63d 7643 f0bc
00000030: 4dac de3d 9b76 2abd b11c 15bd fcc4 65bd
00000040: 43e8 b33d fbff f73d 2288 a4bd cfb6 48bd
00000050: 6718 a53d 2a88 c23d 9dfe b23d 1f74 45bd
00000060: b6dc 84bd a389 d83d 214b 1fbd 86ff 60bd
00000070: 8a15 30bd 1ef5 dc3d 751b 5bbd a370 c83d

bn3.running_mean f4 [32]
-0.26122963 0.18529926 -0.07814692 0.071179174 -0.07275375 -0.17770927 0.1693191 -0.1385075
-0.25397703 -0.34648818 0.2290788 -0.09494732 -0.114147946 0.06203931 -0.0976392 -0.20662726
0.3180722 -0.2771904 -0.18991144 -0.08016966 0.5314605 0.14609854 0.22528024 0.072386265
-0.1680146 -0.39643776 0.23266873 -0.060924884 -0.06883272 -0.21288538 0.12308381 0.18773837
00000000: e4bf 85be 17bf 3d3e 7e0b a0bd 63c6 913d
00000010: ebff 94bd 6bf9 35be fc61 2d3e e9d4 0dbe
00000020: 4709 82be e666 b1be a293 6a3e be73 c2bd
00000030: 66c6 e9bd ee1c 7e3d 10f7 c7bd 1996 53be
00000040: 5cda a23e e6eb 8dbe 2578 42be fe2f a4bd
00000050: cc0d 083f db9a 153e ddaf 663e 403f 943d
00000060: 050c 2cbe e4f9 cabe b640 6e3e 5f8c 79bd
00000070: 2bf8 8cbd a0fe 59be 5d13 fc3d 7d3e 403e

bn3.running_var f4 [32]
0.21084374 0.38080359 0.24715671 0.22045797 0.19423684 0.3108652 0.26447502 0.19143304
0.4307863 0.65812135 0.1901866 0.21036887 0.45703074 0.37626854 0.3193861 0.3070071
0.41226262 0.47131413 0.2051564 0.3571557 0.2208732 0.2785848 0.306625 0.28381452
0.23305532 0.36137226 0.29678336 0.1508046 0.37955627 0.39173782 0.17901099 0.41502088
00000000: 6ce7 573e b0f8 c23e a616 7d3e bcbf 613e
00000010: 06e6 463e b929 9f3e 4569 873e 0607 443e
00000020: 0690 dc3e a47a 283f 47c0 423e f06a 573e
00000030: efff e93e 45a6 c03e 9386 a33e 0930 9d3e
00000040: 1614 d33e 1650 f13e 8514 523e 1ddd b63e
00000050: 962c 623e aba2 8e3e f4fd 9c3e 2350 913e
00000060: 0ea6 6e3e c905 b93e fdf3 973e 856c 1a3e
00000070: 3355 c23e dc91 c83e a84e 373e 9e7d d43e

output.weight f4 [1, 32]
0.17853941 0.14468867 0.018533675 0.07603755 -0.005689878 -0.10146533 -0.105501726 -0.06645224
0.12786406 0.16645616 0.07022569 0.01437453 0.24759851 -0.0207225 -0.07476402 -0.11497959
0.12119685 0.2534456 -0.06633301 -0.055149827 0.07362803 0.16681725 0.18914801 -0.019778172
-0.08528921 0.15471156 -0.05940887 0.0005618916 -0.08169408 0.1999796 -0.010363286 0.20867136
00000000: 09d3 363e 4429 143e efd3 973c 93b9 9b3d
00000010: 2872 babb 0ecd cfbd 4a11 d8bd 1d18 88bd
00000020: ccee 023e 7c73 2a3e 7dd2 8f3d 2683 6b3c
00000030: 778a 7d3e 3bc2 a9bc e11d 99bd 6b7a ebbd
00000040: 0e36 f83d 9fc3 813e 9ad9 87bd c9e4 61bd
00000050: 4bca 963d 24d2 2a3e 04b0 413e d505 a2bc
00000060: 1cac aebd b56c 1e3e b756 73bd e84b 133a
00000070: 3a4f a7bd 74c7 4c3e c6ca 29bc f2ad 553e
