backend/data/best_model.pth (torch, 332843 bytes, 25 tensors)

layer1.weight f4 [256, 139]
-0.10585242 -0.06469826 -0.026017398 -0.04265565 -0.11789968 -0.2627144 0.1454102 -0.05827923
-0.14621565 0.014066758 -0.043135125 -0.00915847 -0.022051297 -0.010139201 -0.0032421874 0.15094902
-0.017568288 -0.047072604 -0.26721793 -0.04798272 -0.0749771 0.031353157 -0.03177021 0.014667633
0.09249873 0.10567945 -0.018163906 -0.0045566764 -0.022480626 0.024345908 -0.057915315 0.04104813
0.0041822973 0.017588794 0.028771088 -0.05984597 -0.03824666 -0.015881483 0.051688094 0.038930684
0.10598684 0.07401088 0.037752036 0.04909616 0.023632595 0.029122904 -0.08542095 0.16159299
-0.1556445 0.09345727 0.07147577 0.11948725 0.15903613 0.0012790844 -0.084449336 0.07854306
8.894466e-39 0.17979373 -0.026698397 0.03347162 -0.043461706 -0.22041924 0.031158978 0.09385383
-0.26843506 -0.13987687 0.009987841 0.030512588 -0.00430646 -0.14240646 -0.03828495 -0.030334651
-0.12868595 0.015758518 0.11416282 0.03054597 -0.00015862838 -0.060956724 -0.00487515 -0.026310913
0.04218795 0.10383206 -0.082341425 -0.09191363 0.08134817 -0.05235431 -0.054873154 -0.1539806
0.007981273 -0.077648796 -0.07055442 -0.120191135 0.123240344 0.11103276 -0.07570524 -0.08213887
0.027613133 -0.035200533 0.09498283 0.08679825 -0.017337305 -0.0375348 -0.016585112 -0.11625462
0.06636478 0.014505115 -0.04047488 0.10774942 0.033129 -0.013078122 -0.1349759 -0.12442451
0.12890683 -0.19827718 0.004735952 0.12878223 -0.07342087 0.032650124 0.18678309 -0.06518773
-0.033429213 0.12888528 1.008209e-38 0.057894222 -0.053828888 0.08237776 -0.021566706 0.034672957
0.047875255 0.068647556 -0.05331354 0.09884609 -0.013217638 -0.14104702 -0.029795539 0.1401388
0.038644258 -0.11038099 0.09145238 0.13258067 -0.06076329 0.14275001 -0.2481683 -0.029187245
-0.123606324 0.015243797 0.08803984 0.0049604997 -0.14404753 -0.0042740447 -0.0016938782 0.07044906
0.026951466 0.029851044 0.069246806 -0.039678853 -0.11922877 0.027754439 -0.0058941795 -0.16216955
0.13608746 0.07237547 -0.018546205 0.062713005 -0.038406204 -0.009848046 -0.08234359 -0.14749363
0.11140409 -0.05877526 -0.0061305175 -0.0034019025 0.12040832 0.1420314 -0.004517039 0.028384605
0.006685074 -0.082357235 0.0035219057 0.039930917 0.017774045 0.02503295 -0.053367108 -0.05352501
0.07120678 -0.010817836 0.112242274 0.037271507 0.05326762 0.013499712 0.013331183 0.17632568
0.046113137 -0.031782635 -0.016750617 6.256716e-39 0.0618068 0.06718223 0.018805454 0.01570779
-0.10836339 -0.15188801 -0.078178115 0.13385646 -0.21575639 0.018766506 -0.110776864 -0.043933943
0.030784087 0.03731465 -0.117555134 -0.17198214 0.01909375 0.027027987 0.046602584 0.09024803
-0.016276833 -0.13039058 -0.1262505 0.0702663 -0.07559019 0.018010227 0.12042675 0.07222439
-0.027992217 -0.0014206326 -0.04871107 -0.02457823 -0.09900613 -0.048801653 -0.16475639 0.10292028
0.15980406 -0.08377724 -0.1430208 0.06502963 0.0530913 -0.0054447553 0.026146501 -0.08490412
0.010959797 -0.044648204 -0.25574782 -0.014441587 -0.026877983 0.04188862 0.16129239 0.0670513
-0.043328643 -0.048182726 0.06671422 -0.04593532 -0.18365063 -0.013560271 -0.045679506 0.093359806
00000000: 27c9 d8bd 8580 84bd 7022 d5bc b1b7 2ebd
00000010: 6375 f1bd 8082 86be 69e6 143e 34b6 6ebd
00000020: 8eb9 15be 4278 663c 75ae 30bd 680d 16bc
00000030: eca4 b4bc e41e 26bc e17a 54bb 6192 1a3e
00000040: 5feb 8fbc 34cf 40bd cad0 88be 8789 44bd
00000050: 988d 99bd 2b6c 003d 7b21 02bd 8350 703c
00000060: f96f bd3d 786e d83d 79cc 94bc 2c50 95bb
00000070: 4a29 b8bc 1271 c73c 9c38 6dbd 1522 283d
00000080: a70b 893b 6016 903c 58b1 eb3c 0c21 75bd
00000090: 88a8 1cbd e219 82bc e5b6 533d c875 1f3d
000000a0: a10f d93d 0493 973d e1a1 1a3d 0e19 493d
000000b0: 2599 c13c 2893 ee3c 2ef1 aebd a278 253e
000000c0: 4661 1fbe 8666 bf3d e361 923d bbb5 f43d
000000d0: 5eda 223e f3a6 a73a c6f3 acbd 2fdb a03d
000000e0: 27da 6000 d91b 383e 99b6 dabc 8a19 093d
000000f0: e704 32bd 95b5 61be 1d41 ff3c 7036 c03d
00000100: 5270 89be e23b 0fbe 0ba4 233c 89f5 f93c
00000110: 341d 8dbb 00d3 11be aed0 1cbd 6080 f8bc
00000120: 40c6 03be 0218 813c 32ce e93d 8b3b fa3c
00000130: 7b55 26b9 c2ad 79bd b9bf 9fbb fc89 d7bc
00000140: 46cd 2c3d e7a5 d43d 9fa2 a8bd 373d bcbd
00000150: df99 a63d 7971 56bd acc2 60bd 17ad 1dbe
00000160: e3c3 023c 5506 9fbd d67e 90bd c526 f6bd
00000170: 6f65 fc3d 2565 e33d 590b 9bbd 6d38 a8bd
00000180: f034 e23c 6f2e 10bd 5c86 c23d 48c3 b13d
00000190: f706 8ebc 17be 19bd 80dd 87bc e716 eebd
000001a0: 42ea 873d dda6 6d3c fdc8 25bd baab dc3d
000001b0: 46b2 073d 9f45 56bc 1f37 0abe 47d2 febd
000001c0: 2700 043e 2c09 4bbe 0b30 9b3b 7ddf 033e
000001d0: ae5d 96bd 23bc 053d 1144 3f3e 2581 85bd
000001e0: 12ed 08bd 81fa 033e c4c8 6d00 7e22 6d3d
000001f0: ae7b 5cbd acb5 a83d a9ac b0bc 3b05 0e3d
00000200: d818 443d 1797 8c3d 4c5f 5abd d26f ca3d
00000210: cb8e 58bc a16e 10be c615 f4bc 8c80 0f3e
00000220: 7149 1e3d 6e0f e2bd 634b bb3d 3ac3 073e
00000230: ede2 78bd 0f2d 123e d51f 7ebe 171a efbc
00000240: 5025 fdbd 1ec1 793c 3b4e b43d b08b a23b
00000250: 3281 13be 490d 8cbb 1f05 deba 9947 903d
00000260: 52c9 dc3c 2d8a f43c 45d1 8d3d 4b86 22bd
00000270: 372e f4bd 475d e33c f623 c1bb c60f 26be
00000280: 835a 0b3e 9739 943d 36ee 97bc ad6f 803d
00000290: d34f 1dbd b359 21bc c2a3 a8bd 9208 17be
000002a0: d427 e43d 54be 70bd 82e2 c8bb 74f2 5ebb
000002b0: a398 f63d ae70 113e ab03 94bb d586 e83c
000002c0: 770e db3b e9aa a8bd c6cf 663b 9a8e 233d
000002d0: e09a 913c e711 cd3c 7897 5abd 0a3d 5bbd
000002e0: dcd4 913d 4b3d 31bc 47df e53d 02aa 183d
000002f0: 262f 5a3d e52d 5d3c 096b 5a3c b88e 343e
00000300: 21e1 3c3d 822e 02bd 9738 89bc 2e21 4400
00000310: 2129 7d3d d696 893d e50d 9a3c a0ad 803c
00000320: a0ed ddbd 8888 1bbe d91b a0bd ab11 093e
00000330: 3eef 5cbe 37bc 993c fbde e2bd 14f4 33bd
00000340: e92e fc3c 3fd7 183d bfc0 f0bd 161c 30be
00000350: 7f6a 9c3c cc69 dd3c 5ae2 3e3d f6d3 b83d
00000360: fe56 85bc 1c85 05be d047 01be c7e7 8f3d
00000370: 08cf 9abd 2f8a 933c 4da2 f63d 62ea 933d
00000380: ef4f e5bc 8534 baba 4285 47bd 4958 c9bc
00000390: bac3 cabd 3ee4 47bd e6b5 28be dec7 d23d
000003a0: ada3 233e 6793 abbd 0b74 12be 412e 853d
000003b0: 4376 593d eb69 b2bb 3031 d63c 36e2 adbd
000003c0: b890 333c 09e1 36bd 61f1 82be 689c 6cbc
000003d0: 372f dcbc 6793 2b3d d529 253e 3152 893d
000003e0: 6079 31bd 405b 45bd 77a1 883d ad26 3cbd
000003f0: e90e 3cbe e62b 5ebc 6f1a 3bbd 6d33 bf3d

layer1.bias f4 [256]
6.753135e-09 6.5109454e-08 4.0976044e-08 -1.8282329e-08 -4.950949e-08 -1.7475353e-08 5.886181e-09 4.6308465e-08
4.245877e-08 -2.8044195e-08 3.0210646e-08 2.9012106e-08 8.207367e-09 -2.6723956e-08 -3.576117e-08 6.046912e-08
-3.301152e-08 8.10615e-09 4.8498475e-08 -9.1375384e-08 -3.029528e-08 1.5317171e-10 -8.7741485e-09 4.0999087e-08
-3.280484e-08 9.128337e-09 -5.122991e-08 1.7387151e-08 2.1843519e-08 3.4642913e-08 1.3374334e-08 -1.7130564e-08
-1.6743204e-08 -6.711594e-09 1.0072136e-09 -1.8004833e-08 2.1118133e-08 1.4625859e-08 -9.671417e-09 3.6361893e-08
1.7614736e-08 -2.3018076e-08 -8.304284e-09 2.6002501e-08 -9.137199e-09 2.004707e-08 -4.05382e-08 6.4300316e-08
-2.5806045e-08 6.801905e-08 -4.2183032e-08 -1.7604384e-08 -1.9546582e-09 -4.9142688e-08 3.6371613e-08 5.879045e-08
2.5485923e-08 5.6091913e-08 -4.511679e-10 -1.40184255e-08 3.38249e-08 7.864489e-08 2.951463e-09 5.3467264e-08
4.6881016e-08 2.79673e-08 3.3064655e-08 -1.508258e-08 4.0753534e-08 -1.5209839e-08 8.03423e-09 -6.409968e-08
-2.3305004e-08 -4.4012044e-08 -3.513253e-08 6.07235e-09 -2.2206113e-08 3.2231398e-08 7.4446525e-08 -2.0330472e-08
2.201834e-08 1.8488917e-08 -2.0579366e-08 -6.045994e-08 -3.8540335e-08 1.8278417e-08 3.4537244e-08 1.572534e-08
-9.111758e-11 -1.1899699e-08 -3.32861e-08 6.466201e-08 2.340868e-08 -1.8554847e-08 1.6613564e-08 3.1740733e-08
6.9996586e-09 3.0469614e-08 7.2186204e-08 6.7744663e-09 -3.233069e-08 -4.5840602e-09 2.98388e-08 -8.7462894e-08
-7.6663085e-08 3.6721424e-08 -7.199222e-09 -8.816563e-08 2.6753645e-08 -2.4444846e-08 -2.7296718e-08 -6.3564826e-08
1.0613872e-08 -2.7167983e-08 -4.1621224e-08 -1.4320613e-08 1.586827e-08 -2.6208268e-08 -4.1249095e-08 -1.2132728e-08
1.8652718e-08 6.037491e-09 3.957274e-08 -1.6316706e-08 -8.723878e-09 -2.0893472e-08 1.3279578e-08 -6.7688197e-09
-3.345566e-08 -3.9761314e-09 2.306081e-09 -1.543865e-08 -5.882877e-09 1.474687e-08 -8.709062e-08 -2.2134335e-08
-5.968386e-08 9.828414e-09 7.721544e-08 1.8115611e-09 -2.628269e-08 -4.0314635e-08 -3.1899168e-09 -1.454942e-08
-5.376423e-09 3.73465e-08 4.030287e-08 2.2150908e-09 -1.179832e-08 -4.1503544e-08 1.28544295e-08 -7.014848e-08
3.147222e-08 -1.002384e-08 -3.9896953e-08 -5.226981e-08 -1.995384e-08 1.9972166e-08 -6.500302e-08 -1.970326e-08
-9.049113e-09 -2.5236165e-08 1.8912418e-08 1.9471958e-08 -3.518745e-09 -2.4806896e-08 -1.1167594e-08 1.6303163e-08
-5.2403173e-08 7.971276e-08 8.290866e-09 -1.2419378e-08 -6.1686606e-08 4.2063059e-10 1.19441586e-08 -7.061666e-08
1.2547979e-08 -2.7565109e-10 -7.786497e-08 4.380771e-08 6.586611e-08 2.470292e-08 2.3438204e-08 -9.2438823e-10
4.683575e-08 8.996891e-08 2.4252193e-08 -2.3398758e-08 1.13757155e-08 2.2299753e-08 4.3900247e-08 -9.0248996e-08
-9.713611e-08 2.684401e-09 2.222606e-09 -1.2166763e-08 -8.80748e-08 7.496336e-09 2.3476307e-08 9.908383e-08
1.6569686e-08 4.422724e-08 -5.4424156e-08 -4.3602537e-08 -6.816608e-08 1.229163e-08 3.865166e-08 1.73402e-08
1.7548023e-08 6.703602e-08 -5.8950352e-08 -5.6518775e-08 1.4133526e-08 -4.8739764e-08 1.7445016e-08 -1.4866705e-08
1.17470025e-08 -8.497907e-08 6.6032555e-08 1.45342245e-08 1.3733248e-08 2.4002546e-08 2.409188e-08 1.44781716e-08
2.3960446e-08 -4.1414214e-08 2.2525434e-08 4.760849e-08 -4.3515477e-08 -7.5699236e-10 3.5519584e-08 1.593916e-08
5.514779e-08 -3.595326e-08 -7.9501895e-08 -2.8614553e-08 -6.076497e-08 3.263046e-08 -8.658644e-09 -3.0505568e-08
-7.534755e-09 1.911984e-08 3.4726554e-08 7.961665e-09 -1.5480328e-08 -1.4931823e-08 2.624188e-08 -7.7876265e-08
2.371645e-08 1.6169194e-08 2.0940096e-08 -6.608191e-10 -3.9845123e-08 6.683012e-09 3.416541e-08 -1.4572363e-08
00000000: 3409 e831 4dd2 8b33 a3fd 2f33 440b 9db2
00000010: 43a4 54b3 b51c 96b2 653f ca31 b2e4 4633
00000020: e95b 3633 d6e5 f0b2 f5c0 0133 4c36 f932
00000030: 6200 0d32 9a8e e5b2 d297 19b3 40db 8133
00000040: 8dc8 0db3 3a43 0b32 a34c 5033 263a c4b3
00000050: 031e 02b3 016a 282f 1dbd 16b2 f916 3033
00000060: 4ee5 0cb3 dad2 1c32 e207 5cb3 c05a 9532
00000070: 68a2 bb32 49ca 1433 f1c4 6532 8226 93b2
00000080: b2d2 8fb2 ce9b e6b1 2e6e 8a30 0ca9 9ab2
00000090: 4467 b532 3545 7b32 5727 26b2 532c 1c33
000000a0: 374f 9732 49b9 c5b2 a1aa 0eb2 1b5c df32
000000b0: d4f9 1cb2 f933 ac32 391c 2eb3 7915 8a33
000000c0: 18ac ddb2 de11 9233 bc2c 35b3 7338 97b2
000000d0: b652 06b1 f510 53b3 0337 1c33 c980 7c33
000000e0: 23ec da32 b6e9 7033 3d08 f8af b0d5 70b2
000000f0: df46 1133 7ce3 a833 b0d2 4a31 e1a3 6533
00000100: 395a 4933 be3c f032 f902 0e33 f28e 81b2
00000110: fc08 2f33 caa6 82b2 eb06 0a32 2ca7 89b3
00000120: 3f30 c8b2 c107 3db3 a0e4 16b3 f5a4 d031
00000130: c2bf beb2 cc6e 0a33 69df 9f33 2ea3 aeb2
00000140: d722 bd32 8fd1 9e32 81c6 b0b2 34d6 81b3
00000150: 8c87 25b3 aa02 9d32 1a56 1433 6314 8732
00000160: a35e c8ae 6e6f 4cb2 74f6 0eb3 51dc 8a33
00000170: 3b14 c932 8a62 9fb2 9db5 8e32 4e53 0833
00000180: a681 f031 b2dd 0233 c904 9b33 d6c4 e831
00000190: f8db 0ab3 d281 9db1 1c28 0033 3cd3 bbb3
000001a0: faa1 a4b3 a2b7 1d33 075d f7b1 9155 bdb3
000001b0: e3cf e532 c9fa d1b2 1e7a eab2 2281 88b3
000001c0: 4d58 3632 075f e9b2 05c3 32b3 b906 76b2
000001d0: b24e 8832 9720 e1b2 dc29 31b3 4d70 50b2
000001e0: c339 a032 5572 cf31 b0f6 2933 d128 8cb2
000001f0: 05e0 15b2 3b79 b3b2 3424 6432 2b93 e8b1
00000200: e3b0 0fb3 6c9e 88b1 0279 1e31 f39d 84b2
00000210: 5522 cab1 6c59 7d32 9306 bbb3 eb21 beb2
00000220: 8d2b 80b3 d2d9 2832 a3d1 a533 a4fa f830
00000230: 3fc4 e1b2 6926 2db3 9c35 5bb1 07f5 79b2
00000240: 84bb b8b1 e966 2033 7919 2d33 4a38 1831
00000250: 8fb1 4ab2 a141 32b3 61d6 5c32 89a4 96b3
00000260: 122c 0733 5135 2cb2 2a5b 2bb3 447f 60b3
00000270: f566 abb2 428f ab32 ca97 8bb3 ed3f a9b2
00000280: 6b76 1bb2 eac6 d8b2 d974 a232 4a43 a732
00000290: 6bce 71b1 f116 d5b2 99db 3fb2 090b 8c32
000002a0: e611 61b3 8e2e ab33 9d6f 0e32 015d 55b2
000002b0: 9278 84b3 7e3e e72f f732 4d32 eba5 97b3
000002c0: 9892 5732 718a 97af b836 a7b3 1627 3c33
000002d0: 4772 8d33 4c32 d432 2855 c932 0a18 7eb0
000002e0: 7428 4933 ee34 c133 2353 d032 6afe c8b2
000002f0: ed6e 4332 ad8d bf32 d58c 3c33 e9ce c1b3
00000300: 2499 d0b3 7b78 3831 80bc 1831 fd05 51b2
00000310: a223 bdb3 3cc9 0032 f2a8 c932 e9c7 d433
00000320: 2055 8e32 5df4 3d33 febf 69b3 7f45 3bb3
00000330: b362 92b3 292b 5332 f301 2633 81f3 9432
00000340: 83bc 9632 71f5 8f33 9930 7db3 0dbf 72b3
00000350: e8cf 7232 f055 51b3 ffd9 9532 7668 7fb2
00000360: ddcf 4932 bd7d b6b3 c8cd 8d33 32b2 7932
00000370: 77ef 6b32 282e ce32 9bf2 ce32 acbb 7832
00000380: 94d1 cd32 69df 31b3 f47d c132 177a 4c33
00000390: c6e5 3ab3 9a14 50b0 328e 1833 95ea 8832
000003a0: a3db 6c33 076b 1ab3 a1ba aab3 11cc f5b2
000003b0: e57d 82b3 9225 0c33 1ec1 14b2 3a05 03b3
000003c0: 3472 01b2 f93c a432 4026 1533 c6c7 0832
000003d0: 9af9 84b2 6d43 80b2 816a e132 ee3c a7b3
000003e0: 06b9 cb32 6fe4 8a32 c2df b332 03a5 35b0
000003f0: 2d22 2bb3 65a0 e531 44bd 1233 ee59 7ab2

bn1.weight f4 [256]
0.5036108 0.50533175 0.47500414 0.52738005 0.43734327 0.42513445 0.44724286 0.47408658
0.49936542 0.4685526 0.4544016 0.530386 0.5429523 0.4869711 0.52706426 0.5684496
0.5466397 0.47334278 0.45582083 0.5503447 0.45481217 0.49842256 0.50052214 0.48262998
0.492803 0.4924742 0.5837506 0.5134541 0.5373933 0.5477278 0.49504226 0.5434299
0.530094 0.50737065 0.5341041 0.51179963 0.5071389 0.50773036 0.4603837 0.47207326
0.41547164 0.42964295 0.3822377 0.51819724 0.4714317 0.54808986 0.46668893 0.4620989
0.48607495 0.44782472 0.5348865 0.391523 0.47967222 0.5333851 0.3758431 0.56027067
0.43432876 0.4956283 0.4952805 0.384138 0.5023785 0.48375046 0.45232236 0.45934317
0.4682035 0.47449237 0.46095568 0.582949 0.45455724 0.57675606 0.50205666 0.44026703
0.43979752 0.43502256 0.41949943 0.501399 0.4497233 0.5231477 0.43728405 0.51589984
0.46260554 0.44061506 0.50214386 0.4832104 0.45348462 0.5254062 0.40589228 0.45691344
0.52982485 0.4727557 0.4679002 0.43848327 0.4515518 0.3699735 0.50382197 0.4873549
0.48003504 0.48720136 0.45856065 0.5490543 0.47693944 0.5116974 0.5019019 0.51384896
0.4986119 0.49816418 0.5115994 0.5321652 0.59623486 0.5826516 0.3894288 0.48479623
0.444825 0.38103628 0.42547652 0.43325818 0.5426604 0.4203329 0.44895083 0.3750822
0.5180195 0.5624352 0.44538763 0.477706 0.4118207 0.5354796 0.5299833 0.49979147
0.5306342 0.44473627 0.5070165 0.5052857 0.6220197 0.4500762 0.46435386 0.47940135
0.5680473 0.5422648 0.39834014 0.50546366 0.42949012 0.4684292 0.52074075 0.5044987
0.5031998 0.451059 0.54504913 0.4058984 0.53857386 0.53778934 0.38416505 0.5524629
0.43796876 0.35571003 0.5121609 0.40340242 0.5601932 0.43656945 0.4793662 0.51383555
0.5180547 0.4954927 0.43125686 0.5103907 0.5172723 0.5143827 0.4647756 0.4880038
0.46143797 0.45195612 0.52748984 0.56583816 0.3562151 0.4676155 0.45449045 0.5108161
0.48102736 0.4483663 0.44797328 0.45786893 0.49651212 0.5303428 0.5599118 0.469653
0.46375364 0.48470664 0.48020974 0.53355944 0.43146732 0.43242624 0.43655288 0.5140981
0.4533592 0.40328103 0.49970034 0.44700795 0.4893982 0.4434035 0.47376657 0.5434938
0.40798363 0.4836575 0.51658654 0.4761558 0.48841193 0.48850724 0.46782044 0.5049899
0.45426095 0.50396335 0.48905522 0.5182289 0.48859382 0.484355 0.4539971 0.49286416
0.4829896 0.48166782 0.4815584 0.41556767 0.4650517 0.5048521 0.42287838 0.5277804
0.54543 0.46425995 0.50116557 0.47488567 0.516372 0.43692353 0.5180887 0.41676533
0.41479564 0.44005495 0.4712841 0.35596326 0.5068411 0.48811442 0.49705532 0.50763315
0.46063387 0.47171232 0.40775672 0.5202584 0.41690275 0.48546538 0.49608377 0.4935293
0.5397287 0.52686024 0.56642944 0.5270116 0.36617497 0.48281464 0.4419025 0.5245844
00000000: a3ec 003f 6c5d 013f be33 f33e 6102 073f
00000010: 75eb df3e 39ab d93e 04fd e43e 7abb f23e
00000020: d3ac ff3e 20e6 ef3e 54a7 e83e 60c7 073f
00000030: ecfe 0a3f 4754 f93e afed 063f ea85 113f
00000040: 94f0 0b3f fc59 f23e 5961 e93e 64e3 0c3f
00000050: 24dd e83e 3e31 ff3e 3822 003f 471b f73e
00000060: ad50 fc3e 9425 fc3e ae70 153f ba71 033f
00000070: 9b92 093f e437 0c3f 2e76 fd3e 391e 0b3f
00000080: 3eb4 073f 0be3 013f 0cbb 083f 4d05 033f
00000090: dbd3 013f 9efa 013f 6ab7 eb3e 96b3 f13e
000000a0: b3b8 d43e 29fa db3e a9b4 c33e 93a8 043f
000000b0: 7f5f f13e 9e4f 0c3f daf1 ee3e 3a98 ec3e
000000c0: d1de f83e 4849 e53e 52ee 083f b475 c83e
000000d0: 9997 f53e ed8b 083f 826e c03e e66d 0f3f
000000e0: 5760 de3e fec2 fd3e 6895 fd3e bcad c43e
000000f0: e19b 003f 24ae f73e cc96 e73e 072f eb3e
00000100: 5fb8 ef3e aaf0 f23e 6202 ec3e 253c 153f
00000110: babb e83e 49a6 133f c986 003f ae6a e13e
00000120: 242d e13e 47bb de3e a1c8 d63e af5b 003f
00000130: 2242 e63e 02ed 053f b2e3 df3e 0312 043f
00000140: a2da ec3e 4c98 e13e 808c 003f 5b67 f73e
00000150: 232f e83e 0581 063f 1dd1 cf3e 8ff0 e93e
00000160: 9aa2 073f 090d f23e 9d90 ef3e e180 e03e
00000170: cc31 e73e 2b6d bd3e 7afa 003f 9586 f93e
00000180: 27c7 f53e 7572 f93e 76c8 ea3e d38e 0c3f
00000190: 6831 f43e 9afe 023f a57c 003f 9b8b 033f
000001a0: 0f4a ff3e 600f ff3e 2ef8 023f fb3b 083f
000001b0: d9a2 183f a828 153f 3663 c73e 3637 f83e
000001c0: 1ac0 e33e 3017 c33e 0fd8 d93e 04d4 dd3e
000001d0: cbeb 0a3f e035 d73e e2dc e53e c60a c03e
000001e0: ed9c 043f c1fb 0f3f d909 e43e e195 f43e
000001f0: 2ada d23e 3115 093f fcac 073f abe4 ff3e
00000200: a5d7 073f 79b4 e33e d5cb 013f 675a 013f
00000210: af3c 1f3f 6370 e63e cabf ed3e 1874 f53e
00000220: 8c6b 113f ded1 0a3f 3df3 cb3e 1166 013f
00000230: 21e6 db3e f4d5 ef3e 444f 053f d426 013f
00000240: b4d1 003f 35f1 e63e 5788 0b3f ead1 cf3e
00000250: fadf 093f 90ac 093f 48b1 c43e 356e 0d3f
00000260: 713d e03e a01f b63e fa1c 033f c38a ce3e
00000270: d268 0f3f 0886 df3e 7d6f f53e ba8a 033f
00000280: 3c9f 043f 38b1 fd3e b3cd dc3e f7a8 023f
00000290: f56b 043f 96ae 033f 11f7 ed3e a2db f93e
000002a0: 9941 ec3e cb66 e73e 9309 073f c5da 103f
000002b0: d361 b63e 4c6b ef3e f9b2 e83e d8c4 023f
000002c0: 3849 f63e 4590 e53e c15c e53e cc6d ea3e
000002d0: d636 fe3e 8cc4 073f 6156 0f3f 5c76 f03e
000002e0: 1e71 ed3e 782b f83e 0dde f53e 5a97 083f
000002f0: 49e9 dc3e f966 dd3e dc83 df3e ef9b 033f
00000300: b21e e83e da7a ce3e b9d8 ff3e 3ade e43e
00000310: 6792 fa3e c905 e33e 8891 f23e 6922 0b3f
00000320: 3be3 d03e f5a1 f73e 043f 043f b1ca f33e
00000330: 2111 fa3e 9f1d fa3e 2986 ef3e 0547 013f
00000340: e494 e83e be03 013f 7265 fa3e a6aa 043f
00000350: f828 fa3e 61fd f73e 4f72 e83e b158 fc3e
00000360: 6a4a f73e 2a9d f63e d38e f63e 49c5 d43e
00000370: 421b ee3e fd3d 013f 8483 d83e 9e1c 073f
00000380: 4da1 0b3f 7bb3 ed3e 634c 003f 3724 f33e
00000390: f530 043f 71b4 df3e 76a1 043f 4462 d53e
000003a0: 1860 d43e e24e e13e 264c f13e d140 b63e
000003b0: 57c0 013f 22ea f93e 097e fe3e 3ff4 013f
000003c0: 34d8 eb3e 4784 f13e 7dc5 d03e a82f 053f
000003d0: 4774 d53e eb8e f83e b1fe fd3e dfaf fc3e
000003e0: a92b 0a3f 50e0 063f 8501 113f 3bea 063f
000003f0: 497b bb3e 7b33 f73e 0b41 e23e 2a4b 063f

bn1.bias f4 [256]
-0.49088305 -0.49905446 -0.32519123 -0.41996664 -0.34902662 -0.19921347 -0.3068717 -0.36889204
-0.38622344 -0.47726375 -0.36135933 -0.41592917 -0.40131935 -0.4471546 -0.49951708 -0.4782142
-0.4146204 -0.38067898 -0.22442825 -0.4442608 -0.24827857 -0.44325188 -0.44305748 -0.37136352
-0.3838161 -0.35938063 -0.41231707 -0.35685307 -0.4913375 -0.5161257 -0.39200217 -0.37034336
-0.4373123 -0.41194862 -0.4175932 -0.3693228 -0.38374203 -0.38845286 -0.33836251 -0.35904938
-0.27884245 -0.41169968 -0.41526368 -0.37635854 -0.3900876 -0.4292216 -0.3976597 -0.32223913
-0.26617447 -0.24103914 -0.45988038 -0.2617465 -0.40757474 -0.43834966 -0.21584149 -0.38653308
-0.27789083 -0.491464 -0.42804724 -0.32849216 -0.3465576 -0.35540858 -0.22604954 -0.3164886
-0.308258 -0.32391936 -0.35627753 -0.41482288 -0.305157 -0.58947104 -0.39686686 -0.32381457
-0.3183304 -0.34315696 -0.25170282 -0.42516944 -0.2875791 -0.40058342 -0.3709091 -0.26820043
-0.36457133 -0.3811296 -0.52863204 -0.25681052 -0.22583118 -0.4637432 -0.19843814 -0.33784676
-0.44671202 -0.5262386 -0.31361052 -0.28940344 -0.39631546 -0.31228554 -0.478266 -0.22772588
-0.37743512 -0.34354374 -0.3369041 -0.54918677 -0.3289742 -0.43202978 -0.38347405 -0.3895789
-0.3140987 -0.3693337 -0.5115022 -0.44391438 -0.4917886 -0.43690717 -0.22509748 -0.36959922
-0.31579107 -0.18524326 -0.28146014 -0.4011917 -0.4149542 -0.31194082 -0.3394186 -0.30186152
-0.38117266 -0.5179484 -0.27254796 -0.43948194 -0.31814393 -0.4808917 -0.44090134 -0.43881935
-0.4725289 -0.30284384 -0.3773677 -0.32367814 -0.5029015 -0.31048563 -0.41324973 -0.3367515
-0.3593148 -0.34796476 -0.36040795 -0.4827325 -0.30816284 -0.42585593 -0.39905572 -0.34819382
-0.4745253 -0.26940536 -0.44173262 -0.16357625 -0.45182827 -0.47298872 -0.31043097 -0.55913544
-0.3218962 -0.25192943 -0.48641047 -0.21897423 -0.46860385 -0.3765283 -0.38926736 -0.4012552
-0.3570723 -0.46974954 -0.23944044 -0.43199262 -0.31325307 -0.4736551 -0.3834285 -0.28595883
-0.38451308 -0.31518903 -0.42528707 -0.34621274 -0.2302618 -0.37713024 -0.399871 -0.4638895
-0.33698934 -0.31829077 -0.38818035 -0.3925981 -0.36545378 -0.47049657 -0.36752796 -0.36602005
-0.32934788 -0.42536658 -0.3294129 -0.31646648 -0.27851897 -0.3188518 -0.33321854 -0.37857872
-0.34549087 -0.31885898 -0.40958002 -0.3707856 -0.26994556 -0.3225253 -0.26958412 -0.50940794
-0.37141344 -0.5188118 -0.39321375 -0.3750142 -0.3464071 -0.44898713 -0.39708087 -0.47800833
-0.3697188 -0.4387031 -0.3619501 -0.30441934 -0.3911301 -0.40378118 -0.35862905 -0.39896962
-0.3013445 -0.31878582 -0.40865228 -0.26224065 -0.34540015 -0.40222824 -0.30623576 -0.41092062
-0.44877788 -0.30845007 -0.38283142 -0.29581526 -0.50840586 -0.24856772 -0.34789652 -0.23170066
-0.43698344 -0.24535464 -0.4799908 -0.19442691 -0.53922445 -0.328914 -0.42695117 -0.32295305
-0.33154932 -0.35852164 -0.22697957 -0.37426788 -0.35323882 -0.4133808 -0.32115844 -0.37728834
-0.4723504 -0.26333943 -0.48425734 -0.29069802 -0.20359884 -0.48936385 -0.33866668 -0.35013548
00000000: 0655 fbbe 1184 ffbe 777f a6be de05 d7be
00000010: 9eb3 b2be 9efe 4bbe 4a1e 9dbe 6bdf bcbe
00000020: 14bf c5be ea5b f4be 1704 b9be abf4 d4be
00000030: bb79 cdbe 73f1 e4be b4c0 ffbe 7ed8 f4be
00000040: 2049 d4be 5be8 c2be 85d0 65be 2776 e3be
00000050: bd3c 7ebe e9f1 e2be 6ed8 e2be 5c23 bebe
00000060: 8b83 c4be bd00 b8be 391b d3be 72b5 b6be
00000070: 9790 fbbe d020 04bf 82b4 c8be a59d bdbe
00000080: 66e7 dfbe eeea d2be c7ce d5be e117 bdbe
00000090: d679 c4be 4be3 c6be da3d adbe 52d5 b7be
000000a0: 70c4 8ebe 4dca d2be 719d d4be 11b2 c0be
000000b0: 90b9 c7be efc2 dbbe 0d9a cbbe 87fc a4be
000000c0: 0548 88be f7d2 76be 7175 ebbe a303 86be
000000d0: a3ad d0be 5e6f e0be 8d05 5dbe aae7 c5be
000000e0: b547 8ebe 2ba1 fbbe 0229 dbbe 2030 a8be
000000f0: ff6f b1be 1df8 b5be 8879 67be cb0a a2be
00000100: fed3 9dbe c2d8 a5be 026a b6be aa63 d4be
00000110: 8a3d 9cbe 93e7 16bf 2232 cbbe 06cb a5be
00000120: 34fc a2be 45b2 afbe 31df 80be cfaf d9be
00000130: 913d 93be 4519 cdbe cce7 bdbe 9151 89be
00000140: 18a9 babe 6b23 c3be 6e54 07bf ab7c 83be
00000150: 4a40 67be c06f edbe 5e33 4bbe 40fa acbe
00000160: 70b7 e4be 93b7 06bf 8f91 a0be b02c 94be
00000170: dce9 cabe e4e3 9fbe 48df f4be f930 69be
00000180: 2d3f c1be f7e4 afbe b27e acbe 8197 0cbf
00000190: 4e6f a8be 0233 ddbe b656 c4be e376 c7be
000001a0: 8bd1 a0be 4f19 bdbe cff1 02bf bf48 e3be
000001b0: b7cb fbbe 4cb2 dfbe f47f 66be 1c3c bdbe
000001c0: 5eaf a1be 69b0 3dbe 8b1b 90be 0069 cdbe
000001d0: e074 d4be b5b6 9fbe 46c8 adbe 988d 9abe
000001e0: 1029 c3be 4498 04bf 688b 8bbe c703 e1be
000001f0: c3e3 a2be 7037 f6be d2bd e1be eeac e0be
00000200: 4fef f1be 590e 9bbe 5736 c1be 24b9 a5be
00000210: 27be 00bf f9f7 9ebe 7895 d3be b16a acbe
00000220: 1cf8 b7be 7028 b2be 6487 b8be b728 f7be
00000230: 85c7 9dbe ca09 dabe 0851 ccbe 7646 b2be
00000240: fbf4 f2be 80ef 89be c72a e2be 8880 27be
00000250: 0956 e7be 942b f2be cff0 9ebe 8023 0fbf
00000260: 94cf a4be e5fc 80be cb0a f9be c83a 60be
00000270: d8ec efbe 51c8 c0be 0d4e c7be 5271 cdbe
00000280: 2ed2 b6be 0383 f0be e02f 75be 232e ddbe
00000290: b562 a0be ec82 f2be be50 c4be 3269 92be
000002a0: e6de c4be 7560 a1be 3abf d9be cc42 b1be
000002b0: c0c9 6bbe 3717 c1be e4bb ccbe ed82 edbe
000002c0: de89 acbe 02f7 a2be 93bf c6be 9e02 c9be
000002d0: c21c bbbe ede4 f0be a02c bcbe fb66 bbbe
000002e0: 49a0 a8be a6c9 d9be cfa8 a8be e507 a2be
000002f0: 0a9a 8ebe 8b40 a3be 9f9b aabe 12d5 c1be
00000300: 2ee4 b0be 7c41 a3be 79b4 d1be 9cd7 bdbe
00000310: 4e36 8abe 0922 a5be ee06 8abe 8f68 02bf
00000320: e729 bebe dad0 04bf 5053 c9be dc01 c0be
00000330: 455c b1be a4e1 e5be 2f4e cbbe 82bd f4be
00000340: c84b bdbe b19d e0be 8651 b9be dadc 9bbe
00000350: 3442 c8be 68bc cebe 3a9e b7be bf45 ccbe
00000360: d449 9abe e537 a3be df3a d1be 6844 86be
00000370: 4ad8 b0be dcf0 cdbe efca 9cbe 3064 d2be
00000380: 37c6 e5be 2bed 9dbe 7b02 c4be 1975 97be
00000390: e326 02bf 8988 7ebe 7e1f b2be f042 6dbe
000003a0: 4bbc dfbe 3f3e 7bbe 5bc1 f5be d917 47be
000003b0: 9d0a 0abf 6a67 a8be 5899 dabe 1a5a a5be
000003c0: d5c0 a9be 2690 b7be 556d 68be 0aa0 bfbe
000003d0: b8db b4be a6a6 d3be e16e a4be f02b c1be
000003e0: e9d7 f1be 6dd4 86be 94f0 f7be 5fd6 94be
000003f0: 377c 50be e68d fabe b865 adbe f544 b3be

bn1.running_mean f4 [256]
0.08093813 0.054739177 0.05311344 0.0042554205 0.007609345 0.014661297 0.08328558 0.0072455145
0.022234334 0.02660079 -0.0028045403 -0.01396628 0.021268787 0.0038307589 -0.012411723 0.024904568
0.056577183 -0.007994061 0.027078148 0.067114204 0.047074836 -0.017880287 0.016027894 -0.047109373
0.01499418 0.023687538 -0.030769471 0.012558496 -0.0063410215 -0.028210286 0.022963334 0.020436218
0.014262149 0.024708273 -0.018388968 -0.0002139071 -0.004285844 -0.0052670874 -0.037581787 0.04953112
0.0051472215 0.022572603 -2.5292858e-05 0.05027546 -0.0048210956 -0.02824441 -0.02787894 0.0061682584
0.03744838 0.033408064 -0.004951749 0.012413507 -0.0061971284 0.056555517 0.022927606 0.031475537
0.026614549 -0.051545344 0.0006546471 -0.03857429 0.019260468 -0.0032838988 -0.009409551 0.0027674967
-0.007089076 0.0142620625 -0.029150669 0.010203251 -0.0097964415 0.028682394 0.012119012 -0.017614618
0.07451911 0.046497796 0.0006641783 0.027313424 0.050322507 0.07259136 0.045686185 -0.036792457
0.04576023 0.062326185 -0.041111067 -0.035770193 -0.0029521673 0.0382928 -0.02684782 0.014159281
0.052632067 0.05792142 0.068113215 0.009336202 -0.059487317 -0.013020261 0.009386363 0.03179893
0.010007389 -0.00717308 0.0272849 0.12586513 0.028006576 0.014190139 0.052405454 0.0024234336
0.03950907 -0.04113723 0.043558575 0.009191008 0.007477807 0.041973554 -0.015424054 0.040029854
-0.002280522 -0.028370583 0.021232117 -0.023453372 -0.0333978 0.026432106 0.01656214 -0.018516848
-0.013527389 0.027663168 -0.049349587 -0.0067951474 -0.04059196 0.012522845 -0.037756592 -0.0038588317
-0.084674865 0.0075724386 -0.036723163 0.0079073785 0.007313571 0.0069263713 0.06189468 0.017471457
0.006531572 0.012015542 -0.027286507 0.019496493 0.059845094 0.060269736 -0.04244188 0.03259308
0.01690424 0.076497346 -0.01418807 -0.023170985 0.032167763 -0.012096724 0.02162934 -0.07750962
0.049057517 0.03262109 0.013691697 0.061195787 0.017984767 0.032282993 -0.030318117 -0.020412149
-0.019280007 -0.0060608042 -0.0023206547 0.018915895 0.01821758 0.056016587 -0.0103567615 0.013494495
0.03923795 0.07327202 0.06889468 -0.017376702 0.061646983 -0.034166683 -0.043850113 0.025208257
-0.01339088 0.02656908 -0.11627032 -0.0032663299 -0.031494096 0.02127741 0.010576402 0.034017824
0.045027662 -0.024881817 -0.027576506 0.0880323 -0.018873457 0.023944752 0.012451769 -0.008365938
0.041535918 0.018862361 0.0019767773 0.022106703 -0.07835045 -0.01274815 -0.008969028 0.020369323
-0.03643113 0.009615238 -0.046118878 -0.03140582 -0.03017948 0.04367175 0.02064224 0.05757674
0.020518713 -0.072464846 -0.03388676 0.063130446 0.029132087 0.03365746 0.016261581 -0.015895488
-0.00212856 -0.035842158 0.0029637832 -0.043261774 -0.059040483 -0.019604847 -0.055788066 -0.0018584086
0.012015765 -0.008292714 0.0319028 -0.04688316 0.008214532 -0.010596285 -0.012337979 0.038108513
0.018330552 -0.012513112 -0.03118652 0.0051032966 -0.043165617 0.03863643 0.007941116 -0.01009938
-0.018899206 0.023035074 -0.02608181 -0.008489553 0.029292695 0.047911197 0.015114915 -0.003030012
0.10024162 0.02208513 0.02318108 0.012331173 0.043648735 0.0048333704 0.020539673 -0.004123429
00000000: e4c2 a53d 3036 603d 7a8d 593d 0e71 8b3b
00000010: d057 f93b f035 703c a191 aa3d c86b ed3b
00000020: c724 b63c e6e9 d93c 61cc 37bb d3d2 64bc
00000030: e13b ae3c 780d 7b3b 8a5a 4bbc aa04 cc3c
00000040: 7abd 673d 86f9 02bc fed2 dd3c 2c73 893d
00000050: 8bd1 403d ae79 92bc ee4c 833c c2f5 40bd
00000060: 26aa 753c 5e0c c23c 4210 fcbc 26c2 4d3c
00000070: 58c8 cfbb 4219 e7bc 9a1d bc3c db69 a73c
00000080: caab 693c 0169 ca3c 76a4 96bc 404c 60b9
00000090: 4470 8cbb 8897 acbb 5cef 19bd 25e1 4a3d
000000a0: 06aa a83b 2eea b83c 002c d4b7 a4ed 4d3d
000000b0: 48fa 9dbb d260 e7bc 6062 e4bc 1a1f ca3b
000000c0: 7963 193d e5d6 083d 4842 a2bb 0662 4b3c
000000d0: 4811 cbbb c2a6 673d add2 bb3c 7eec 003d
000000e0: c106 da3c 3621 53bd a09c 2b3a 1300 1ebd
000000f0: 21c8 9d3c ae36 57bb 842a 1abc e45e 353b
00000100: 7b4b e8bb 6dab 693c 62cd eebc 892b 273c
00000110: 4181 20bc 57f7 ea3c d28e 463c 884c 90bc
00000120: 7a9d 983d 7974 3e3d 401c 2e3a 67c0 df3c
00000130: f91e 4e3d c7aa 943d 7021 3b3d b0b3 16bd
00000140: 146f 3b3d be49 7f3d 1464 28bd c483 12bd
00000150: 2679 41bb e9d8 1c3d f6ef dbbc 54fc 673c
00000160: b994 573d 033f 6d3d f17e 8b3d dff6 183c
00000170: f9a8 73bd ef52 55bc 43c9 193c 983f 023d
00000180: 08f6 233c 280c ebbb 9584 df3c cae2 003e
00000190: 0c6e e53c c27d 683c 1aa7 563d 78d2 1e3b
000001a0: 43d4 213d 837f 28bd 7a6a 323d e295 163c
000001b0: 6408 f53b 76ec 2b3d 2cb5 7cbc 58f6 233d
000001c0: cf74 15bb 6d69 e8bc faee ad3c 4921 c0bc
000001d0: 22cc 08bd 2588 d83c 53ad 873c a5b0 97bc
000001e0: fba1 5dbc de9d e23c cb22 4abd d4a9 debb
000001f0: c143 26bd 9e2c 4d3c a8a6 1abd 74e4 7cbb
00000200: 046a adbd 3822 f83b 076b 16bd f38d 013c
00000210: aea6 ef3b 9df6 e23b 4785 7d3d 4d20 8f3c
00000220: cc06 d63b d6dc 443c f487 dfbc 1cb7 9f3c
00000230: 2120 753d 66dd 763d 89d7 2dbd 5280 053d
00000240: c37a 8a3c a4aa 9c3d 1475 68bc 14d1 bdbc
00000250: 58c2 033d 5631 46bc 0330 b13c 5dbd 9ebd
00000260: 89f0 483d b19d 053d 2453 603c 6fa8 7a3d
00000270: ca54 933c 2c3b 043d b35d f8bc 6137 a7bc
00000280: 1bf1 9dbc b699 c6bb 2016 18bb 82f5 9a3c
00000290: 093d 953c a671 653d 68af 29bc 0418 5d3c
000002a0: f9b7 203d a40f 963d a718 8d3d 9659 8ebc
000002b0: 8c81 7c3d 5df2 0bbd 2d9c 33bd 8c81 ce3c
000002c0: 6c65 5bbc 66a7 d93c 221f eebd ec0f 56bb
000002d0: f4ff 00bd f74d ae3c a548 2d3c 4656 0b3d
000002e0: ed6e 383d f4d4 cbbc 20e8 e1bc 474a b43d
000002f0: 829c 9abc c927 c43c 8102 4c3c 4a11 09bc
00000300: 9121 2a3d 3d85 9a3c d28c 013b 1e19 b53c
00000310: 3376 a0bd 9edd 50bc d4f2 12bc 91dd a63c
00000320: cf38 15bd 3b89 1d3c 26e7 3cbd 64a3 00bd
00000330: f53a f7bc 26e1 323d ea19 a93c 96d5 6b3d
00000340: dc16 a83c 7368 94bd d8cc 0abd 894a 813d
00000350: 6aa6 ee3c 68dc 093d 0237 853c 4137 82bc
00000360: 507f 0bbb 3acf 12bd 083c 423b 4233 31bd
00000370: 6fd4 71bd 589a a0bc 0782 64bd d895 f3ba
00000380: c5dd 443c 2ade 07bc 83ac 023d 8e08 40bd
00000390: 3f96 063c 0a9c 2dbc 3c25 4abc ac17 1c3d
000003a0: f429 963c cc03 4dbc df7a ffbc 8e39 a73b
000003b0: 6ece 30bd 3c41 1e3d 741b 023c df77 25bc
000003c0: 82d2 9abc 0db4 bc3c 85a9 d5bc c417 0bbc
000003d0: 3cf7 ef3c 883e 443d 8ca4 773c 2a93 46bb
000003e0: 7a4b cd3d e0eb b43c 40e6 bd3c b008 4a3c
000003f0: 04c9 323d 4061 9e3b d142 a83c d41d 87bb

bn1.running_var f4 [256]
1.0669892 0.8608893 0.74213415 0.766127 0.6997746 0.8425713 0.7712946 0.8960341
0.83774734 0.6303719 0.8043057 0.6636957 0.74854535 0.9381036 0.99498457 0.8287676
0.86045927 0.6610722 0.84644365 0.72322667 0.91411203 0.82528144 0.7392364 0.7906463
0.66590226 1.1181465 0.94342566 0.93448544 0.7958542 0.83341616 0.7571233 0.7980114
1.0984274 0.7475851 0.9946919 0.8599985 1.1170665 0.88101727 0.8417841 0.93990135
0.98061687 0.84163827 0.86702394 0.7807754 0.986526 0.82059747 0.93993175 0.8940327
0.9394005 0.87787855 0.9978805 0.6226181 0.74881995 0.8408539 0.6908661 0.96358675
0.82661974 0.74629533 0.7283337 0.8701028 0.81892776 0.7580166 1.2272732 1.0685084
0.65624636 0.68239194 0.8517569 0.9397158 0.706255 1.086572 0.7444944 0.91386193
0.8013838 0.6666507 1.0407753 0.9634657 0.75340533 0.7277422 0.70454156 1.2417283
0.853756 0.85033447 0.68184674 1.5016181 0.8397807 0.80721074 0.7409269 1.0963929
0.8722656 0.6736436 0.9771928 0.78164715 0.98508143 0.63567805 0.7642445 0.98935705
0.74819785 0.83140314 0.89570004 1.0283014 0.9095866 0.9088236 0.76080865 0.8626959
0.8153524 1.2364542 0.96168995 0.90641207 0.9952298 0.7662368 1.1156288 0.82561696
0.7859894 0.7329496 0.7149631 0.77942985 0.8880924 0.8975412 0.7562713 0.828714
0.92885715 0.91990316 1.0736032 1.04643 0.8487574 0.8712477 0.858471 0.831904
0.73413277 0.8149347 0.84640765 0.7297525 0.862945 0.70629466 0.8732299 0.6531602
1.350019 1.190425 0.7447221 0.87444514 0.90661013 0.7918871 0.97679615 0.7239136
0.77583563 0.9557942 0.86157507 0.70437855 1.045183 0.8463869 0.69181675 0.8755461
0.7945724 0.68624336 0.77690446 0.74730843 0.7075277 0.764496 0.7481765 0.96911883
0.94131225 0.68936795 1.0682466 0.9023324 1.2288104 0.76008147 0.7839573 0.66863686
0.7594315 0.7981471 1.029997 0.9148717 0.7239997 0.78531647 0.7710891 0.8731226
1.0537719 0.8524596 0.77287865 0.80267614 0.7566734 0.7093231 0.9681535 0.72349936
0.83872634 0.71148306 0.9016961 0.72909045 0.8376495 0.75228333 0.8734212 0.75418586
0.76784486 0.71268004 0.7327062 0.90053177 1.0132154 0.7951121 0.8089569 0.86740977
0.7525039 0.77130365 0.993998 0.96681637 0.8510868 1.1793562 0.9901791 0.8774283
0.958331 0.8956805 0.6992986 0.8870663 0.68999565 0.7269631 0.96081555 0.7926751
0.7638567 0.5545204 0.72260785 0.72381425 0.9533146 0.7683902 0.88182557 0.9476174
0.8555725 0.70565623 0.8960377 0.9547989 1.1821383 0.7900709 0.90244037 0.8852845
0.6856124 0.7939547 0.76910233 0.6137932 1.17805 0.64814657 0.657511 1.1102401
0.76536125 0.81453514 0.784106 0.7429899 0.80456173 0.7862411 0.88496387 0.79148483
1.0530269 0.8282658 1.2847711 0.83286536 0.821199 0.7062243 0.8689166 0.8665686
00000000: 1a93 883f 3e63 5c3f 81fc 3d3f e620 443f
00000010: 6e24 333f c1b2 573f 9073 453f 7e62 653f
00000020: 9c76 563f 0e60 213f fae6 4d3f f6e7 293f
00000030: aba0 3f3f 8f27 703f 4fb7 7e3f 1d2a 543f
00000040: 0f47 5c3f 073c 293f 88b0 583f 6225 393f
00000050: 3f03 6a3f a545 533f 993e 3d3f cc67 4a3f
00000060: 9278 2a3f 6d1f 8f3f 5884 713f 703a 6f3f
00000070: 1abd 4b3f c35a 553f d5d2 413f 7a4a 4c3f
00000080: 4599 8c3f bd61 3f3f 21a4 7e3f dd28 5c3f
00000090: 09fc 8e3f 598a 613f 2a7f 573f 609d 703f
000000a0: b509 7b3f 9b75 573f 48f5 5d3f e6e0 473f
000000b0: f88c 7c3f ad12 523f 5e9f 703f 54df 643f
000000c0: 8d7c 703f a6bc 603f 1975 7f3f e663 1f3f
000000d0: aab2 3f3f 3442 573f 9adc 303f 9fad 763f
000000e0: 5a9d 533f 360d 3f3f 1474 3a3f 0fbf 5e3f
000000f0: 40a5 513f 600d 423f 4a17 9d3f e2c4 883f
00000100: c3ff 273f 3db1 2e3f bd0c 5a3f 3791 703f
00000110: 21cd 343f cb14 8b3f 2f97 3e3f dbf2 693f
00000120: 7d27 4d3f 9fa9 2a3f 2038 853f b0a5 763f
00000130: 2cdf 403f 504d 3a3f d65c 343f f4f0 9e3f
00000140: c18f 5a3f 85af 593f 828d 2e3f 0635 c03f
00000150: defb 563f 5da5 4e3f 63ad 3d3f 9a56 8c3f
00000160: cc4c 5f3f e873 2c3f 4f29 7a3f 071a 483f
00000170: 4c2e 7c3f ccbb 223f 87a5 433f 8146 7d3f
00000180: e589 3f3f d6d6 543f 994c 653f 619f 833f
00000190: abda 683f aaa8 683f 5bc4 423f a3d9 5c3f
000001a0: efba 503f 2244 9e3f 5031 763f 9f0a 683f
000001b0: 61c7 7e3f 1828 443f edcc 8e3f a25b 533f
000001c0: 9a36 493f 96a2 3b3f d207 373f b788 473f
000001d0: 065a 633f 43c5 653f ff9a 413f 9a26 543f
000001e0: 95c9 6d3f c67e 6b3f d46b 893f 6bf1 853f
000001f0: 2a48 593f 170a 5f3f c1c4 5b3f a9f7 543f
00000200: 20f0 3b3f 8f9f 503f 2cae 583f 0fd1 3a3f
00000210: f7e9 5c3f bacf 343f ff8b 5f3f 8235 273f
00000220: 6ccd ac3f d95f 983f 1ca6 3e3f a3db 5f3f
00000230: 9a17 683f 1db9 4a3f 500f 7a3f 6752 393f
00000240: 2a9d 463f eeae 743f 2f90 5c3f 2752 343f
00000250: 8ec8 853f d0ac 583f e71a 313f ca23 603f
00000260: 1969 4b3f a5ad 2f3f 36e3 463f 9b4f 3f3f
00000270: 8920 353f 03b6 433f 7f88 3f3f 2c18 783f
00000280: d7f9 703f 6b7a 303f 4ebc 883f 42ff 663f
00000290: a949 9d3f b394 423f 6db1 483f c92b 2b3f
000002a0: 1a6a 423f 5e53 4c3f f1d6 833f 0835 6a3f
000002b0: 0b58 393f 800a 493f 1866 453f f684 5f3f
000002c0: ffe1 863f cb3a 5a3f 60db 453f 2f7c 4d3f
000002d0: 59b5 413f 3396 353f e8d8 773f 4137 393f
000002e0: c5b6 563f c123 363f 8ed5 663f aca5 3a3f
000002f0: 3370 563f a495 403f 8898 5f3f 5312 413f
00000300: 7b91 443f 3372 363f a292 3b3f 4089 663f
00000310: 0bb1 813f 778c 4b3f cd17 4f3f 910e 5e3f
00000320: 18a4 403f 2874 453f a776 7e3f 4781 773f
00000330: d3e0 593f 25f5 963f 617c 7d3f 249f 603f
00000340: 2e55 753f 514b 653f 3c05 333f c716 633f
00000350: 8ea3 303f 411a 3a3f 02f8 753f c1ec 4a3f
00000360: 1d8c 433f 0df5 0d3f d4fc 383f e44b 393f
00000370: 6d0c 743f 38b5 443f 52bf 613f 0e97 723f
00000380: cd06 5b3f e3a5 343f ba62 653f b36d 743f
00000390: 4f50 973f 1642 4a3f 5506 673f 01a2 623f
000003a0: 4b84 2f3f 9d40 4b3f e4e3 443f 8d21 1d3f
000003b0: 58ca 963f efec 253f a452 283f 591c 8e3f
000003c0: b7ee 433f 6085 503f 2cbb 483f 9634 3e3f
000003d0: c2f7 4d3f 1947 493f fe8c 623f c09e 4a3f
000003e0: 96c9 863f 3a09 543f 6173 a43f aa36 553f
000003f0: 193a 523f 1ecb 343f 5171 5e3f 71d7 5d3f

layer2.weight f4 [128, 256]
-0.07057349 -0.1219351 0.07729678 -0.092366375 -0.10175747 0.0036588253 -0.016893553 -0.036863014
0.0005810577 -0.13948539 -0.002845249 0.03504651 0.051248785 -0.023006868 -0.023254128 -0.07990475
-0.055441327 -0.066425666 0.034674406 -0.03144817 -0.012383055 0.06667872 0.009562363 0.085187465
-0.10782348 -0.012109034 -0.006528673 -0.045218058 -0.089506656 -0.10911123 -0.014730399 -0.010997649
-0.028472595 -0.095530406 0.05664732 0.008136123 -0.06116955 -0.0449927 -0.024004288 0.036015503
-0.09039027 0.08237891 -0.02697537 0.02094059 -0.019068146 0.018839763 0.033781044 0.02078372
-0.034418467 -0.07083251 -0.04264435 0.021060433 -0.12465218 -0.06674146 0.06626906 0.002353578
-0.045961484 0.048083585 0.022685966 0.032823205 0.047371846 0.038769353 -0.0007362243 -0.03740729
0.024572328 0.009801189 -0.06549366 0.025456276 0.023715446 -0.13497816 -0.005175974 0.08929743
0.040902678 -0.081966884 0.0021720752 -0.09447255 -0.022738466 -0.10865377 0.039393224 -0.02728478
0.004964935 -0.02844045 -0.064748384 -0.036309294 0.05042795 0.0018119343 -0.0902858 -0.116261266
0.061318357 0.05785891 -0.049662657 0.037813976 -0.14753185 -0.029103857 -0.11503182 -0.05530225
-0.08841792 0.03229787 -0.062325403 -0.14214253 -0.06483083 0.058284342 -0.061807703 -0.07763305
3.2397857e-05 0.00147917 0.007934174 -0.044325355 0.07637775 -0.07166059 0.050385393 0.07535797
-0.119240694 0.004455597 0.058891326 -0.03875997 0.009392848 -0.051745795 -0.112308584 0.020909185
0.048262447 -0.00545032 -0.07999618 -0.06595941 -0.015934102 -0.0050160335 0.04429457 -0.03358028
-0.06430102 -0.04967054 0.023657525 0.042145744 0.106115565 0.0091881305 0.055265684 0.027552014
-0.07291124 0.034220535 0.08431301 -0.10830773 0.06894564 -0.0017478119 -0.0024348958 0.088809
0.06244196 0.050158724 -0.037384477 -0.08297999 0.023813728 -0.014818698 -0.108829565 0.003917007
-0.013047707 -0.061727464 0.053896457 -0.09922015 0.055685356 -0.020839 -0.05493526 -0.1039629
-0.064453185 0.010831066 -0.022180289 0.05646068 -0.11345056 0.034783296 0.008077271 0.06206338
0.030891562 0.027389405 0.009529471 -0.042160142 -0.0016753961 0.033731587 -0.015414696 -0.078168094
-0.023064755 0.022075022 -0.09811714 -0.07432631 -0.014359654 -0.103162296 -0.0256562 0.06462739
-0.10354844 0.04823639 -0.13076243 -0.017568167 -0.07009067 -0.0012740239 -0.031376828 0.023932053
0.040721662 -0.05331446 -0.01069081 -0.023618042 -0.095992915 -0.09807707 0.026544694 0.039191104
0.06555002 -0.061269533 0.031406008 0.024943568 0.015129013 -0.06947899 0.030599296 -0.040866498
0.035439022 -0.05957162 -0.1576021 -0.09904087 -0.021539032 -0.11266289 -0.051068332 -0.11263618
-0.10611984 -0.05821518 -0.074213766 -0.10802103 0.05357895 0.026964089 -0.03440518 0.0028160363
-0.025044361 -0.02166482 -0.056253545 -0.1284942 -0.041615512 0.017632239 -0.038079146 -0.0068506016
-0.061636113 -0.05599074 -0.16838314 -0.08297742 -0.06162422 -0.11320294 -0.04894642 0.030579163
0.062013716 0.052266173 -0.054304715 -0.11574644 -0.011322117 0.0053709866 -0.08295671 -0.11276703
-0.029330142 0.055633277 0.018733673 -0.06529542 -0.059650633 -0.09212666 -0.02802375 -0.08057362
00000000: d588 90bd 1cb9 f9bd c64d 9e3d 952a bdbd
00000010: 3866 d0bd e7c8 6f3b 5964 8abc acfd 16bd
00000020: 1f52 183a 42d5 0ebe 5b77 3abb ee8c 0f3d
00000030: 3fea 513d e678 bcbc 717f bebc 1aa5 a3bd
00000040: 7216 63bd 2e0a 88bd c006 0e3d cccf 00bd
00000050: 4ce2 4abc da8e 883d 75ab 1c3c c476 ae3d
00000060: 8fd2 dcbd f864 46bc 7bee d5bb 9236 39bd
00000070: 444f b7bd b575 dfbd c557 71bc 7c2f 34bc
00000080: 5c3f e9bc 72a5 c3bd 0507 683d 604d 053c
00000090: ec8c 7abd 444a 38bd a4a4 c4bc fe84 133d
000000a0: 891e b9bd 46b6 a83d 73fb dcbc 9a8b ab3c
000000b0: cd34 9cbc d955 9a3c fe5d 0a3d 9f42 aa3c
000000c0: 61fa 0cbd a310 91bd d8ab 2ebd ee86 ac3c
000000d0: a449 ffbd bfaf 88bd 13b8 873d 7d3e 1a3b
000000e0: 1c42 3cbd 4bf3 443d ebd7 b93c a071 063d
000000f0: fb08 423d 9dcc 1e3d 2dff 40ba 6338 19bd
00000100: e84b c93c 2b95 203c 8a21 86bd ae89 d03c
00000110: e546 c23c b737 0abe 389b a9bb 92e1 b63d
00000120: 9189 273d 41de a7bd 6059 0e3b d37a c1bd
00000130: 0546 babc de85 debd ca5a 213d 5584 dfbc
00000140: e5b0 a23b f2fb e8bc cd9a 84bd 0eb9 14bd
00000150: 8a8d 4e3d 6d7e ed3a c3e7 b8bd 631a eebd
00000160: f528 7b3d 77fd 6c3d 126b 4bbd d4e2 1a3d
00000170: 9712 17be 366b eebc ce95 ebbd 9d84 62bd
00000180: 7414 b5bd c54a 043d ec48 7fbd d08d 11be
00000190: 07c6 84bd 90bb 6e3d 132a 7dbd 14fe 9ebd
000001a0: efe2 0738 b6e0 c13a 56fe 013c 818e 35bd
000001b0: f06b 9c3d cac2 92bd ea60 4e3d 4855 9a3d
000001c0: 7734 f4bd 4200 923b 0838 713d c6c2 1ebd
000001d0: 76e4 193c 66f3 53bd 0b02 e6bd bd49 ab3c
000001e0: d8ae 453d 9998 b2bb 0ad5 a3bd ba15 87bd
000001f0: 3c88 82bc 8a5d a4bb 396e 353d 7a8b 09bd
00000200: 41b0 83bd 5673 4bbd 6dcd c13c 04a1 2c3d
00000210: 1e53 d93d d089 163c 455e 623d c3b4 e13c
00000220: 7d52 95bd d52a 0c3d 4dac ac3d 71d0 ddbd
00000230: 5f33 8d3d d616 e5ba c692 1fbb 7ee1 b53d
00000240: 24c3 7f3d 3c73 4d3d 7720 19bd 6af1 a9bd
00000250: 0215 c33c 20ca 72bc 09e2 debd 3c5a 803b
00000260: 0dc6 55bc f0d5 7cbd 88c2 5c3d ef33 cbbd
00000270: 5416 643d 8db6 aabc cc03 61bd 80ea d4bd
00000280: 0800 84bd c974 313c 70b3 b5bc 5043 673d
00000290: c458 e8bd ee78 0e3d 8856 043c 2c36 7e3d
000002a0: 4d10 fd3c bf5f e03c 8021 1c3c 1db0 2cbd
000002b0: f798 dbba 222a 0a3d ec8d 7cbc 9816 a0bd
000002c0: 4cf2 bcbc add6 b43c a4f1 c8bd 6438 98bd
000002d0: c144 6bbc c146 d3bd f32c d2bc 5d5b 843d
000002e0: 3411 d4bd 8593 453d 96e6 05be 1eeb 8fbc
000002f0: b28b 8fbd 26fd a6ba fd84 00bd 270d c43c
00000300: c2cb 263d 4360 5abd 8228 2fbc a07a c1bc
00000310: ef97 c4bd a2dc c8bd 4274 d93c da86 203d
00000320: 173f 863d c3f5 7abd 96a3 003d 7456 cc3c
00000330: aedf 773c 004b 8ebd 60ab fa3c a163 27bd
00000340: 8228 113d 5f01 74bd 7262 21be f1d5 cabd
00000350: a072 b0bc cdbb e6bd 072d 51bd ccad e6bd
00000360: 5c55 d9bd 0a73 6ebd 63fd 97bd 213a ddbd
00000370: 9a75 5b3d cbe3 dc3c 72ec 0cbd 408d 383b
00000380: d529 cdbc 6c7a b1bc 1e6a 66bd fc93 03be
00000390: 0775 2abd 7c71 903c e1f8 1bbd 037b e0bb
000003a0: 2676 7cbd 8c56 65bd a16c 2cbe 11f0 a9bd
000003b0: ae69 7cbd f1d6 e7bd 0b7c 48bd 2781 fa3c
000003c0: 1802 7e3d 0e15 563d 9f6e 5ebd 780c edbd
000003d0: 6780 39bc 1aff af3b 35e5 a9bd 67f2 e6bd
000003e0: c445 f0bc b8df 633d 5c77 993c 9bb9 85bd
000003f0: 3954 74bd e7ac bcbd 1092 e5bc c803 a5bd

layer2.bias f4 [128]
-1.3533403e-08 -6.896724e-08 -7.400641e-09 -1.9332093e-08 1.16959995e-07 8.474016e-08 -4.0792074e-08 1.0850847e-07
4.353474e-08 -5.415909e-08 1.7586682e-07 -2.7507916e-08 8.0557435e-08 -5.4161298e-08 1.5651278e-07 -5.0259562e-08
-1.0059794e-07 -1.508903e-07 -5.0716075e-08 -1.6272264e-08 1.9159042e-07 5.876639e-08 9.845658e-08 3.3177834e-08
-2.084831e-08 1.1032933e-08 -1.3255078e-07 2.9956958e-08 -5.2484378e-08 1.1458673e-08 3.4473697e-08 5.275065e-08
3.3668207e-10 -1.3402152e-07 -1.3142325e-07 3.0795448e-08 -7.372238e-08 9.9364875e-08 2.8159011e-08 1.2370027e-07
9.4426646e-08 1.02062565e-07 4.7355343e-08 6.920264e-08 -2.9432753e-08 -1.460798e-07 -9.290477e-08 4.6511847e-08
-1.7411138e-07 -4.9410097e-08 -1.8594424e-08 5.5364882e-08 -1.3336816e-07 -1.6409595e-08 1.9594658e-08 2.374957e-07
1.118403e-07 -7.9202156e-10 -2.6342729e-08 -1.2238834e-08 -4.7248843e-08 -1.2406352e-07 7.291253e-08 2.5283805e-08
1.1891173e-08 8.289446e-08 -1.5605545e-08 -9.023639e-08 -6.1235785e-09 2.404042e-08 3.1601637e-08 -1.747113e-07
7.694706e-09 -9.211542e-08 1.049026e-07 -4.9518253e-08 3.3944882e-08 1.3014821e-08 -6.7977034e-08 1.163595e-08
-3.951806e-08 -1.00688546e-07 6.815097e-08 -2.225815e-08 7.521688e-08 6.702727e-08 -2.9966206e-08 5.1579207e-08
1.3974565e-08 -6.66043e-08 1.3489684e-07 3.4736278e-08 -9.811255e-08 -7.6645264e-08 -1.7308992e-07 3.7824755e-08
9.693064e-08 4.966561e-08 -8.758588e-08 5.7903303e-08 -2.2446363e-08 -2.7604315e-07 -1.6767926e-07 1.2110226e-07
-4.510325e-08 -1.1890933e-07 -2.1622728e-08 1.1127778e-07 1.2719762e-08 1.1345552e-07 1.0760658e-07 -5.906932e-09
-1.3146823e-07 -7.63169e-08 -3.033657e-08 5.8470917e-08 -1.6186118e-07 -6.582963e-09 -4.5668628e-08 4.5158213e-08
-8.7217e-08 -5.6557788e-08 1.0411825e-07 4.623418e-08 2.0231503e-09 -1.0860251e-07 2.474128e-08 -2.0245313e-08
00000000: 8980 68b2 241b 94b3 ba48 feb1 b90f a6b2
00000010: 702b fb33 65fa b533 5c33 2fb3 2a05 e933
00000020: f4fa 3a33 8d9c 68b3 e7d5 3c34 8c4a ecb2
00000030: ebfe ac33 fa9e 68b3 e80d 2834 f9dc 57b3
00000040: 4d08 d8b3 6904 22b4 ead2 59b3 16c7 8bb2
00000050: f9b7 4d34 5466 7c33 146f d333 6a7f 0e33
00000060: eb15 b3b2 5a8b 3d32 4853 0eb4 06aa 0033
00000070: 2f6b 61b3 c7db 4432 3b10 1433 f48f 6233
00000080: ca17 b92f 8ee7 0fb4 591d 0db4 f443 0433
00000090: 4f51 9eb3 6b62 d533 52e2 f132 79d2 0434
000000a0: 99c7 ca33 7d2d db33 c063 4b33 8e9c 9433
000000b0: 4fd3 fcb2 1cda 1cb4 f082 c7b3 51c4 4733
000000c0: 5ff3 3ab4 fa36 54b3 92b9 9fb2 55ca 6d33
000000d0: f633 0fb4 15f5 8cb2 1c51 a832 5202 7f34
000000e0: db2c f033 90b5 59b0 4648 e2b2 f642 52b2
000000f0: a7ee 4ab3 5236 05b4 1694 9c33 ad2f d932
00000100: ef49 4c32 b603 b233 f50c 86b2 fbc7 c1b3
00000110: 9167 d2b1 7181 ce32 5eba 0733 4798 3bb4
00000120: ad31 0432 fdd0 c5b3 d046 e133 e5ad 54b3
00000130: cbca 1133 ca97 5f32 c5fa 91b3 73e7 4732
00000140: 91ba 29b3 1d3a d8b3 645a 9233 3132 bfb2
00000150: eb86 a133 a2f0 8f33 31b4 00b3 f087 5d33
00000160: c914 7032 1a08 8fb3 29d8 1034 f130 1533
00000170: f2b1 d2b3 2e98 a4b3 98da 39b4 c274 2233
00000180: 2f28 d033 ea4f 5533 d916 bcb3 5bb1 7833
00000190: 13d0 c0b2 1533 94b4 530b 34b4 5608 0234
000001a0: 8cb7 41b3 185b ffb3 e2bc b9b2 9bf7 ee33
000001b0: 1b86 5a32 d5a4 f333 5815 e733 ecf5 cab1
000001c0: b629 0db4 a9e3 a3b3 694b 02b3 7421 7b33
000001d0: 10cc 2db4 5b30 e2b1 3025 44b3 fbf3 4133
000001e0: 0e4c bbb3 f2e9 72b3 9d97 df33 0593 4633
000001f0: a307 0b31 dc38 e9b3 a686 d432 eae7 adb2
