backend/models/pytorch_model.pth (torch, 107702 bytes, 19 tensors)

fc1.weight f4 [128, 108]
00000000: 24dc d13d 2ae7 c0bb c967 803d e85d 063c
00000010: 4995 8b3b 873b 0abd ae2c 84bc d28b 33bc
00000020: 28fa 26bc f880 323d 7990 d43c 3658 37bc
00000030: 81f5 813d ca20 473d 3d9f 36bd bc7d b6bb
00000040: 00e7 4a3c 4f54 bfbd fae4 8cbc 6901 3fbc
00000050: 4e9d a7bc b323 cebb a136 fc3b 5aae bd3c
00000060: 0a8f 35bd d719 373d 0c4a e53b 4298 643c
00000070: 1207 71bb e3cb fabc 1017 503c 5944 f23b
00000080: 018d 643c a9df 913c afb2 debb e8c2 19bd
00000090: 867a 58bd 743e a93c b379 763c 2e85 093d
000000a0: b7f5 bf3c 6e7a c139 8625 a93c 944a 513c
000000b0: f636 373d 0a18 21bd c9b6 0d3c c31b e33b
000000c0: 210c 4fbd 866d 163d 0c53 b43c a5b4 26bc
000000d0: 289c 253d 2d10 05bd 611a e2ba 0f81 b0bc
000000e0: d7de 243d 43a1 5ebc d0bd 333a e9c7 e43c
000000f0: 0cd9 353c 6802 663c 1ecc 86bc 1778 323c
00000100: 1b12 c33c 854e 85bc d793 27bd 8f1b f53b
00000110: 4044 e5bc a952 223b 8349 bcbc 9f2e 1bbd
00000120: 474f f0bb c75a 853a f6e2 51bc aa90 173d
00000130: 5d6b 37bd a5bb 0dbb 947e 663c 7882 d3bc
00000140: 5039 9bbc 346b 653b 02f8 85bc 150f 2dbc
00000150: 11eb a4b9 11aa ec3a e04c 6d3c 67cf 743b
00000160: fa18 243c 84c9 bebb df90 73bb d680 c83c
00000170: 863f c5bc 4cc0 363c 3a49 d7bb e520 463d
00000180: 7938 bf3c aec5 0a3d 53a1 0f3b 9732 113c
00000190: 5611 ae3b ffc2 7fba d100 4bbc 5d7a 503d
000001a0: ed0b 73bc c2f5 6d3c af26 d93c c600 d9bc
000001b0: 6629 913b baa4 c5bc f0a2 343c 831b 643a
000001c0: e9b8 3fbb ed69 f03b 0f3d 413c 51a1 2b3c
000001d0: b559 71bc f3a9 7c3c 5ab1 523b 4d96 0ebb
000001e0: 4be4 a1bb e526 de3b 800b 06bb 075d ac3c
000001f0: e0b0 7f3c 98c3 7ebc bd6f 5839 d21e ae3a
00000200: 09d1 1d3a b604 5dbb 4570 af3b b783 263c
00000210: 7021 933b f93c 0f3c d808 5238 c96b b4bb
00000220: d063 083c e50b b4ba 3217 66bb bc13 8c3b
00000230: d4da 0d3c 85fb 9ebb 6203 30bc d0c5 78bc
00000240: 8afa 96bb d584 8b3c eb60 143b 0700 f0ba
00000250: c69f 80bc 8929 89bb b0e9 123c 81c7 51bc
00000260: 908e dcbb fd0b 20bb eb55 2abc 860c 0d3b
00000270: c50f 3fbb cb1d c93a 8d2c babb d8f1 0abb
00000280: f3d6 42bb ab9b 543c d559 6e3b df13 da38
00000290: b956 98bb 6435 d23b a815 58bc 13ed b3bb
000002a0: 3cf0 e33c de08 7ebb 9115 963a 1d44 1abb
000002b0: c1db 3e3c 3803 123c b489 473c 3881 6b3c
000002c0: 37a4 933c 05d3 a33b 21b1 f03b 20c5 1d3c
000002d0: 405c a0bb c84a 79bc 8bed 48bb b9f8 d03b
000002e0: 4259 11bc d44a 593c 68ca 24bc aa90 4c3a
000002f0: 4e3a 103c aabb 5b3c abf6 863c 547e 5abb
00000300: 57c9 f13b 05c1 883c df31 273c f2c0 f03a
00000310: 0eb4 f0bb 2b28 74bc 504d 0cbc 7983 4abb
00000320: 7074 59ba a86e 013c bdda 80bc 0368 17bd
00000330: 8ee8 d7bb f2d5 03bb df1b 30bc 24fb 103c
00000340: 0e71 323c 9d4b 35bb e78b 03bb 966b 1a3c
00000350: 87db fa3b 0457 2f3c 3615 1439 7cbb 013b
00000360: 6f25 3fbb f04d 97bb 6abe fc39 6070 2b3b
00000370: e1dc ad3b f3b7 ad3c bea0 02ba 0ba6 bf3c
00000380: da5c 94bb e950 333c a402 54bc 279b 2a3c
00000390: 4161 7c3b 5a7d 2eb9 f6ed e33b 3fc5 613c
000003a0: 9acf aabb 555d 103c e875 ee3a b270 57bc
000003b0: 7203 153c aee7 38bb 7101 173c e0e0 7e3b
000003c0: 891e 673c b660 373c 1063 103b 096d 42bc
000003d0: ef6d 2bbc 24c4 3dbb 67d7 103c 0c2b 88bb
000003e0: 424c 52bb 0546 7a3b 31ed 90bc 858c 8f3c
000003f0: de17 7a3b 55d8 4dba 0286 1ebc b2b3 64bc
0.102470666 -0.005886932 0.062697954 0.0082011 0.0042597395 -0.033748176 -0.016134586 -0.010958629
-0.010191478 0.043580025 0.025947796 -0.011190465 0.06345654 0.048615254 -0.044585455 -0.005569188
0.012384176 -0.093422525 -0.017199028 -0.011658051 -0.02046075 -0.006290877 0.007696942 0.023154426
-0.044325866 0.044702377 0.0069973525 0.013952317 -0.0036777896 -0.030614799 0.012700811 0.0073934016
0.013949634 0.017806845 -0.006796203 -0.037539393 -0.052851222 0.020659663 0.015043664 0.033574276
0.023432596 0.00036903046 0.020647775 0.0127741285 0.04473015 -0.039329566 0.008649536 0.0069307997
-0.050548676 0.036725543 0.022012256 -0.010174905 0.040432125 -0.03248613 -0.0017250293 -0.021545915
0.04025158 -0.0135882525 0.00068565924 0.027927356 0.011099111 0.01403866 -0.016454753 0.010892889
0.023812344 -0.016272793 -0.040912475 0.007480092 -0.027986646 0.0024768508 -0.022984272 -0.03788626
-0.0073336693 0.0010174148 -0.012810459 0.037003197 -0.044780124 -0.0021626737 0.0140682645 -0.025819048
-0.018948227 0.0035006525 -0.01635361 -0.010562678 -0.00031455656 0.0018056055 0.01448366 0.0037355067
0.0100157205 -0.0058223624 -0.0037165207 0.024475496 -0.024078142 0.011154246 -0.0065700086 0.048371214
0.023342358 0.03387993 0.0021916225 0.008862159 0.005312125 -0.0009756535 -0.012390331 0.050897945
-0.014834386 0.014523925 0.026507704 -0.026489627 0.004429984 -0.0241264 0.011025175 0.00087016093
-0.0029254502 0.007336846 0.011794343 0.010475473 -0.0147308605 0.015421378 0.0032149167 -0.0021757067
-0.0049405447 0.006779539 -0.0020453632 0.021040453 0.015606135 -0.015549563 0.00020640991 0.0013284332
0.00060202234 -0.0033724732 0.0053539597 0.010163239 0.00449007 0.008742564 5.0076138e-05 -0.005506013
0.008324578 -0.0013736455 -0.003510904 0.0042748135 0.00865813 -0.004851761 -0.010742994 -0.015183881
-0.0046075033 0.017031113 0.0022640775 -0.0018310555 -0.015701186 -0.0041858596 0.008966848 -0.012803913
-0.006730862 -0.0024421208 -0.010396461 0.0021522357 -0.0029153686 0.0015343962 -0.0056815804 -0.002120128
-0.002973017 0.012976567 0.0036369462 0.00010398751 -0.00464901 0.006415056 -0.013188757 -0.005490908
0.027824514 -0.003876261 0.0011450519 -0.0023539134 0.011649073 0.0089119 0.012178827 0.01437407
0.01802264 0.0049995207 0.007345334 0.009629518 -0.0048938096 -0.015215583 -0.0030659165 0.0063773063
-0.008871378 0.013262469 -0.010058023 0.0007803539 0.008802963 0.013411442 0.016475042 -0.0033339458
0.007378738 0.016693601 0.010204761 0.0018368049 -0.007345683 -0.014902155 -0.008563355 -0.0030901118
-0.00082952436 0.007899918 -0.015729303 -0.036964428 -0.006589002 -0.0020116535 -0.0107488325 0.008848939
0.010891212 -0.0027663477 -0.0020072402 0.009425065 0.007655564 0.0107018985 0.00014122282 0.0019795587
-0.00291666 -0.004617445 0.00048207055 0.002615951 0.005305872 0.021205878 -0.0004983059 0.023394605
-0.0045276703 0.010944583 -0.012940083 0.010412968 0.0038510116 -0.0001664063 0.0069558574 0.013779937
-0.0052127363 0.008811315 0.0018193098 -0.013149427 0.00909506 -0.0028214264 0.009216652 0.003889136
0.014106401 0.011192491 0.0022031702 -0.011866816 -0.010463222 -0.002895602 0.008840418 -0.004155522
-0.003208891 0.0038188708 -0.017691227 0.01752306 0.0038161199 -0.00078523654 -0.009675505 -0.013958858

fc1.bias f4 [128]
00000000: 689d 9e33 201a 0430 ed9e afb2 b427 3434
00000010: df47 66b4 4e82 b1b4 c449 70b3 5247 0633
00000020: 3177 f1b0 e033 3133 4ff8 aeb3 ca9d 29b2
00000030: 880e ff32 3acc d532 af49 f4b1 1161 58b4
00000040: 3426 dd32 c790 4db3 7830 3434 b4dd 9332
00000050: 382b 8234 8749 abb3 0232 3db4 1629 a933
00000060: 3f2d 07b3 5093 23b3 3e13 6135 ddbe 2833
00000070: 1ae0 47b3 a524 f1b3 00a9 6133 2463 a5b0
00000080: 9362 d8b4 5d8b 1eb4 40fa a6b3 92e0 dab3
00000090: 1d7f d832 a262 9b33 481d c133 dda2 b733
000000a0: 9a19 1434 0914 b6b4 92a8 b133 e20c 1131
000000b0: d99d 5634 6d2f 9db3 0ee7 f832 7a71 68b1
000000c0: b8a9 80b4 22e5 7334 ef49 a52f d07e 0334
000000d0: e851 b8b3 4629 b7b2 64ad 39b2 da2c b2b3
000000e0: 843e 09b2 2029 a134 06f6 9fb4 1d7b 2fb4
000000f0: 0226 5db4 08d8 9cb3 58ad 1f30 c027 9134
00000100: bd0e aeb4 f8dc 94b4 e656 8133 2c8f e4b3
00000110: d3fe c4b2 74df 41b2 ee83 5732 ace1 0a2e
00000120: 07f2 f1b3 212a c9b2 b50b b833 9d82 09b4
00000130: ae8d 1134 7cf9 1533 bbb2 a7b3 3178 84b2
00000140: 6c23 9034 dfac 6132 aac0 72b3 74c3 b6b3
00000150: 6076 8333 6e96 feb3 395b 4f33 4003 7b31
00000160: 169d 23b4 2698 9633 1845 c4b2 a587 1534
00000170: b499 0fb4 7a39 89b2 bb6b d633 7986 3f34
00000180: fedd 9b33 c49e 6e33 80be 7cb3 da97 5e33
00000190: 62bc 6e31 c20f 3ab4 7193 99b3 22f5 f3b3
000001a0: 136c f632 bb69 f333 2501 c0b1 141b feb3
000001b0: bf01 d732 a4eb c6b3 1a72 ca33 ad8d b933
000001c0: 1e16 25b3 1711 0e34 0626 d4b4 fe1a eeb3
000001d0: a7ba 8734 2424 be32 12a6 0e34 fbdc d534
000001e0: deb0 79b2 3409 4fb3 8b11 94b3 f85a 3fb4
000001f0: 0b7d f033 e480 13b3 286f 1bb3 9611 0ab4
7.3860804e-08 4.8058446e-10 -2.0444952e-08 1.677825e-07 -2.1446566e-07 -3.3063628e-07 -5.5946444e-08 3.126417e-08
-1.7568934e-09 4.1258204e-08 -8.1476735e-08 -9.872972e-09 2.9692515e-08 2.4889335e-08 -7.1097115e-09 -2.015188e-07
2.5745159e-08 -4.7861956e-08 1.6781439e-07 1.7213871e-08 2.4245833e-07 -7.9761826e-08 -1.762019e-07 7.877149e-08
-3.1473288e-08 -3.8085375e-08 8.384703e-07 3.9289137e-08 -4.6537117e-08 -1.12291026e-07 5.25406e-08 -1.2033508e-09
-4.0304857e-07 -1.4765597e-07 -7.7754976e-08 -1.0192265e-07 2.5203514e-08 7.235691e-08 8.992589e-08 8.551226e-08
1.3792888e-07 -3.391472e-07 8.2728675e-08 2.11076e-09 1.9987728e-07 -7.319509e-08 2.8976071e-08 -3.3824947e-09
-2.3965345e-07 2.2714497e-07 3.0065858e-10 1.224646e-07 -8.583066e-08 -2.1322773e-08 -1.0807842e-08 -8.2969294e-08
-7.988664e-09 3.001851e-07 -2.9795063e-07 -1.6342933e-07 -2.0596056e-07 -7.303612e-08 5.80902e-10 2.7037277e-07
-3.242075e-07 -2.7727924e-07 6.022837e-08 -1.064312e-07 -2.2933284e-08 -1.1284886e-08 1.2544644e-08 3.1578004e-11
-1.12664615e-07 -2.3418638e-08 8.570297e-08 -1.2806636e-07 1.355572e-07 3.491867e-08 -7.8090544e-08 -1.542148e-08
2.6847863e-07 1.313603e-08 -5.6520243e-08 -8.510588e-08 6.121695e-08 -1.185516e-07 4.827891e-08 3.6527155e-09
-1.5237705e-07 7.012595e-08 -2.2848823e-08 1.3926054e-07 -1.337383e-07 -1.5975036e-08 9.9847476e-08 1.7837182e-07
7.25813e-08 5.555809e-08 -5.884658e-08 5.182651e-08 3.4740641e-09 -1.7328333e-07 -7.151437e-08 -1.1360159e-07
2.8687316e-08 1.13348015e-07 -5.5880656e-09 -1.1832722e-07 2.5030088e-08 -9.262956e-08 9.427113e-08 8.6405045e-08
-3.843717e-08 1.3230998e-07 -3.9515743e-07 -1.10876485e-07 2.5281517e-07 2.2135346e-08 1.3285197e-07 3.9835126e-07
-1.45339225e-08 -4.8204313e-08 -6.894978e-08 -1.7821355e-07 1.1198616e-07 -3.434333e-08 -3.6189846e-08 -1.2858649e-07

bn1.weight f4 [128]
00000000: 0c6e f03d 7fff 3b3d 9c4b 2f3d 6990 d13d
00000010: 0563 293e b26e 223e b0a0 ba3d 07e7 2e3d
00000020: 681e 6f3b ce7b c63d ce4f f43d e84a b13d
00000030: cd94 a83d 090b 653d 874a 0e3e 42d7 cf3d
00000040: dda2 eb3d 3e16 053e 0b17 163e 8850 053d
00000050: be1a b43d 353f 903d fa22 d03d aadf ee3d
00000060: 26ae e23d 8a5e 223e 55d3 d63d c277 c73d
00000070: c238 c53d e569 ee3d 8435 c33d a824 bb3d
00000080: 2026 dc3d 6b63 d63d e03b 0a3e bab8 8d3d
00000090: cbc5 983d 451a ce3d 704c 023e 1e4e e33d
000000a0: f3ab e23d d52c 023e 6017 0d3e 552e 763d
000000b0: d73c f23d ebff 493d 4529 bc3d c109 573d
000000c0: 1b15 003e fdd3 b03d 4d4b b03b a169 fa3d
000000d0: 5c94 d53d c72a 5c3d 5ca4 053e a90b 913d
000000e0: 9989 e13d fe2d 063e 89ea 313e 1492 e03d
000000f0: 434b c33d 5790 033e 5d00 783c e15e 173e
00000100: 66d7 e03d a24e ec3d 59cb a63d 9a6c 0c3d
00000110: 57d6 b23d b2c1 463d 88dc fd3c 866b f33b
00000120: 1dca b43d 4134 fd3c 17f7 063e 88cf 953d
00000130: 7461 d83d e839 bd3d 6cc8 c83d 09c6 593c
00000140: a13b 013d a4f9 f23c 250f e53c 8807 dd3d
00000150: ebf2 343d e4d8 aa3d b824 ba3d 2dfd 993d
00000160: 613e 9f3d fd09 c03d 657c 2b3d cf64 1d3e
00000170: 729b 9d3d c21e 183e 5154 ae3d 3e56 e33d
00000180: d2a6 873d 18ca f53d 0568 c83d 3d5e 963d
00000190: 8c96 e53c 2fa9 8b3d 2887 fd3d 0065 f33d
000001a0: e5f3 a43d 3e7f 363e 9e54 d63d 6d83 7f3d
000001b0: 3935 653d bd74 d03d 1b02 853d 49ba 263e
000001c0: d6f7 a23d cb34 aa3d 8d55 d83d 572b a03d
000001d0: fa4f dd3d a714 053e 8d5c dd3d 3632 bc3d
000001e0: 46c4 653d cc7a db3d f3f2 013e 9c39 cb3d
000001f0: dd6e e63d 7236 b63d 9743 f63d 77db ec3d
0.1173974 0.045897957 0.042796716 0.10232622 0.16541679 0.1586254 0.0911268 0.042700794
0.003648663 0.096915826 0.11929284 0.08656865 0.082315065 0.055918727 0.13895617 0.10148479
0.11505673 0.12996766 0.14657228 0.032547504 0.08794163 0.07043306 0.10162921 0.11663754
0.110683724 0.15856376 0.10489527 0.09739639 0.09629966 0.116412915 0.09531692 0.09137851
0.10749459 0.10468181 0.13499403 0.069199994 0.07459601 0.10063604 0.12724471 0.11098884
0.11067953 0.12712415 0.13778448 0.06010278 0.118280105 0.049316328 0.09187559 0.052499536
0.12508051 0.086341836 0.0053800703 0.12227178 0.10428688 0.053751733 0.1305098 0.07082302
0.11012573 0.13103482 0.17374624 0.10965362 0.095358394 0.1284803 0.015136805 0.14782287
0.10978584 0.115384355 0.08144254 0.034283258 0.08732288 0.048524566 0.030988947 0.0074285893
0.088276125 0.030908706 0.13180195 0.07314974 0.10565463 0.0923956 0.098038524 0.013291844
0.031551007 0.029660054 0.027961323 0.10792452 0.044176977 0.0834215 0.09089035 0.075189926
0.0777557 0.09376905 0.04186668 0.15370487 0.076956645 0.14855483 0.08512176 0.11100434
0.06623615 0.12001437 0.09785465 0.07342193 0.028025888 0.068193786 0.12379295 0.118844986
0.08054332 0.17821977 0.10465358 0.062381197 0.05595896 0.10178516 0.06494542 0.16282
0.07957427 0.08310851 0.105631925 0.078207664 0.1080627 0.1299616 0.10808668 0.091892645
0.056095384 0.10716781 0.12690334 0.099230975 0.11251614 0.08897103 0.120246105 0.11565297

bn1.bias f4 [128]
00000000: 011f 3fbd db7e fcbc e35a d6bc 9c0f 4ebd
00000010: 7887 d1bd 0f2c bfbd 410a 91bd c45e bcbc
00000020: 899b 99bb 95dc 21bd b602 c5bd fed9 1cbd
00000030: dead 3bbd e7ee 0cbd f5d5 9abd 631f 45bd
00000040: 522d 61bd 0642 dbbd 7aec 9ebd 67c9 89bc
00000050: 4f4d 23bd 7e62 46bd 4b1c 45bd bd0c 4abd
00000060: 3a87 40bd e6a9 a3bd e806 74bd c46e 8fbd
00000070: 2acf 87bd cd84 54bd 52f3 71bd 8570 40bd
00000080: 55f5 6cbd 9d78 87bd f8d2 babd 6df2 b6bc
00000090: 9d57 45bd a389 3dbd d3d3 69bd 8dc3 9abc
000000a0: 624d 86bd 53a2 8cbd 26da a1bd 65f2 6ebd
000000b0: d0b3 88bd a889 d5bc 9cb4 f3bb df44 0ebd
000000c0: b925 70bd 0f5d debc 2fb5 20bc 58de 95bd
000000d0: 60d8 8bbd 6801 f8bc 2fa3 77bd 33fb cebc
000000e0: ccdf 4dbd 02ef b9bd 49f7 15be f820 98bd
000000f0: a4f1 8dbd be35 99bd 4f80 50bc a631 b0bd
00000100: 4320 adbd 7004 83bd 7162 7fbd 9796 94bc
00000110: 8bc0 55bd 621c 9136 7bd9 f6bc b892 eebb
00000120: c789 96bd c2a3 e1bc 50db b1bd 92f5 3ebd
00000130: d00c 7abd 31f3 97bd 77af 81bd 26dc 1ebc
00000140: b14f cbbc d180 9fbc 798e 88bc 4cf3 9abd
00000150: e25a d9bc 92a1 33bd 979f 3fbd 384f 0cbd
00000160: 9e77 32bd 48b2 5bbd 41fa dbbc f915 f5bd
00000170: 9293 0ebc 7576 04be 1ec0 03bd bd7b 07bd
00000180: 003e 0abd 8dd3 d4bd 2c2f 92bd 779c 18bd
00000190: f911 c7bc 26d2 04bd 3ae2 72bd 7a39 8ebd
000001a0: f95a 33bd 1dae e0bd cfdd f2bc 771b fcbc
000001b0: 3a73 12bd 64d8 96bd 0deb 1fbc ab02 dbbd
000001c0: 3d14 47bd ad1b 2abd 10cb 4fbd f216 59bd
000001d0: 9333 a0bd b4ef a0bd 3bd4 95bd c33b 42bd
000001e0: d5fb 9ebc 87b2 95bd e696 64bd 78be 17bd
000001f0: 9907 a0bd 3fe7 4bbd 0516 9fbd fefa 58bc
-0.046660427 -0.030822208 -0.026166385 -0.050307855 -0.10230917 -0.093345754 -0.07082034 -0.022994407
-0.0046877307 -0.039517004 -0.09619658 -0.03829383 -0.04582011 -0.034407523 -0.0756034 -0.048125636
-0.05497486 -0.10705952 -0.07759948 -0.016819669 -0.03986865 -0.048433773 -0.048122685 -0.049328554
-0.047003962 -0.0799139 -0.0595769 -0.07003549 -0.0663131 -0.05188446 -0.05906994 -0.046982307
-0.057851154 -0.06614802 -0.0912227 -0.022332394 -0.048179258 -0.04627384 -0.057086777 -0.018892074
-0.06557728 -0.068668984 -0.07902937 -0.058336634 -0.066749215 -0.026066616 -0.007437302 -0.03473365
-0.058629725 -0.027143983 -0.009808823 -0.07317799 -0.0682838 -0.030274108 -0.06045836 -0.025266265
-0.050262257 -0.0907879 -0.14645113 -0.07428163 -0.06930855 -0.07480954 -0.012725904 -0.0860322
-0.08453419 -0.06397331 -0.06234974 -0.018138213 -0.052185576 4.324641e-06 -0.030133 -0.007280674
-0.07350498 -0.027543906 -0.08684409 -0.046620913 -0.061047375 -0.07419432 -0.063322954 -0.009696042
-0.024818273 -0.019470604 -0.016669499 -0.075659364 -0.026532594 -0.043855257 -0.046783056 -0.034255236
-0.043571107 -0.05363682 -0.026852729 -0.119670816 -0.008702176 -0.12935813 -0.03216564 -0.03307699
-0.033750534 -0.103919126 -0.071379036 -0.03725859 -0.024300562 -0.032426976 -0.059297778 -0.069445565
-0.04378793 -0.109707095 -0.029646782 -0.030774815 -0.03575442 -0.07365492 -0.00976063 -0.10693868
-0.048603285 -0.0415303 -0.050730765 -0.053000398 -0.07822337 -0.0785822 -0.073158704 -0.047420274
-0.019407192 -0.07309442 -0.05580797 -0.03704688 -0.07813949 -0.04978108 -0.07767872 -0.013243435

bn1.running_mean f4 [128]
00000000: a937 e13a 4f18 1b3c 30af 8eba 77a5 94bc
00000010: dc3b 9e3a 403c 2fbb dc8b a53c bfb9 dc3b
00000020: 1939 bc39 50f4 0dbc 5a44 563a 6f89 1a3c
00000030: 00ea 9137 96af 20bc 579e 42bc 2dd0 55bc
00000040: a884 63bb a773 f03b 1d6f b4bb 5c29 3eb9
00000050: 0a38 58bc 7e1c 933b 5c2e 97bb c02f 51b9
00000060: b633 353c 3ab6 ec3b 2272 ebba a419 8a3b
00000070: f076 efbb 1dd6 dabb b6f8 dabb 8dc3 973c
00000080: df29 2b3c 1ca8 113c d4f9 3d3a 4730 143c
00000090: dde7 8e3a 0725 12bb 642f 8c3c 8414 bdba
000000a0: d2b0 07bc cfbf 933b dfd0 b73b 4757 043b
000000b0: ea07 813b ebd2 72ba 08bb c53a 623b 403b
000000c0: 4aa7 9f3c 5c0a a83b dbe9 9bba 821c 7abc
000000d0: 1c14 64bc dc05 0c3c 6d23 afbb 36e2 1aba
000000e0: acf5 a2ba 9135 063c 237c 8e3c a06b babc
000000f0: a0d4 be3b 1ec2 97bb aee1 0b3b 3906 813b
00000100: 00dc c137 9ea4 a6bc 38e7 c83b 8ae9 0dbb
00000110: 3420 91ba bac8 0d3c dceb 953b 018c 073b
00000120: 787e c8bb 0f99 d53a 8491 25bc afa8 523b
00000130: 7eac 9c3b 273c 60bc d332 73bb 3bf4 9eba
00000140: ad2d 76bb 6093 8abb 60cb 10b8 6f17 d0bb
00000150: 4079 cfba 655b d03a 48a0 9a3b 234c fb3b
00000160: cf63 933b 5431 d8bb 8bba 28bb e8dd 0f3b
00000170: ecac c23b 9e3d b73c 90c5 283a 7885 cebb
00000180: 6e40 403b 229b 0d3c 3a58 7cba b862 8a3c
00000190: 288c 30b9 84c1 d1bb 50e8 233c 40c9 7b3b
000001a0: 06c4 ba3b ec4e 0abc 068f c63b e89e 073c
000001b0: 7563 cf3b f72c 38bc 0612 8bbb 40e8 3d3c
000001c0: fbc7 833c 739d 54bc 120c 5c3b 8cfa 49bb
000001d0: e245 a33b 3909 1a3b bc71 fd3a 8c24 4f3c
000001e0: dedb 3dbb 1dd4 b23b cf89 43bb 8c24 f9bb
000001f0: a5ee 5f3c 344f 93ba 3c05 353c 6020 903a
0.0017182726 0.009466245 -0.001088595 -0.018145306 0.0012072283 -0.0026738793 0.020208292 0.00673601
0.00035900695 -0.008664206 0.00081736373 0.009432181 1.7394312e-05 -0.009807488 -0.0118785715 -0.013050121
-0.003471652 0.0073380056 -0.00550641 -0.0001813522 -0.0131969545 0.0044894805 -0.0046136808 -0.00019949581
0.011059692 0.0072238715 -0.0017963091 0.0042144824 -0.0073078796 -0.0066783563 -0.0066824807 0.018525863
0.010446995 0.008890178 0.0007247005 0.009044713 0.0010902841 -0.0022299902 0.017112441 -0.001442567
-0.008281903 0.0045089494 0.005609616 0.0020193623 0.003937711 -0.00092629966 0.0015085647 0.002933227
0.01948895 0.005128188 -0.0011895256 -0.015265586 -0.01392081 0.008546319 -0.0053447993 -0.0005908342
-0.0012432835 0.008191482 0.017393177 -0.022756398 0.0058236867 -0.004631295 0.0021344232 0.0039375094
2.3109838e-05 -0.020342167 0.006131079 -0.0021654093 -0.0011072219 0.008653814 0.004575236 0.0020682814
-0.006118592 0.0016296225 -0.010105494 0.0032144 0.004781305 -0.013686216 -0.003710915 -0.001212723
-0.0037563846 -0.0042289943 -3.4521683e-05 -0.0063504498 -0.0015828982 0.0015896378 0.004718814 0.0076689883
0.004497982 -0.0065976772 -0.0025745954 0.0021952335 0.005941024 0.022368249 0.00064381305 -0.006302532
0.0029335278 0.008642944 -0.0009626184 0.016892776 -0.0001683688 -0.0064012427 0.010004118 0.0038419515
0.0056996373 -0.008441668 0.00605953 0.008277632 0.006328995 -0.011241189 -0.004244092 0.011591017
0.016086569 -0.012976992 0.003357653 -0.0030819504 0.004982696 0.0023504032 0.0019336264 0.012642991
-0.0028970162 0.005457415 -0.002983678 -0.0076032337 0.013667737 -0.0011238814 0.011048611 0.0010995977

bn1.running_var f4 [128]
00000000: aadf b83d f239 873c 5a38 db3c 5cfc c93d
00000010: ce0e 263e a2d2 1b3e 99ab b83d c5a4 9f3c
00000020: 6bfa 2339 a496 a63d b118 cb3d 1fa7 873d
00000030: 251a 483d c897 363d 505c f73d 1050 a73d
00000040: ed39 be3d e355 c53d d87a 043e dd24 a93c
00000050: 4f11 ab3d c344 4d3d b8d3 fa3d 5492 ab3d
00000060: a223 c53d e53a 153e 190a c13d 666c d83d
00000070: a622 893d 9dd6 f23d 0f6a d43d 7396 823d
00000080: 2ec2 b23d ed76 a03d 76e7 ee3d 5ab4 8c3d
00000090: e4e6 703d bb96 a13d b2bc de3d 8e01 b13d
000000a0: 9db3 cf3d 9d8f e33d bfae e53d 8b7c be3c
000000b0: f7b0 dd3d 49ed 9a3c 342d 003e cd70 c13c
000000c0: befb 123e 6a0d 9f3d ee4e da39 69ba ef3d
000000d0: a56b 953d 5502 153d 472a e83d e56a 633d
000000e0: e3c1 d53d 0990 013e 1e3a 3b3e 51a4 f93d
000000f0: 5760 a83d 74f2 ea3d 1dd9 f63b 2149 dd3d
00000100: 3c13 bb3d 5540 d83d 2896 803d 91bc 563c
00000110: 6bcf 5f3d 76a8 683d 9ed5 113c 5727 af3a
00000120: a3e1 8c3d 865a 613c c0ce d93d fbe0 6d3d
00000130: 937d b23d b9c9 ba3d 621c b23d 491a 4a3b
00000140: f315 833c 7e8c 383c ffec ef3b b147 8b3d
00000150: 6494 0c3d 90c8 863d 06df 9f3d 1be6 983d
00000160: 6d74 813d 772f a63d 55b7 9f3c cc16 1d3e
00000170: 63e6 ca3d 3008 cb3d fc3c 803d e78d e93d
00000180: da38 4e3d 8978 9e3d 1819 963d 337d 963d
00000190: 99f1 e73b 32fd 5c3d 352d ca3d 19d8 ce3d
000001a0: 1b06 803d 0f47 463e ecc4 e73d c8c5 493d
000001b0: 400d 433d 2dcc 163e fc35 2d3d 9333 173e
000001c0: 8feb a23d eeb4 883d c3bb b13d f71b 4e3d
000001d0: edf5 983d cb3c c53d 8a5f bc3d 37d5 e93d
000001e0: 6039 753d 146f af3d cb1f 023e 4919 bc3d
000001f0: e471 cd3d d262 2a3d c435 be3d 30ef 343e
0.090270355 0.016507123 0.026760269 0.09862587 0.16216585 0.15217069 0.09017105 0.019487748
0.0001563818 0.08134201 0.09916819 0.06623673 0.04885306 0.044578344 0.12078154 0.081695676
0.09288392 0.09635522 0.12937486 0.02064746 0.08352911 0.050114404 0.122474134 0.08377519
0.09625937 0.14573248 0.09425754 0.1056755 0.06696062 0.118573405 0.103717916 0.06376352
0.08728443 0.07835183 0.116652414 0.06870337 0.058813944 0.07890078 0.108758345 0.08642875
0.101416804 0.111113764 0.11214971 0.023252746 0.10824769 0.018911975 0.12517244 0.023613358
0.14353845 0.077662304 0.00041639007 0.11705477 0.07295922 0.036379177 0.11336189 0.055521864
0.104373716 0.12652601 0.18283889 0.12189544 0.082215 0.114720255 0.007533206 0.10804964
0.09134528 0.10559145 0.0627864 0.013106481 0.05464117 0.056801282 0.008901028 0.0013363165
0.06878974 0.013754493 0.106351376 0.058075886 0.08715358 0.09120507 0.0869682 0.003083842
0.016001677 0.011263965 0.0073219533 0.068007834 0.034321204 0.06581223 0.0780621 0.07465764
0.063210346 0.08114522 0.0194966 0.15340728 0.09907224 0.09913671 0.06261632 0.11404019
0.050347187 0.07737834 0.07329005 0.073480986 0.007078361 0.053952403 0.09871904 0.10099811
0.062511645 0.19363044 0.11316857 0.049260885 0.047620058 0.14726324 0.04228781 0.14765768
0.079550855 0.066751346 0.08678391 0.050319638 0.074687816 0.09630736 0.0919791 0.11417621
0.05986917 0.08566108 0.1270744 0.0918451 0.100314885 0.04159815 0.09287599 0.17669368

fc2.weight f4 [64, 128]
00000000: b4ef 68bc a58a 3ebc 077b 853c fbb6 0b39
00000010: 3aba ad3c b6d3 033c e251 ae3b 17e8 89bb
00000020: 299b 5139 dbdc d9bc c509 afbc cddf 953b
00000030: a4bb 453c 1260 263c 4325 cebb 5683 7e3c
00000040: 32c1 95bb 38fa 773c eb87 a03c 9247 133b
00000050: d13e 2d3c af1a 4bbb 0c7b 71bc c8d8 57ba
00000060: cc67 a2bb 8b19 85bc 4608 b43a c814 a3bc
00000070: 804c 11bb 8b44 03bc 578b 583b 9e7b ceba
00000080: 8907 413c 189d 25bb eb8a c63b 0c3f 2bbc
00000090: 50df 5d3c 7878 5d3b c097 64bc f66d 85bc
000000a0: 0e5f c6bb 4b9c 94bb 4bee 9dbc 3e24 053c
000000b0: 4ab1 9ebc 680b 87bc 220f 81bc efd4 4cbc
000000c0: 7a84 babc b9ed 8fbb 3eeb 7436 be7d 323c
000000d0: 450e 86bc 41f8 523c af65 473c 4fe0 6c3b
000000e0: b85c 72bc e4ce 96bc 5aba 2a3c 71a8 893b
000000f0: d594 b43b b9f5 99bc 7eb6 113b 9e80 c0bc
00000100: 2857 753a 962c c23b 27bf 903c ac0e 30bc
00000110: 53e0 7e3a ce3e 95bc 1c45 303c 8be8 e239
00000120: 8812 033c b716 663b 999b a7ba 93c6 a1bb
00000130: 49aa c5bb eefa 403b 7544 82bc f74e 3dbb
00000140: 7bf4 d83b 1b1d 033c 7d1e 473b ea0c d33b
00000150: e0ea 68bc 4a57 9c3b 32ab 90bc 7e4f a9bc
00000160: 3d8e 07bc 979e 373c c04f 6d3c a4cb 9a3c
00000170: 0294 afbc 1dff 6abc e5b1 8ebc d916 b5bc
00000180: f1ff b8bc ccdf a0bc 1453 0fbc cd41 78bc
00000190: 4a06 003b 6754 9c3a 429f e1bc 9ada 92bc
000001a0: 677f a4bc 08f5 9cbc 7c87 1e3c e60a 35bc
000001b0: 5683 a4bc 8f14 ec3b aa51 70bc 62c4 d93c
000001c0: 8833 34bc 9e81 cf3a 3281 5dbc 9010 01bd
000001d0: e048 94ba a8ca dabb d66a 333b a420 93bc
000001e0: cbdd 1dbc f358 a3bb 8a9f 0e3a ba73 31bc
000001f0: 32ee b4bb 385d 853c 1b4a 9cbc 7090 5dbc
00000200: 0c0d 9e3b 1610 bebb ecbe 54bb 0aa0 9bbc
00000210: 69b5 09bd 19bc b3bc c91b d7bb 316f 063c
00000220: 6bc0 d639 73d7 b13c df7e 083c 8773 743a
00000230: 377b 953b c473 64bc e967 8d3c 40f1 0a3d
00000240: 9612 bbbc e1be e93b 09d3 e8bc 1ca6 803c
00000250: ad5a a7bb 115e 92bc cfbb 54bc 480c 2dbc
00000260: 2557 aabc 8adc 8bb9 a7b1 99bc 211d 3a3c
00000270: 9276 65bc 5699 503c 192a dbbc 03de d63c
00000280: 7c5e c9bc be3d 9cbc 84c1 96bc 3141 b4bc
00000290: 2902 c9bc 50b0 cebc e92e 90bb 81b7 68bb
000002a0: 7eef 973c b224 22bc 806a 803c 5a95 83bc
000002b0: c5c5 443c efae 8dbc 4322 0cbc 2ef3 d53b
000002c0: 6762 c0bb 1770 aabb 7221 913a b80f 80bb
000002d0: 490b fb3b 61fb c8bb 781a 6fbc 98ca c83c
000002e0: 50d7 12bb 2725 cc3c c6e9 ffbb 9472 db3b
000002f0: 597e 86bc e067 d63c 9feb 8cba 6e49 a93c
00000300: 8bb2 6d3b b413 993c 6eab 7fbc 2fe8 463b
00000310: 1a08 7cbc ec33 63bc c4f3 9fbb bb68 32bb
00000320: 53ab 46bc 2c5a a9bb 2ff9 fdbb 27c7 a9bc
00000330: 5753 b53b 6c8d b53c 0144 b9bb d65b c03b
00000340: 457b 523b e681 a5bb e379 c23b 3f3c 48bc
00000350: 168a 913c de65 b13b 8c89 323b 7349 72bb
00000360: a776 6f3c 6055 4e3c c571 7dbb c399 61bc
00000370: 50f5 5a3a 3a47 cc38 bdd4 8a3c 582c 513b
00000380: ddb1 8dba b81e 23bb 5b03 933b 5e9a b3bc
00000390: 8dff 7c3b 0ee8 b23c 7502 5d3c dacb e73b
000003a0: 1198 b83b 8da4 ba3c 1f76 e2bc 545d 9dbc
000003b0: 0554 9b3c 168c 2abc 24dd 84bc 1412 fabc
000003c0: b0fd f83b 76a7 55bb 01fe 843c df6c 3cba
000003d0: 0fa9 843c aca9 0dbc f2ca 6cbc ef86 2f3c
000003e0: 9e57 c93b 5b0e 0d3d c360 57bc 0bea 9abc
000003f0: 11bc 94bc 3f43 023c edf9 473c eafb e2bb
-0.014217306 -0.011629735 0.016294016 0.00013324239 0.021206964 0.008046081 0.00531982 -0.0042085755
0.00019989595 -0.02659457 -0.021366963 0.0045737983 0.012068663 0.010154741 -0.006291063 0.015534243
-0.00457015 0.01513534 0.01959606 0.002247308 0.010574059 -0.0030991246 -0.014738809 -0.0008233902
-0.004956221 -0.016247531 0.0013735376 -0.01990737 -0.0022170842 -0.008011947 0.0033042037 -0.0015753394
0.011781582 -0.0025270637 0.006059041 -0.010452043 0.013542011 0.0033793729 -0.013952196 -0.016287785
-0.006053812 -0.004535233 -0.019278666 0.008126317 -0.019371647 -0.016484931 -0.015754286 -0.012501939
-0.022768248 -0.0043923524 3.6495762e-06 0.010894237 -0.016364226 0.012876571 0.012170239 0.003614444
-0.014792614 -0.0184092 0.010420406 0.004200988 0.005510906 -0.018793928 0.0022234018 -0.02349883
0.00093589956 0.005925725 0.017669274 -0.010745686 0.0009722758 -0.018218424 0.010758664 0.00043279337
0.008000024 0.0035108754 -0.0012787461 -0.004937002 -0.0060322625 0.002944644 -0.015901783 -0.0028886178
0.006620941 0.008002545 0.0030383163 0.0064407485 -0.014216155 0.004771148 -0.017659757 -0.020667788
-0.008273658 0.011207244 0.014484346 0.018895932 -0.02143288 -0.01434305 -0.017418811 -0.022105621
-0.02258298 -0.019637965 -0.008747835 -0.015152407 0.0019534999 0.0011927009 -0.02754176 -0.017926503
-0.020080281 -0.019159809 0.009675857 -0.011049962 -0.020082157 0.007204599 -0.014667908 0.0265829
-0.010998614 0.0015831476 -0.013519572 -0.031509936 -0.0011313222 -0.0066769905 0.0027376912 -0.0179599
-0.009635399 -0.004984969 0.0005440643 -0.010830814 -0.005521559 0.016279802 -0.019078305 -0.013523206
0.0048233327 -0.0058002574 -0.003246243 -0.018997211 -0.03362027 -0.021940278 -0.0065645915 0.008205221
0.00040960623 0.02170918 0.00833103 0.0009325076 0.0045618075 -0.013943616 0.017261462 0.03392148
-0.02283601 0.0071333502 -0.028420942 0.015704207 -0.005107245 -0.01786712 -0.01298423 -0.01056201
-0.020793507 -0.0002667646 -0.018761469 0.011359484 -0.01400532 0.012731871 -0.026753472 0.02622891
-0.024581186 -0.01907241 -0.018402822 -0.022003742 -0.024537163 -0.025230557 -0.0044001234 -0.0035509767
0.018546816 -0.009896444 0.015675783 -0.016062427 0.012010043 -0.017295329 -0.0085530905 0.0065292334
-0.0058711055 -0.0052013504 0.001107259 -0.003908124 0.0076612574 -0.0061334823 -0.014593713 0.024510667
-0.0022406168 0.02492006 -0.0078098504 0.0066970084 -0.01641767 0.026172578 -0.0010751373 0.020664897
0.003626975 0.018686153 -0.015604837 0.0030350795 -0.015382791 -0.01386736 -0.004881354 -0.0027223069
-0.012125808 -0.00516822 -0.0077506523 -0.020724846 0.0055336165 0.022162162 -0.0056538587 0.0058703227
0.0032116931 -0.0050508855 0.00593494 -0.012221395 0.01776604 0.005413755 0.002724263 -0.0036970049
0.014615691 0.012593597 -0.0038672548 -0.01376957 0.00083525945 9.740745e-05 0.016947145 0.00319173
-0.0010810454 -0.0024890136 0.004486484 -0.021924194 0.0038604469 0.021839168 0.013489355 0.0070738615
0.005633362 0.022783542 -0.027644215 -0.019209541 0.018960962 -0.010409376 -0.01621873 -0.030526198
0.0075986013 -0.0032601035 0.0162344 -0.0007187854 0.016193895 -0.00864641 -0.014452683 0.010713323
0.006144478 0.03443752 -0.013145628 -0.018910429 -0.018156083 0.007950603 0.012205583 -0.006927003

fc2.bias f4 [64]
00000000: e193 01b5 1c7f 5fb4 b415 abb5 61cb 57b5
00000010: bb1b abb5 eed1 8eb2 427e 24b6 5ca1 8b35
00000020: 987d 48b5 25a1 b1b5 f532 b835 9855 e6b5
00000030: 1108 6336 cdc5 b835 0b61 35b6 dc18 a0b4
00000040: ac59 fdb4 a624 b735 ce21 cdb4 0818 b935
00000050: 5d50 a736 2451 aa34 3c5d c3b5 a8fd 08b4
00000060: 3b56 e5b5 e7d7 b935 94f7 1c35 76ea 2a35
00000070: cf21 8eb6 6e76 5c00 4670 3134 9c37 6db5
00000080: 77dd 5434 42c1 6cb5 9f70 70b5 5b10 5ab5
00000090: 1bee 97b5 e413 9b15 627c 9536 d955 7c35
000000a0: 4886 f635 4ab6 d1b4 caf9 0bb6 a9bf 01b6
000000b0: acce b2b5 7dfe ba35 6e4b 0535 165a 33b5
000000c0: 56ae 7e36 90bf 9ab6 10ee 3135 1b40 4b35
000000d0: 9321 5135 5604 e3b6 15ed 7a36 3a8b aa34
000000e0: 167a b0b5 79a6 aab6 f311 7e36 9343 5136
000000f0: 4695 3534 9c25 0736 dc7f 37b4 7bbb ea35
-4.8271437e-07 -2.0814736e-07 -1.2746809e-06 -8.0389697e-07 -1.2748563e-06 -1.662644e-08 -2.4511396e-06 1.0403269e-06
-7.468857e-07 -1.3234427e-06 1.3723899e-06 -1.7161246e-06 3.3830331e-06 1.3766636e-06 -2.7027588e-06 -2.982041e-07
-4.7190167e-07 1.3645229e-06 -3.8208822e-07 1.3790568e-06 4.9863434e-06 3.1724005e-07 -1.4555767e-06 -1.2758267e-07
-1.7086926e-06 1.384641e-06 5.84748e-07 6.367112e-07 -4.2358656e-06 8.49135e-39 1.6525254e-07 -8.83703e-07
1.9824607e-07 -8.819808e-07 -8.957085e-07 -8.123513e-07 -1.1319675e-06 6.2635383e-26 4.455026e-06 9.400224e-07
1.8367509e-06 -3.9061916e-07 -2.085801e-06 -1.9334059e-06 -1.3322183e-06 1.3932146e-06 4.9656126e-07 -6.681379e-07
3.7950426e-06 -4.6118585e-06 6.6284065e-07 7.571668e-07 7.7907424e-07 -6.765632e-06 3.7390903e-06 3.1766268e-07
-1.3148554e-06 -5.085775e-06 3.7859397e-06 3.118276e-06 1.6911244e-07 2.013846e-06 -1.7089718e-07 1.7488923e-06

bn2.weight f4 [64]
00000000: d71c a53d e004 c23d 2bfc 9b3d 2fbd bf3d
00000010: 06a7 8e3d 09f0 823d 7a75 a93d e908 d03d
00000020: 2ae3 e93d 4287 7c3d ab75 a33d 3914 ae3d
00000030: f9da b43d f293 e13d e1d8 1d3d 174b c53d
00000040: 5286 a13d b359 953d 073d d63d c6ed d43d
00000050: 5610 c83d 8fc2 5a3d 2bb7 893d b5d1 eb3d
00000060: a763 d73d b8f9 833d b47c 6b3d cf12 af3d
00000070: faed bf3d 210a 8e3a 5f60 b43d f35e 083d
00000080: 6100 9c3d 2dc6 cc3d cece a83d ea1a 7d3d
00000090: e93a 003e 6b6d 253b a972 a53d 636d af3d
000000a0: 0345 9f3d 4198 b43d 72eb a63d 566f da3d
000000b0: 62b7 db3d 45f7 c13d e815 983d 18b9 b93d
000000c0: 43f9 da3d 7408 dc3d e810 cb3d bd33 c33d
000000d0: 876e 833d 79e8 a13d e77e d73d 656a e13d
000000e0: d880 b13d b165 bf3d 0c99 9e3d 4c9d b23d
000000f0: 0a22 fe3c 4b6b a63d 2b7e 973d 2da8 9c3d
0.080621414 0.09473586 0.076164566 0.09362256 0.06965451 0.06393439 0.0827436 0.101579495
0.11420281 0.06165243 0.07981428 0.08499951 0.08830828 0.110145465 0.03853691 0.09633463
0.07886948 0.072924994 0.10460859 0.10396914 0.09768741 0.0534082 0.0672439 0.11514608
0.10517054 0.064441144 0.057491973 0.08548509 0.09371562 0.0010836759 0.08807444 0.033293676
0.0761726 0.099987365 0.0824257 0.061793245 0.12522472 0.002524222 0.0807851 0.08565786
0.07776835 0.08818103 0.081503764 0.10665767 0.10728337 0.09470991 0.07426053 0.09068507
0.10692074 0.107438 0.09915334 0.09531353 0.06417566 0.07905669 0.105222516 0.11006621
0.08667153 0.09345568 0.07744035 0.08721408 0.03102209 0.08125933 0.073971115 0.076492645

bn2.bias f4 [64]
00000000: e65c 3cbc 8af3 97bb 9067 9b3b e723 a9bb
00000010: ee65 f23a dc99 4fbb 29c6 d73b a5c9 d4bc
00000020: 16a8 c7bc 737b a63c d46d 153b 3abd 8f3c
00000030: 8008 9cbb 3d5e 8bbc 2924 603c 25c7 62bc
00000040: c934 c13b c75c bfba abf0 2dbc 45a5 82bc
00000050: 41bd b4bc 07e5 5aba b8c6 593c 57c6 c1bc
00000060: 8fc4 493c 0ee2 743c c9e9 323c e4f6 653c
00000070: 4240 833c dda7 9cba 9cb6 6b3c 355b 963c
00000080: 061b 9e3c cde2 79bc 430b e1bb 5e5e 2a3c
00000090: c55f aebc 452e bfba c1c2 64bc 2b5e a5bb
000000a0: 4d5f 813c 76c5 81bc 8e3c c33b 9cba a0bc
000000b0: f299 84bb 21f0 93bc efcb 543c d897 0b3c
000000c0: dfc5 52bc 740c dfbc 699d 66bc b473 33ba
000000d0: dce3 313c 236d 98bb 0214 79b9 b93d 02bd
000000e0: 6cf9 05bc 4c17 9dbc 4cf4 733b a81d 493b
000000f0: a358 b43b 2382 f3bb fa7b b13c b1c6 ca3b
-0.011496758 -0.0046371864 0.00474257 -0.0051617506 0.0018493512 -0.00316774 0.006584902 -0.025975058
-0.024372142 0.020322537 0.0022801058 0.017546285 -0.0047617555 -0.01701271 0.013680496 -0.013841425
0.005896185 -0.0014599793 -0.010616462 -0.015947947 -0.0220629 -0.0008350168 0.013292007 -0.023654146
0.01231493 0.014946474 0.010919997 0.014035914 0.016021851 -0.0011951883 0.014386799 0.018354038
0.019299995 -0.015251827 -0.0068677976 0.010398475 -0.0212859 -0.0014585933 -0.013962449 -0.005046626
0.015792513 -0.015841227 0.0059581464 -0.019620232 -0.004046672 -0.018058838 0.012988075 0.008520089
-0.012864559 -0.027227618 -0.014075615 -0.0006845549 0.010857549 -0.004651682 -0.00023753944 -0.031797145
-0.008177143 -0.019176148 0.003722447 0.0030687843 0.0055037304 -0.007431285 0.021665562 0.0061882366

bn2.running_mean f4 [64]
00000000: 3d32 31bc a7d5 96bb dbd9 e6bb c0e9 43bb
00000010: 14b4 34bc c1a6 02bc 7514 03bc a3c2 55bc
00000020: 0aca 9bbc cddd 2bbb 0220 a8bb 5894 d2ba
00000030: 9463 1fbc cede 08bc 6e18 093b c1a5 0abc
00000040: a766 d4bb 1eea d2bb dcc4 18bc 4ec9 92bc
00000050: 2b92 13bc 41f2 86bb 64fb bcba 0dd1 42bc
00000060: 8334 e7bb 242c babb 580b 3f3b c09d 08bc
00000070: cd16 3fbc 98b2 2cb7 26e6 b4bb 9ee9 33ba
00000080: 6951 dbbb 3ca9 8abc 7e8e 3ebb 05c9 c6bb
00000090: b41a 3dbc 6b70 8f38 1bfe 09bc 65f1 88bb
000000a0: b9f1 12bc 8cbb 43bc 3df1 10bc c855 3fbc
000000b0: 177c 73bc 42bc 30bc a4d5 cfbb d21e dfbb
000000c0: 56f3 72bc bfe3 27bc e494 0bbc c699 69bb
000000d0: f0f3 c0bb 1e82 0ebc c012 49bc 32c7 30bc
000000e0: 4d05 0cbc e9ee 74bc ec79 15bc 8660 0dbc
000000f0: 712c adbb 33d6 1cbc 40b5 b3ba 058b 7ebb
-0.0108152 -0.004603106 -0.0070450134 -0.0029893965 -0.011029262 -0.007974328 -0.008000483 -0.013046893
-0.019017238 -0.0026224733 -0.0051307688 -0.0016065938 -0.009728331 -0.008353902 0.0020919102 -0.00846237
-0.0064819637 -0.0064366003 -0.009324279 -0.017918255 -0.009007017 -0.0041182344 -0.0014418182 -0.011890662
-0.0070558204 -0.0056815315 0.0029151049 -0.008338392 -0.011663151 -1.0293581e-05 -0.0055206 -0.000686312
-0.0066930545 -0.0169264 -0.0029076631 -0.006066444 -0.011542011 6.839711e-05 -0.0084224 -0.004179167
-0.008968764 -0.01194657 -0.008846578 -0.011678167 -0.014861128 -0.010787072 -0.0063426066 -0.006809094
-0.014828524 -0.01024717 -0.008519385 -0.0035644635 -0.0058884546 -0.008698015 -0.012272537 -0.010789679
-0.008546186 -0.014949539 -0.009123307 -0.00862897 -0.005284839 -0.009572553 -0.0013710633 -0.0038840186

bn2.running_var f4 [64]
00000000: 76cb a539 0aa3 bc39 3d11 a639 1849 c839
00000010: 7000 8839 becc 6739 5da5 9439 ff77 b439
00000020: 62df f439 92a1 1739 0a5c a539 8d84 9839
00000030: 2ead a239 880e da39 caed c638 3ee4 bf39
00000040: 08a8 9b39 ddd4 9239 d15f da39 d3f3 ba39
00000050: 86c8 9539 6d34 fd38 f637 7739 2fe8 023a
00000060: b674 be39 c855 3939 307a 6b39 6a43 a039
00000070: ccf5 8139 97e9 e830 df20 7c39 ce48 b138
00000080: c86e 8b39 c030 f439 9061 8739 65dd 4a39
00000090: cf5f 013a 1424 2932 5f06 9139 99aa 9c39
000000a0: 2981 7139 eed9 9d39 7e3a c539 37fe 9f39
000000b0: bd9c b439 a9d3 c339 9967 6d39 6828 bd39
000000c0: c184 ad39 e66b 9c39 e943 a439 9925 e439
000000d0: 682f 3f39 f761 9739 ce74 b039 04d7 d139
000000e0: ee3f 9f39 ebf2 ce39 4530 7939 ee00 aa39
000000f0: 2b35 8638 4a7f 8a39 2fab b539 fe10 8739
0.00031622843 0.00035979628 0.0003167483 0.00038201432 0.00025940267 0.00022106149 0.00028351965 0.0003442168
0.0004670574 0.00014460672 0.00031539827 0.00029090457 0.00031028077 0.00041591027 9.4856674e-05 0.00036600413
0.00029689097 0.00028005886 0.0004165159 0.00035658348 0.00028568896 0.00012073745 0.00023576603 0.00049937045
0.0003632658 0.00017674931 0.00022456865 0.00030567806 0.0002478793 1.6946612e-09 0.00024044838 8.4535786e-05
0.00026594684 0.00046575628 0.00025821896 0.00019346697 0.0004935236 9.845298e-09 0.00027661302 0.00029881744
0.00023031667 0.00030107744 0.00037618348 0.00030516248 0.00034449055 0.00037350997 0.00022640674 0.00036078994
0.0003309604 0.0002983503 0.00031331115 0.0004351556 0.0001823284 0.00028873954 0.00033656362 0.00040023786
0.00030374475 0.0003947237 0.00023764472 0.0003242562 6.399521e-05 0.0002641625 0.00034650552 0.00025761867

fc3.weight f4 [32, 64]
00000000: 8e2c 7b3c 665a f03b 9ee3 283c 3b5e 963c
00000010: e8eb dc3c eb54 063c 2984 a0bc 19af 983c
00000020: 3cd3 e13c f19b 80bb 46c0 af3c 901e 08bc
00000030: 39ec cc3a b9f8 d0ba 9be3 813c 3385 7a3c
00000040: 62d6 62bc f4ff 333c d6de 0abc bced ecbb
00000050: 662b 51bc 3711 1bbc e95c 8ebc 75d3 ba3c
00000060: afef a1bc 11e8 413c e4a6 bb3c cec8 3bbb
00000070: c0c3 debc bef4 8d3a acf1 adbb 8e57 89bc
00000080: dbfb 91bc 9010 953c 3d54 1dbc b399 1ebc
00000090: f3ec 2cbc 9188 8c39 c1c4 4b3c e2e3 ccba
000000a0: 1c64 3e3b fa2d 45bc 077c d23b cabc febb
000000b0: 8964 8abb b725 a83c ebd8 66bc b658 e3bb
000000c0: cc77 fdbb 9abf 6d3c 9fac 4bbc 95fb ff3c
000000d0: a987 fd3a 4634 923c 56cb 0abd 8eb8 a13c
000000e0: 2516 49bc d7aa 493c 951d f33b 8b71 4fbc
000000f0: 690d 28bb 774f 6ebc 17be 013c 7b64 b7bb
00000100: 4865 90ba 9c9e b13c 0361 62bc f772 5bbb
00000110: 1d47 58bc a5ca 9fbb bb7f 55bc d5a5 84ba
00000120: 8ae2 06bc 8f14 9e3b b7f4 d53a 8e39 b73b
00000130: 76f2 273c 5e0e 123d 8363 16bc cdbf b53a
00000140: 6114 923c 502e 8abb fe23 e83c 909e f4bc
00000150: 52db c73c 9e39 bdba 44e5 983b 1aab 67bb
00000160: 7d89 a13c 2bf2 7ebc a352 cfbb 7bf2 5ebc
00000170: 2f67 c7bb 89b7 e437 c8fd 71bc be39 ebbb
00000180: e82f 023c 6ae2 1fbc 4557 df3c eb1b 053b
00000190: 4877 db3c 58f1 9bb9 8831 bc39 1221 043c
000001a0: 10ec ccbc 0369 ba3b 8f30 a5bc f1b9 9b3c
000001b0: 795e c8bc e40d 1bbc 32ac fc3b 2e10 523c
000001c0: cae1 7b3c 873d 943c 2e2e 1c3d fca8 df39
000001d0: f6de a7bc 2911 abbb 0895 6d3c 71e9 993b
000001e0: 2cbe 4d3c 11b7 7abb 0faf 83bc e862 833c
000001f0: e20a 4cbc 8f1b c93b 9c30 68bc 3c3a 5e3c
00000200: 9ab2 953c e149 e33a c226 a23c 4a10 6a3c
00000210: 5146 893c df58 963c ff5b 9ebc bbcf a23c
00000220: 2847 403c 46c6 37b7 fa9e 303c 0202 20bc
00000230: 1630 31bc 09e6 323a 6589 2c3c 7a81 873c
00000240: 8d71 24bc ad30 503b a951 8fbb 9a4f ac3c
00000250: 42a9 d8bb 9384 f5bb 4057 87bc 6b8f 9f3c
00000260: d035 9bbc 1f7b 933b 4f3f 583c e4f5 513c
00000270: 0b32 82bc 07ad ad39 eaf0 953b e2eb c2bb
00000280: 1783 11bc 3492 da3b b901 b0ba 8e40 43bc
00000290: 3916 35bb 6d2a 6a39 48dc 543c 791d d4bb
000002a0: 1739 ac3b da9e d1bb d449 6a3c c5cd b6bb
000002b0: fd23 543c a1d0 9f3c 2a29 90bc 788b 92bc
000002c0: 19dd 40bc 97b2 813c e5f5 adbb fe63 dd3c
000002d0: 1e25 f93a 7ba4 a33c 2160 54bc 1054 373c
000002e0: 8ee9 03bc 5892 a83c 3fb6 123c 0f06 82bc
000002f0: 3c98 d23b db32 e0bb 64be 413c c5a2 81bc
00000300: 7219 823c a027 af3a 83bb ef3c 8257 043d
00000310: c09f 5a3c a6f5 b73c 14d1 cbbc bc41 793c
00000320: 9877 823c a66b d8bc 284e 9d3c ae5f 81bc
00000330: 643b 10bc 2755 543b 892b 233c 9822 8b3c
00000340: 9582 0ebc 7ed0 243c 884f e3ba 7a2f 953c
00000350: 2ed4 79bb cc6a 0839 0c69 0cbc ba70 b23c
00000360: 1019 adbc 52ed 933b 56ca 543c b964 1fbc
00000370: 548e cfbc 4010 ebb8 14e3 023c 7f0d 09bc
00000380: 585b a2bc 64a2 e43c cfb2 80bb 04fb 2bbc
00000390: 8146 ab3b 9d8a 2aba adc4 853c 986c ae3b
000003a0: f1b2 02bc dc8d 8fbb c681 923c 7ec2 3ebc
000003b0: da2f 38bc 6fe5 b53c 832a afbc 8298 b9bb
000003c0: e84a 74bc d5e5 193d 5262 0ebc ebca c23c
000003d0: f7c9 c33a 4d27 fd3c 8f19 0ebd 0c93 b63c
000003e0: b713 c53b e1ec a13c 2072 1dbc 5b3f 96bc
000003f0: 3bfe 523b f745 d4bb 8da9 173c a87a 94bb
0.015330447 0.007334995 0.010308174 0.01835548 0.026967958 0.008198957 -0.019594269 0.01863818
0.027566545 -0.0039248397 0.021453988 -0.008308068 0.0015634365 -0.0015943266 0.015855601 0.015290546
-0.013845058 0.010986317 -0.00847598 -0.0072304886 -0.012766695 -0.009464554 -0.017378287 0.022805909
-0.01976761 0.011835114 0.022906728 -0.0028653624 -0.02719295 0.0010830385 -0.0053083505 -0.016765382
-0.01782029 0.018196374 -0.0096026035 -0.009680199 -0.01055454 0.0002680463 0.0124370465 -0.0015631879
0.002905137 -0.012034887 0.0064234766 -0.0077739703 -0.0042234105 0.020525796 -0.014089803 -0.0069380654
-0.007735228 0.014511013 -0.012431293 0.031247893 0.0019342798 0.017847192 -0.033885323 0.019741323
-0.012273346 0.012308798 0.007419298 -0.012661348 -0.0025642759 -0.014545313 0.007918856 -0.005596695
-0.0011016512 0.021682076 -0.013817075 -0.0033485272 -0.0132005485 -0.004876452 -0.013030942 -0.0010120223
-0.008232722 0.004824228 0.0016323541 0.005591578 0.010250678 0.035658233 -0.009178999 0.0013866365
0.017831983 -0.0042169467 0.028337475 -0.029860765 0.024396572 -0.0014436727 0.0046660025 -0.0035349787
0.01971888 -0.015560667 -0.0063269897 -0.013607617 -0.0060852985 2.7265183e-05 -0.014769979 -0.0071785143
0.007945992 -0.009758571 0.027263293 0.002031083 0.026790276 -0.0002974372 0.00035895058 0.008064525
-0.025014907 0.005688788 -0.020164756 0.019009562 -0.02445911 -0.009463761 0.007710957 0.01282124
0.0153736565 0.018095745 0.038129978 0.00042659778 -0.020492058 -0.0052205515 0.014500864 0.004697018
0.012557548 -0.0038256089 -0.016074685 0.016038373 -0.012453767 0.0061373184 -0.014171746 0.013563689
0.01827364 0.0017340743 0.019793872 0.01428611 0.016757162 0.018352924 -0.019330977 0.019874444
0.011735715 -1.0953814e-05 0.0107800905 -0.009766104 -0.010814687 0.0006824439 0.010530804 0.016541231
-0.010036838 0.0031767294 -0.0043737483 0.02103405 -0.006611974 -0.0074926107 -0.016521096 0.019477567
-0.018946558 0.004500761 0.013198688 0.012814973 -0.015893003 0.00033126047 0.0045758383 -0.0059485296
-0.008881352 0.006670261 -0.0013428248 -0.0119172465 -0.0027631654 0.00022331784 0.012991972 -0.00647324
0.005255829 -0.0063971104 0.014299829 -0.005578729 0.012948033 0.019508662 -0.017597754 -0.01788877
-0.011771464 0.015832229 -0.005308854 0.027025219 0.0019008254 0.019975891 -0.012962372 0.011189476
-0.008051289 0.020577595 0.008954584 -0.01587203 0.006426839 -0.006842 0.011825178 -0.015824685
0.015881274 0.001336325 0.029264217 0.032310016 0.013343751 0.022456001 -0.02487997 0.015213426
0.015926167 -0.026418518 0.019202307 -0.015792694 -0.008803222 0.0032399388 0.00995911 0.016984269
-0.008698125 0.010059474 -0.0017342428 0.018211115 -0.0038120854 0.00013009756 -0.008569967 0.021782268
-0.021130115 0.004514375 0.012987694 -0.009728604 -0.025336422 -0.000112087 0.00798871 -0.008365034
-0.019818947 0.027909465 -0.0039275656 -0.0104968585 0.0052269106 -0.00065056403 0.016329134 0.005323004
-0.007977233 -0.0043809246 0.017884146 -0.01164305 -0.011241877 0.022204129 -0.021382576 -0.0056639323
-0.014910437 0.0375727 -0.008690434 0.0237784 0.001493751 0.03090253 -0.034692343 0.022286914
0.006014313 0.019766273 -0.009609729 -0.018340757 0.003219499 -0.006478067 0.009256733 -0.0045312233

fc3.bias f4 [32]
00000000: e395 e633 ab90 db35 a588 7d34 d87e d735
00000010: 4ac2 3eb5 3889 71b5 f96f 9035 91e6 0234
00000020: 9846 9eb5 4a01 1336 1edc f335 0ac2 36b3
00000030: 8b7e 6b35 b99a 66b5 1ea1 3db5 78d7 41b5
00000040: 5861 9cb4 e853 c0b4 fe2e be33 dc7b 97b4
00000050: 19b3 43b4 3750 f634 59ea 80b3 18f6 d1b5
00000060: afe5 efb4 686e 2eb6 3bdd ffb4 e04e 3cb5
00000070: 891a c033 f4a7 2336 99ae f734 d4fb 71b5
1.0737474e-07 1.6358875e-06 2.3612172e-07 1.6055665e-06 -7.1063243e-07 -8.9979176e-07 1.0761424e-06 1.2191073e-07
-1.1792463e-06 2.1905457e-06 1.8168973e-06 -4.2551655e-08 8.7728466e-07 -8.590683e-07 -7.0642443e-07 -7.221165e-07
-2.912809e-07 -3.5823837e-07 8.856112e-08 -2.821606e-07 -1.8225946e-07 4.5879435e-07 -6.003092e-08 -1.5643336e-06
-4.4684336e-07 -2.5992285e-06 -4.7658418e-07 -7.0150236e-07 8.9455234e-08 2.4386654e-06 4.6134372e-07 -9.0145954e-07

bn3.weight f4 [32]
00000000: d493 9d3e 9dac a03e 8ef1 8f3e 2d20 b23e
00000010: 61d0 9a3e eb00 393e d741 573e 1111 963e
00000020: e2d3 a63e 5514 713e 5ad1 ab3e 5a46 bf3e
00000030: bffe a03e 7372 6b3e a59e 9e3e 00a7 a63e
00000040: 5d78 a03e d8da 843e da17 933e 292c 633e
00000050: 27eb ac3e 3620 7e3e 291e 5b3e 7023 923e
00000060: 3284 ad3e 1f7f 643e 81a5 343e c06e b33e
00000070: bb07 543e b30c 8a3e 107b aa3e 9ade 803e
0.30776846 0.31381693 0.2811398 0.34790173 0.30237105 0.18066756 0.2102121 0.29309896
0.3258353 0.23542912 0.3355816 0.3735836 0.31444356 0.22992878 0.3098041 0.32549286
0.3134183 0.25948215 0.28729135 0.22184815 0.33773157 0.24816975 0.21398224 0.28542662
0.3388992 0.22314118 0.1764126 0.35045433 0.20706074 0.26962814 0.33297014 0.25169832

bn3.bias f4 [32]
00000000: b3d4 f53d d954 083e 6cb3 063e 0891 e33d
00000010: 806d 003e 82dd d63d 1d33 e23d 0403 033e
00000020: dd1b ef3d dad8 063e b660 db3d 149d cd3d
00000030: 1122 e43d f7f6 053e 72b7 f13d 427c 043e
00000040: 92c8 ee3d ec7b 0b3e b657 033e 24a8 ef3d
00000050: c0f1 d63d b887 0a3e 43b0 ed3d 5b50 013e
00000060: 9b21 dd3d db25 023e 3137 d43d 35df dd3d
00000070: 9f7b 003e 478f 073e ba58 043e ac38 0f3e
0.1200346 0.13313617 0.13154382 0.11111647 0.12541771 0.10491468 0.11044905 0.12794119
0.116752364 0.1316866 0.107118055 0.10039726 0.1113931 0.13082491 0.118025675 0.12938026
0.116593495 0.13621491 0.12826428 0.11701992 0.10495329 0.13528335 0.11605885 0.1262831
0.10797425 0.12709753 0.103620894 0.10833589 0.12547158 0.1323825 0.12924471 0.13986462

bn3.running_mean f4 [32]
00000000: 66fe 4cba 02b2 8a3b 9477 3e3b 1e14 db3a
00000010: b90d b73b 77b0 673b 75e1 b43a 2c18 2c3b
00000020: 2963 d0ba b310 d93b 80cf b43a 43c2 3439
00000030: 0fec 2c3a 0085 2536 fc6b d5ba 0cef c53b
00000040: 2b86 8a3b e4d2 4f3b c51c 8b3b 021c fbb9
00000050: c2c7 c938 7ce2 613b 6ca4 913b 2eda 233b
00000060: 6ad8 653b 0bb8 4c3b a20c 0e3b 10b6 00ba
00000070: 2855 e03a 3935 8a3b 104e 6a3b edcc 953b
-0.0007819891 0.004232646 0.0029062973 0.0016714369 0.0055863527 0.0035352984 0.0013800102 0.0026259525
-0.0015898693 0.006624305 0.001379475 0.00017238506 0.0006596455 2.4664332e-06 -0.0016282792 0.0060404595
0.00422742 0.0031711394 0.004245373 -0.00047895318 9.621635e-05 0.003446727 0.0044446494 0.0025001871
0.003507162 0.0031237628 0.002167501 -0.0004909942 0.0017115222 0.0042177704 0.0035752095 0.004571548

bn3.running_var f4 [32]
00000000: fbfa 323a 4d10 233a ca62 233a bc6a 413a
00000010: 2d43 303a 334e ae39 10c8 bd39 3258 113a
00000020: 5c10 163a b8ca e639 1fc6 263a 4eab 563a
00000030: 81bf 133a 9248 ec39 3ab2 2a3a 3cdd 493a
00000040: 8f49 083a 6fa8 153a fb19 173a cd0a e839
00000050: 1175 4e3a 7cb0 053a 491a c939 c261 ff39
00000060: dc63 f039 5db6 033a ef62 a039 08e2 1c3a
00000070: 23a2 ce39 c812 223a 084a 233a d629 f339
0.000682756 0.00062203855 0.0006232677 0.00073782704 0.0006723877 0.0003324613 0.00036197947 0.0005544453
0.00057244836 0.00044020056 0.000636192 0.00081889785 0.0005636141 0.00045067497 0.0006511543 0.0007700508
0.00051989494 0.00057089975 0.0005764064 0.00044258535 0.00078757206 0.00050998456 0.00038357291 0.00048710225
0.00045850768 0.00050244277 0.0003059129 0.0005984609 0.00039412183 0.0006182608 0.0006228988 0.00046379742

output.weight f4 [1, 32]
00000000: 28b2 93be ad51 983e f81a 88be 9b6c a3be
00000010: 6368 943e 5d67 3e3e d922 5d3e 4c46 913e
00000020: 77ae 9d3e 1951 70be b4d9 9abe 9695 aabe
00000030: 33b7 93be 4f18 733e d93c 9a3e dc01 9e3e
00000040: 7780 92be 8b23 82be 4194 903e a465 683e
00000050: 7408 9fbe 9f5e 833e 3a05 5d3e 2a19 8d3e
00000060: 42a8 9fbe 7126 683e 5ca4 393e ebd6 a6be
00000070: dba0 5bbe 60b2 88be bbf7 a33e 0f0c 81be
-0.2884686 0.29749814 -0.26583076 -0.31918797 0.2898589 0.18594117 0.21595325 0.28373945
0.3079717 -0.23468436 -0.3024422 -0.3331725 -0.28850707 0.23739742 0.30124548 0.30860794
-0.28613636 -0.25417742 0.2823811 0.22695023 -0.31061137 0.25658128 0.21584025 0.2755826
-0.31183058 0.22670914 0.18129104 -0.32585844 -0.2144808 -0.2669859 0.3202494 -0.25204512
